geometryDQN_Savefile.pth (torch, 111234 bytes, 12 tensors)

net.0.weight f4 [128, 9]
-4.984249 -0.23530233 0.38112482 0.055861674 0.045970123 2.773914 1.0119678 1.1415222
-0.1888798 3.2583637 0.20951115 -0.016565207 -0.74540746 -0.48229063 2.1388109 -0.4444961
-2.6724846 0.8163273 2.9534411 0.41627058 -0.06813003 -1.5403557 -0.89947504 1.1977152
-0.26093206 -0.27503142 -3.7101736 0.9295384 0.57608265 -0.6842691 0.50344366 -0.6444305
1.8747977 0.32461375 1.2522277 0.90294486 -0.4944536 -0.3870899 1.8099623 -2.9520495
-0.19557199 0.09048342 -0.52290833 -0.37202337 -2.0602956 2.6919823 -0.41507006 0.77548623
-1.2643857 -2.0262012 0.9850532 -1.190725 0.57348347 -0.7454631 -6.18146 -1.9781078
-0.67389905 0.8994311 -1.2763126 -2.1492834 0.5989863 0.31788188 0.03361539 1.3942044
0.34328988 -0.5657904 -3.3383272 -1.0410467 1.5514557 0.32135966 1.1809437 -0.6681289
-2.7776165 -1.5291224 -0.08984951 -1.0453308 -1.1126906 -1.1572654 0.7430476 -1.0192785
-0.7943991 3.6741908 0.84113103 -2.4555967 -0.20424527 0.5600618 -0.5856129 -0.9357195
1.0663416 -0.49194956 2.8317716 0.6477578 1.0560756 -5.8597894 0.11213858 1.2527841
-0.053206783 -1.229738 -9.139735 -2.3567748 -0.18090214 -0.020390775 1.304063 -0.30578455
-1.191631 0.29987836 0.8306236 0.9846022 -0.5667763 -0.06711773 -0.29399145 -0.5894959
0.6393022 -0.65157163 -1.277183 0.4605336 -2.4549432 -3.4283097 -1.6736019 -0.013481665
0.02800261 -0.12629148 -5.474357 -2.070498 -1.333685 -1.303777 2.9484546 0.28994203
-0.94233674 -2.4176013 -3.0331037 -1.1768061 -0.05283028 0.62515 -4.488645 -1.6626166
0.09925917 -0.12537739 0.14150561 -0.7226712 -1.994165 -0.58186126 -1.3994968 -0.08036987
-4.355958 -1.1192545 -0.14624265 -1.0462859 -0.24074923 -4.329422 -1.2948064 -2.0623493
0.08596639 3.576217 0.47551817 -2.3414814 0.9571182 -0.7039056 -0.2436886 -1.6007758
1.2466105 0.3434967 4.193434 0.28432637 -2.5057817 0.8835761 0.800253 -0.48804975
-0.3270676 0.29886457 0.56301934 -5.1602435 -0.62447727 -0.25961834 0.11708674 0.6994677
-2.6086214 -0.9077837 1.0651443 0.24231541 -4.709658 -2.2463462 -0.078326255 -0.35298106
-0.5592937 -3.936434 0.60833424 -8.428712 -0.7057877 -3.2749217 -1.3648405 -0.1178714
1.836505 0.39299166 -0.675778 -0.18683593 -5.752513 -1.5363355 -0.37842357 -0.30801934
0.15909696 0.24347328 -0.38382035 -1.9000181 -1.0390066 -0.22265802 0.14767651 5.1199174
1.1920664 -6.8325896 -0.6492345 0.049399257 1.990813 0.051958848 0.7986048 0.17587958
-2.1441383 -1.8763083 0.02691206 -0.48832357 -0.61911476 -1.6718222 0.008992354 -5.754447
-1.0818263 4.2468605 0.5567848 -0.61174715 0.6234808 -0.31135732 0.7495276 -0.033086013
0.7692872 -0.31707436 0.6159087 -0.01961213 -1.7999481 0.59515345 0.21305133 1.4327726
0.1514686 -0.9564118 1.8740779 -1.4797577 0.022086477 1.3210131 -0.33575866 0.27099466
5.817682 1.5842639 -5.425255 0.07320498 -0.3954531 -0.04280753 -0.32328174 -0.22519085
00000000: f87e 9fc0 18f3 70be cb22 c33e 36cf 643d
00000010: 2b4b 3c3d cf87 3140 2988 813f 661d 923f
00000020: b569 41be 0889 5040 178a 563e c2b3 87bc
00000030: 06d3 3ebf ccee f6be 47e2 0840 fe94 e3be
00000040: fd09 2bc0 d3fa 503f 2e05 3d40 6b21 d53e
00000050: c287 8bbd 602a c5bf ff43 66bf bb4e 993f
00000060: e398 85be ebd0 8cbe 7c73 6dc0 3bf6 6d3f
00000070: 277a 133f 422c 2fbf afe1 003f 66f9 24bf
00000080: 5ff9 ef3f c633 a63e ff48 a03f 6527 673f
00000090: 0629 fdbe a630 c6be d8ac e73f 61ee 3cc0
000000a0: 0644 48be 5f4f b93d 52dd 05bf d979 bebe
000000b0: e2db 03c0 7049 2c40 1084 d4be 4486 463f
000000c0: 64d7 a1bf 48ad 01c0 722c 7c3f ad69 98bf
000000d0: d0cf 123f abd6 3ebf 85ce c5c0 a332 fdbf
000000e0: a684 2cbf 1e41 663f 365e a3bf dc8d 09c0
000000f0: 2b57 193f 6ac1 a23e 4bb0 093d 4a75 b23f
00000100: b1c3 af3e a4d7 10bf 27a7 55c0 0541 85bf
00000110: 1a96 c63f 4189 a43e 2a29 973f 7f0a 2bbf
00000120: 78c4 31c0 48ba c3bf 0503 b8bd 66cd 85bf
00000130: a56c 8ebf 4621 94bf 5e38 3e3f b877 82bf
00000140: bd5d 4bbf f125 6b40 5d54 573f 7f28 1dc0
00000150: ac25 51be 3660 0f3f baea 15bf 508b 6fbf
00000160: e27d 883f d0e0 fbbe bf3b 3540 75d3 253f
00000170: 7c2d 873f 6583 bbc0 e9a8 e53d 3b5b a03f
00000180: 5bef 59bd 0e68 9dbf 5b3c 12c1 66d5 16c0
00000190: 693e 39be 8e0a a7bc 89eb a63f cb8f 9cbe
000001a0: 5d87 98bf a889 993e c0a3 543f e40e 7c3f
000001b0: 4018 11bf 0575 89bd 0c86 96be 34e9 16bf
000001c0: 4fa9 233f 66cd 26bf bc7a a3bf 0fcb eb3e
000001d0: ca1d 1dc0 6d69 5bc0 9638 d6bf 34e2 5cbc
000001e0: bb65 e53c 8e52 01be ef2d afc0 0a83 04c0
000001f0: 31b6 aabf 2ae2 a6bf 7bb3 3c40 4873 943e
00000200: fb3c 71bf fbb9 1ac0 5f1e 42c0 95a1 96bf
00000210: 9064 58bd d509 203f fba2 8fc0 9fd0 d4bf
00000220: 6448 cb3d ee62 00be d9e6 103e fb00 39bf
00000230: cc40 ffbf dcf4 14bf b622 b3bf f598 a4bd
00000240: 0264 8bc0 bb43 8fbf a2c0 15be b2ec 85bf
00000250: f786 76be a08a 8ac0 37bc a5bf 88fd 03c0
00000260: 260f b03d bde0 6440 1e77 f33e d5da 15c0
00000270: b305 753f 2833 34bf 8189 79be 39e6 ccbf
00000280: ef90 9f3f cdde af3e 9c30 8640 3a93 913e
00000290: ba5e 20c0 0b32 623f 61dd 4c3f a8e1 f9be
000002a0: 6875 a7be c704 993e 0922 103f b720 a5c0
000002b0: bedd 1fbf b2ec 84be 2ccb ef3d 5110 333f
000002c0: a7f3 26c0 8364 68bf a656 883f 8821 783e
000002d0: 85b5 96c0 23c4 0fc0 8469 a0bd efb9 b4be
000002e0: df2d 0fbf 89ee 7bc0 cbbb 1b3f 01dc 06c1
000002f0: 81ae 34bf 5198 51c0 18b3 aebf 9066 f1bd
00000300: 9912 eb3f 3436 c93e c9ff 2cbf eb51 3fbe
00000310: 9614 b8c0 a4a6 c4bf bcc0 c1be b6b4 9dbe
00000320: 50ea 223e 0f51 793e 1a84 c4be cb33 f3bf
00000330: 2bfe 84bf 7700 64be 8338 173e 5dd6 a340
00000340: a295 983f 93a4 dac0 3b34 26bf e056 4a3d
00000350: f6d2 fe3f cdd2 543d 5d71 4c3f c719 343e
00000360: 9039 09c0 df2a f0bf ae76 dc3c 8c05 fabe
00000370: 4e7e 1ebf 45fe d5bf ab54 133c 6e24 b8c0
00000380: 4979 8abf 48e6 8740 7389 0e3f 769b 1cbf
00000390: 709c 1f3f 3a6a 9fbe 0ae1 3f3f 3385 07bd
000003a0: 02f0 443f 9257 a2be 31ac 1d3f 9ea9 a0bc
000003b0: b364 e6bf fa5b 183f 212a 5a3e 1865 b73f
000003c0: 961a 1b3e 67d7 74bf c9e1 ef3f b368 bdbf
000003d0: b3ee b43c f516 a93f 8fe8 abbe d0bf 8a3e
000003e0: 732a ba40 29c9 ca3f b09b adc0 7eec 953d
000003f0: d478 cabe f356 2fbd 2f85 a5be 6e98 66be

net.0.bias f4 [128]
-0.10793522 -0.24400704 -1.0994335 -0.7176916 -0.0072396873 -2.095329 -1.6830633 -1.0454602
-1.0939213 0.6267061 -0.08468082 0.2953585 0.8921823 -0.18567227 -2.5433981 -0.6019478
-0.109551765 -0.060346413 -0.79895324 0.8052598 -0.67745423 -0.30156323 0.13928655 -0.47197947
-1.0673217 -0.9309301 -0.60987324 -0.10991611 0.0055986047 -0.552474 -0.19073722 0.4688289
-0.23861158 -0.50781727 0.23473215 0.12145393 -0.08859766 -0.55283505 -0.68988955 -0.61208963
-0.048281454 -0.3758464 0.13297425 -0.5114498 -0.59851855 -0.29470402 -0.1324816 -0.009166737
-1.6888599 -1.390218 -0.37396494 -1.1643933 0.6411203 0.5139705 -0.432408 -0.078914076
-0.5675908 0.20375142 -0.15245155 -0.822402 -0.7962678 0.0789991 -0.38866168 -0.41808838
-0.27775428 0.5107842 -0.94485474 -0.27011168 0.4729976 -1.2776128 -0.6395456 -0.8686918
-0.7810951 0.7501966 0.7665482 -1.2734519 -2.2972546 -2.442142 -0.5976595 -1.2836559
0.19765365 -0.054035615 -0.7208591 -1.7086732 0.20294623 -0.19317813 -0.3028804 -0.24635428
-0.2552524 0.827736 -0.13977924 0.05506247 0.17023161 -0.76121235 -1.3063811 -0.84368736
-0.4081816 -0.33336732 -0.19324711 0.27258956 -1.9346961 -0.09153441 -0.99791825 -1.126357
-1.5272664 -0.063529834 0.8323217 -0.82326734 0.62194383 -0.99030703 -1.425164 0.94574684
-1.0045186 -0.31003463 0.25829872 -0.9346722 -2.1068366 0.6030118 0.12626895 -0.11851854
0.058793962 0.9197915 -0.12806861 -0.91935897 -0.16340539 -0.3956886 -0.23014304 -0.66732424
00000000: 240d ddbd fbdc 79be 3dba 8cbf a3ba 37bf
00000010: e63a edbb df19 06c0 9e6e d7bf a4d1 85bf
00000020: 9d05 8cbf d06f 203f 236d adbd 3b39 973e
00000030: 0f66 643f df20 3ebe 09c7 22c0 4019 1abf
00000040: ad5c e0bd cd2d 77bd 3388 4cbf 8225 4e3f
00000050: a46d 2dbf 7f66 9abe 22a1 0e3e 4ba7 f1be
00000060: ff9d 88bf 6f51 6ebf a720 1cbf b31b e1bd
00000070: 8074 b73b f06e 0dbf 9e50 43be 570a f03e
00000080: 9856 74be 5000 02bf a05d 703e d7bc f83d
00000090: b172 b5bd 9986 0dbf 9a9c 30bf e8b1 1cbf
000000a0: c6c2 45bd f06e c0be 672a 083e 60ee 02bf
000000b0: 8338 19bf 72e3 96be 42a9 07be 1530 16bc
000000c0: 902c d8bf aaf2 b1bf 5578 bfbe d70a 95bf
000000d0: 7620 243f 9293 033f 9564 ddbe b49d a1bd
000000e0: a14d 11bf 36a4 503e 421c 1cbe f088 52bf
000000f0: 35d8 4bbf 48ca a13d aafe c6be ae0f d6be
00000100: cf35 8ebe c1c2 023f 00e2 71bf 144c 8abe
00000110: be2c f23e d188 a3bf 43b9 23bf 9662 5ebf
00000120: d9f5 47bf e20c 403f 813c 443f 7900 a3bf
00000130: 3806 13c0 0e4c 1cc0 3700 19bf d64e a4bf
00000140: b865 4a3e 7354 5dbd 398a 38bf ceb5 dabf
00000150: 23d1 4f3e 7dd0 45be 2413 9bbe 4c44 7cbe
00000160: 71b0 82be 82e6 533f 4a22 0fbe 2f89 613d
00000170: 3251 2e3e d0de 42bf 7f37 a7bf e5fb 57bf
00000180: 2efd d0be 1faf aabe 92e2 45be dc90 8b3e
00000190: 1fa4 f7bf 6576 bbbd 9277 7fbf 772c 90bf
000001a0: 777d c3bf ee1b 82bd 0913 553f a6c1 52bf
000001b0: b637 1f3f c384 7dbf c66b b6bf 771c 723f
000001c0: 1194 80bf dcbc 9ebe bb3f 843e ad46 6fbf
000001d0: 69d6 06c0 fb5e 1a3f a64c 013e d9b9 f2bd
000001e0: f0d1 703d 7577 6b3f 6b24 03be 1c5b 6bbf
000001f0: be53 27be b297 cabe 9eaa 6bbe c3d5 2abf

net.2.weight f4 [128]
1.3380284 1.9307369 1.8528662 0.8173802 1.0714288 1.5579867 1.5258794 1.5697981
2.1440046 0.8013138 1.9028752 0.82614446 0.8421152 1.5292726 1.6168209 0.03087296
1.2002357 0.90204364 0.9202962 1.4426028 2.0913365 2.4644456 -0.0054871864 6.292682
1.4436754 0.59668624 0.9176718 2.3423657 1.0741836 1.0494491 1.0746918 0.30392978
-0.009310283 0.052917685 1.8460025 1.9797808 0.9642393 1.2826393 1.6829541 -0.0018175554
0.5178513 1.075757 0.48345503 0.94809896 1.3986623 1.1031208 1.1613867 1.8311393
2.2695713 1.2660879 3.827921 1.4469782 0.57134134 0.13281517 1.0164607 1.09504
1.6720073 3.4778137 3.6233811 1.8025025 0.9111222 -0.014191496 0.015672961 1.3987333
1.0547491 2.2728176 1.544577 1.3428997 0.52721554 1.7308447 1.5962697 1.1354964
1.2197319 1.5488895 1.5708936 1.2429453 1.3850862 1.0937705 1.5282717 1.2806165
1.159257 2.076308 2.374091 1.3727484 0.55388165 3.0969944 1.0843757 1.4830685
1.4411751 1.3880646 1.7670575 0.6005474 0.43825972 1.0890523 1.7228024 2.4058175
1.814583 0.6910805 2.3730147 1.6931697 2.3266873 1.082631 1.3638666 2.2723465
1.8246111 -0.0059984326 1.56494 1.1646092 0.9912507 2.0685632 1.4424517 1.7982098
1.3694904 1.1205376 0.30395558 2.298436 1.8478098 1.5974747 2.1380684 1.0854751
2.2229664 0.58296657 1.0892608 1.9812557 1.075875 1.034159 1.067083 2.2430537
00000000: 8444 ab3f 6322 f73f b82a ed3f d43f 513f
00000010: 9424 893f 1c6c c73f 0450 c33f 25ef c83f
00000020: 5f37 0940 e722 4d3f 6a91 f33f 347e 533f
00000030: dd94 573f 34bf c33f fdf3 ce3f 4ae9 fc3c
00000040: 53a1 993f 55ec 663f 8898 6b3f 35a7 b83f
00000050: 75d8 0540 7ab9 1d40 dbcd b3bb a75d c940
00000060: 5bca b83f 6ec0 183f 8aec 6a3f 52e9 1540
00000070: d97e 893f 5954 863f 808f 893f af9c 9b3e
00000080: 288a 18bc 37c0 583d cf49 ec3f 7569 fd3f
00000090: 63d8 763f 862d a43f 0a6b d73f 0a3b eeba
000000a0: e791 043f 68b2 893f 6b87 f73e 9db6 723f
000000b0: 5e07 b33f 1033 8d3f 52a8 943f c662 ea3f
000000c0: a840 1140 2b0f a23f a8fc 7440 9536 b93f
000000d0: 6d43 123f b300 083e 621b 823f 452a 8c3f
000000e0: 5604 d63f 8094 5e40 7ae5 6740 67b8 e63f
000000f0: 4e3f 693f 7383 68bc 9564 803c b109 b33f
00000100: 0502 873f d875 1140 b3b4 c53f 23e4 ab3f
00000110: 99f7 063f 528c dd3f 9152 cc3f f257 913f
00000120: 2d20 9c3f 0342 c63f 0b13 c93f d518 9f3f
00000130: 814a b13f ac00 8c3f 689e c33f 3eeb a33f
00000140: 8962 943f 3be2 0440 1bf1 1740 38b6 af3f
00000150: 30cb 0d3f 2835 4640 d3cc 8a3f 30d5 bd3f
00000160: 6d78 b83f 1aac b13f f12e e23f 79bd 193f
00000170: 9463 e03e 1166 8b3f ca84 dc3f eaf8 1940
00000180: 4144 e83f a7ea 303f 79df 1740 c9b9 d83f
00000190: 72e8 1440 a793 8a3f 2e93 ae3f 206e 1140
000001a0: db8c e93f 808e c4bb f44f c83f ea11 953f
000001b0: 9bc2 7d3f 5763 0440 42a2 b83f bd2b e63f
000001c0: 764b af3f c76d 8f3f 11a0 9b3e 9319 1340
000001d0: 0885 ec3f 0d7a cc3f 1dd6 0840 d9f0 8a3f
000001e0: 1545 0e40 4c3d 153f e66c 8b3f c999 fd3f
000001f0: 46b6 893f 525f 843f 2d96 883f 318e 0f40

net.2.bias f4 [128]
-0.60159993 0.81667316 0.74378455 0.38055885 0.47963718 0.7009397 0.7184257 0.7487132
0.9812548 0.10151541 0.7441057 -0.43005857 0.14043109 0.7166311 0.7002005 0.034355715
0.52034694 0.3972366 0.08150533 -0.05742505 0.90688556 1.1776217 0.0065171486 0.5165672
0.6609191 0.15186457 0.28364134 -0.33824423 0.45303845 0.44796845 0.45389417 -0.4150008
0.0021952945 0.043148115 -1.0091494 1.3285282 0.40487996 0.5529487 0.8512945 -0.001839449
0.2635292 0.4521644 0.09993914 0.40137154 0.58605224 0.46479818 0.09097753 0.730664
0.9915261 0.7375638 1.0747901 0.6273613 -0.71579236 -0.26142746 0.42459986 0.46136326
0.788262 -0.33110544 0.48572743 0.90932345 0.22816403 -0.013112207 0.028290931 0.21749568
0.44361147 0.9777237 0.7010706 0.6570802 0.15616849 0.90480214 1.0106045 0.51398504
0.51906043 -0.4858446 0.2784546 0.562387 0.60253054 0.50427 0.77736366 0.14485057
-0.0021203787 0.96123064 0.71580875 0.6175671 0.13279827 1.2729146 0.45735642 0.606951
0.61485046 0.18087444 0.7185472 0.3923539 0.45143884 0.4623982 0.7866472 1.1007093
0.77818114 0.34635246 1.3229204 0.98643315 1.0048939 0.45711464 0.77776444 0.98388904
0.9910661 0.009633019 -0.43304047 0.49583936 0.2735334 0.9524117 0.61437374 -1.1983385
0.953867 0.47047237 -0.11873128 0.9154743 0.7423516 0.75518215 0.018529348 0.45759183
-0.30179027 -0.6416184 0.45981082 1.0283102 0.45463586 0.5337914 0.44936746 0.9985194
00000000: 7402 1abf 7e11 513f aa68 3e3f 9cd8 c23e
00000010: 0193 f53e c970 333f bfea 373f abab 3f3f
00000020: 8433 7b3f 50e7 cf3d b67d 3e3f a330 dcbe
00000030: 2bcd 0f3e 2375 373f 5740 333f 94b8 0c3d
00000040: 7535 053f 9862 cb3e 44ec a63d 8736 6bbd
00000050: a729 683f 4fbc 963f ce8d d53b bf3d 043f
00000060: fe31 293f 6382 1b3e 7039 913e 592e adbe
00000070: a8f4 e73e 1f5c e53e d164 e83e fc7a d4be
00000080: eede 0f3b 14bc 303d cf2b 81bf 360d aa3f
00000090: 6d4c cf3e 0c8e 0d3f 70ee 593f ab19 f1ba
000000a0: 4ded 863e 1882 e73e e4ac cc3d 9280 cd3e
000000b0: 8507 163f 07fa ed3e 6d52 ba3d cc0c 3b3f
000000c0: a8d4 7d3f fbd0 3c3f b992 893f c09a 203f
000000d0: 2b3e 37bf d2d9 85be 2765 d93e ce37 ec3e
000000e0: 8acb 493f a786 a9be 44b1 f83e 6cc9 683f
000000f0: d5a3 693e 95d4 56bc 62c2 e73c 30b7 5e3e
00000100: 0b21 e33e 1a4c 7a3f 5d79 333f 6836 283f
00000110: a2ea 1f3e 1da1 673f 7d5b 813f 8694 033f
00000120: 25e1 043f a0c0 f8be 9a91 8e3e 98f8 0f3f
00000130: 713f 1a3f d717 013f 4e01 473f b553 143e
00000140: 0df6 0abb 3613 763f 3e3f 373f e118 1e3f
00000150: 45fc 073e deee a23f 9f2a ea3e 2461 1b3f
00000160: d766 1d3f 2637 393e b6f2 373f 9ce2 c83e
00000170: fe22 e73e 75bf ec3e b661 493f 0be4 8c3f
00000180: e136 473f 1c55 b13e 7555 a93f e286 7c3f
00000190: 5da0 803f ee0a ea3e 921b 473f 27e0 7b3f
000001a0: 82b6 7d3f cfd3 1d3c 7bb7 ddbe a8de fd3e
000001b0: 920c 8c3e 41d1 733f 9947 1d3f 2863 99bf
000001c0: a130 743f c1e1 f03e 6329 f3bd 865c 6a3f
000001d0: c10a 3e3f 9e53 413f dcca 973c 7a49 ea3e
000001e0: 4184 9abe 1a41 24bf 536c eb3e ab9f 833f
000001f0: 08c6 e83e 8ea6 083f 7e13 e63e f89e 7f3f

net.3.weight f4 [128, 128]
-2.8170033 -1.1737243 0.83829826 -0.30761254 0.8021544 -0.7029285 -1.8368766 -2.4962292
1.8711411 1.2435693 2.7767036 -1.9861315 -0.74793667 0.85400206 6.4364476 -0.111314796
0.6651865 2.2411983 0.953518 -3.1015363 0.77411175 0.7875669 -0.0006770799 0.5547533
1.6888843 0.9514414 -1.9852511 0.62626714 0.6954197 -0.19142915 0.6699117 -0.38150477
-0.3846074 -0.1397538 1.3329893 -1.0732634 0.59152526 -2.0027559 -0.6056604 0.035608646
-3.2155435 0.6535099 1.2638909 0.54865503 1.2108266 0.71065015 -0.2852868 -0.059553165
0.48665425 -0.2202276 -0.5580758 -1.5586432 -0.42286605 -1.5884668 0.799387 0.6833062
0.523725 -0.010386506 0.837114 -0.3770382 0.9009719 -0.1116327 -0.0851375 -0.98830324
0.723049 0.86862427 0.60243917 1.3750622 -0.8097898 1.2398044 -0.550764 0.7461803
0.77957296 0.73719454 -3.42016 -0.3244314 -0.652624 4.0120974 -0.18231407 -1.4541012
0.7024741 0.7712362 -0.04207805 2.9035215 -0.9790607 0.7802873 0.70283306 1.5017238
0.8202836 -1.8442746 0.71469 0.2432146 -3.5188463 0.75582063 0.058092557 3.464171
0.735268 -0.26322162 -0.7672193 -1.9044738 1.3229665 0.70107114 -0.47773898 0.670802
-0.3006985 -0.0014181847 -0.5732505 0.14126669 0.42843828 0.59670967 2.8336134 -0.7124996
-1.7811327 0.5730065 -2.1800835 -0.6732253 0.9973717 -0.07514822 -2.331139 0.7352484
-0.17793031 0.46562833 0.6502064 -0.5990418 0.73647326 -1.3251088 0.6707478 0.4840914
0.3404407 0.6213389 0.7922774 -2.3236873 -0.25900394 -1.147573 0.034270484 0.72402984
-0.3774566 0.7326027 -0.0052090175 -0.8276342 0.33612698 -1.0402914 -0.49673757 -0.018441424
-0.71847457 0.58650964 -0.70549846 3.1353176 -0.28160682 -0.99920017 -0.04570003 -3.1963787
-0.92698675 -2.0291898 1.0061193 -0.47626907 -0.5037982 -0.5984452 -0.5283647 0.6981511
-0.84939647 -0.03732283 1.0299653 -0.078573585 -0.499958 -0.013697387 0.7681453 -0.118539415
0.08628209 -0.49470937 1.2894377 -0.7312298 -1.3867867 -0.54778886 -0.9491055 0.5301848
-0.08877838 -0.6496594 0.40759712 -0.7106946 0.91186434 0.8649612 -0.62521595 -0.5163849
-0.39378583 0.37206256 -0.20372929 -1.1728154 -0.17158054 -0.12753886 -0.037501726 0.37898362
-0.49185622 -0.914982 -0.85203683 -0.99085367 0.07156183 -0.6308758 -0.96936685 -1.135992
-0.8031305 -0.031836376 0.61170256 -0.62534666 -0.6218511 -1.2441128 -0.30597675 -0.22091582
0.07813369 -2.5756896 0.3558464 -1.548258 1.3486123 -2.1134546 -0.49679893 -1.0033069
-0.20804092 0.22166349 1.5307549 -0.40778553 -0.7687813 -0.50948685 -1.4390258 0.03152786
-0.39267135 -0.9565702 -2.5445094 -0.38420677 -0.079488635 -0.51318413 0.45620534 -0.11642151
-1.0930139 0.13173078 -0.4905196 -1.156102 0.29867762 -0.7349862 0.43818855 0.09264752
-1.8095912 -0.71757203 -0.36805543 1.1856966 -0.43536094 -0.17016345 -0.16488168 -0.53345186
-0.49593642 0.19556385 -0.5529254 -0.8490024 -0.5522933 -0.61837107 -0.5109622 -0.82388216
00000000: c849 34c0 993c 96bf b79a 563f 647f 9dbe
00000010: fe59 4d3f 1ff3 33bf c61e ebbf 38c2 1fc0
00000020: 8d81 ef3f 472d 9f3f 83b5 3140 8f39 febf
00000030: c778 3fbf e19f 5a3f 61f7 cd40 03f9 e3bd
00000040: aa49 2a3f cb6f 0f40 c119 743f 927f 46c0
00000050: 302c 463f fc9d 493f 107e 31ba 5004 0e3f
00000060: 5c2d d83f aa91 733f b51c febf 0b53 203f
00000070: 0707 323f 0106 44be 557f 2b3f 9854 c3be
00000080: 43eb c4be 9f1b 0fbe 659f aa3f b260 89bf
00000090: 336e 173f 272d 00c0 8f0c 1bbf 5fda 113d
000000a0: 77cb 4dc0 6d4c 273f 2dc7 a13f a874 0c3f
000000b0: 5efc 9a3f 2bed 353f 1d11 92be 05ee 73bd
000000c0: bf2a f93e 5883 61be 0ede 0ebf 9f81 c7bf
000000d0: e681 d8be e152 cbbf a0a4 4c3f 28ed 2e3f
000000e0: d712 063f 2a2c 2abc 1a4d 563f 270b c1be
000000f0: 18a6 663f af9f e4bd 925c aebd 7101 7dbf
00000100: bd19 393f 295e 5e3f 7439 1a3f 0a02 b03f
00000110: 624e 4fbf e9b1 9e3f dffe 0cbf ac05 3f3f
00000120: 1892 473f c8b8 3c3f e7e3 5ac0 df1b a6be
00000130: 5e12 27bf 1a63 8040 8ab0 3abe fd1f babf
00000140: 58d5 333f bc6f 453f 095a 2cbd 4cd3 3940
00000150: b9a3 7abf e9c0 473f deec 333f 7c38 c03f
00000160: 1bfe 513f 3111 ecbf edf5 363f 400d 793e
00000170: c734 61c0 767d 413f 76f2 6d3d fab4 5d40
00000180: 863a 3c3f fcc4 86be 7c68 44bf ccc5 f3bf
00000190: f756 a93f 6679 333f 349a f4be aeb9 2b3f
000001a0: 27f5 99be 62e2 b9ba 8bc0 12bf 37a8 103e
000001b0: 435c db3e f7c1 183f ec59 3540 6066 36bf
000001c0: 28fc e3bf 8eb0 123f 7d86 0bc0 7e58 2cbf
000001d0: c053 7f3f 4fe7 99bd 6231 15c0 3d39 3c3f
000001e0: 5d33 36be d666 ee3e ed73 263f ce5a 19bf
000001f0: 8389 3c3f 2a9d a9bf 21b6 2b3f d4da f73e
00000200: 3e4e ae3e 1110 1f3f b1d2 4a3f 4bb7 14c0
00000210: 2a9c 84be ace3 92bf 355f 0c3d 055a 393f
00000220: fe41 c1be da8b 3b3f 68b0 aabb d6df 53bf
00000230: d618 ac3e 4528 85bf 6354 febe 7812 97bc
00000240: f3ed 37bf 7f25 163f 8c9b 34bf 0ba9 4840
00000250: c52e 90be 95cb 7fbf f42f 3bbd 7891 4cc0
00000260: 014f 6dbf 3fde 01c0 84c8 803f 8ad9 f3be
00000270: ebf8 00bf b433 19bf e942 07bf 08ba 323f
00000280: 0c72 59bf d3df 18bd e7d5 833f 30eb a0bd
00000290: 7ffa ffbe 016b 60bc 2ca5 443f cbc4 f2bd
000002a0: aab4 b03d 8c4a fdbe 4b0c a53f e031 3bbf
000002b0: 3a82 b1bf e43b 0cbf 94f8 72bf 31ba 073f
000002c0: 70d1 b5bd 1450 26bf 92b0 d03e 15f0 35bf
000002d0: f16f 693f 196e 5d3f 270e 20bf cd31 04bf
000002e0: 4c9e c9be fc7e be3e 699e 50be d11e 96bf
000002f0: cfb2 2fbe 8c99 02be 699b 19bd 240a c23e
00000300: 94d4 fbbe 433c 6abf 161f 5abf 96a8 7dbf
00000310: 028f 923d 1481 21bf 6d28 78bf 3068 91bf
00000320: f699 4dbf dc66 02bd 8a98 1c3f b816 20bf
00000330: a231 1fbf 173f 9fbf fca8 9cbe c237 62be
00000340: 8e04 a03d 19d8 24c0 8031 b63e 512d c6bf
00000350: 549f ac3f d742 07c0 6e5c febe 5c6c 80bf
00000360: ae08 55be c1fb 623e c7ef c33f 44c9 d0be
00000370: dace 44bf bb6d 02bf ff31 b8bf 5b23 013d
00000380: 380c c9be c9e1 74bf 3ed9 22c0 c0b6 c4be
00000390: f0ca a2bd 0960 03bf bf93 e93e 676e eebd
000003a0: e1e7 8bbf 6fe4 063e 6325 fbbe 26fb 93bf
000003b0: 46ec 983e 0e28 3cbf 405a e03e fcbd bd3d
000003c0: afa0 e7bf cdb2 37bf c371 bcbe e8c4 973f
000003d0: a1e7 debe 543f 2ebe bed6 28be 4d90 08bf
000003e0: 61eb fdbe e441 483e 858c 0dbf 3958 59bf
000003f0: 1863 0dbf 914d 1ebf 6bce 02bf f1e9 52bf

net.3.bias f4 [128]
-1.3949152 -1.2828318 -1.1295958 -1.3685005 -1.1815796 -0.27991486 -1.0515178 -0.9986014
-1.2114636 -1.216307 -0.38881505 -1.1974652 -0.6854229 -0.97074276 -0.0019784363 -0.65724623
-0.7883668 -1.6306188 -1.0307103 -0.5651685 -0.1217629 -0.73152727 -1.6835369 -0.787607
-0.3039527 -0.52267855 -0.2743704 -0.92127347 -1.0940233 -0.425204 -0.43147478 -1.6368887
-0.5008834 -0.3312684 -1.7323186 -1.3298918 -0.9766521 -1.309209 -0.8964962 -0.61078274
-0.82098824 -0.73051167 -0.4617926 -1.4556631 -0.11655314 -0.091287635 -0.92526776 -0.4204429
-0.27138174 -1.6232213 -0.8614836 -1.4928163 -0.44805384 -0.7288557 -0.38978934 -0.61442006
-0.3348212 -0.87005275 -0.7411695 -0.95347184 -1.2381362 -0.77310884 -0.51964766 -0.5923934
-0.6375818 -0.7014 -1.0494076 -1.1120574 -0.21033294 -0.8026285 -0.28166276 0.07046435
0.29833522 -0.86078215 -1.3313315 -0.08122214 -1.1347535 -1.0556393 -1.1140658 -0.517319
-1.257821 -1.2913032 -1.1363852 -1.0469253 -0.8438697 -0.37710968 -1.3092365 -0.7454735
-0.46965042 -0.39808607 -0.662117 -1.1653806 -0.9609611 -0.10618287 -1.5222905 -0.61698467
-0.76782805 -0.6641102 -0.83829033 -0.9206572 -0.09406006 -0.58883846 -0.0057025943 -1.6873147
-0.947861 -1.0628942 -0.60252607 -1.044788 -1.1624424 -0.14406164 -1.1671376 -0.5979149
-0.7040751 -1.430111 -1.9626788 0.119933456 -0.6187922 -0.71762997 -0.41363648 -2.1799848
-0.28500685 -0.88458806 -1.5363405 -1.0316237 -1.0124724 -1.3403288 -1.2670102 -1.4419587
00000000: 958c b2bf d533 a4bf 9896 90bf 062b afbf
00000010: 003e 97bf 0051 8fbe 2398 86bf 57a4 7fbf
00000020: 3d11 9bbf f3af 9bbf c412 c7be 8a46 99bf
00000030: e077 2fbf 9982 78bf a7a8 01bb 4a41 28bf
00000040: 68d2 49bf 1eb8 d0bf 51ee 83bf e2ae 10bf
00000050: d45e f9bd 5f45 3bbf 237e d7bf 9da0 49bf
00000060: b09f 9bbe 43ce 05bf 477a 8cbe 94d8 6bbf
00000070: f508 8cbf 57b4 d9be 43ea dcbe 9285 d1bf
00000080: e539 00bf 039c a9be 9ebc ddbf e539 aabf
00000090: df05 7abf 2994 a7bf c680 65bf 425c 1cbf
000000a0: 492c 52bf d002 3bbf 1470 ecbe 2b53 babf
000000b0: 6ab3 eebd 03f5 babd 59de 6cbf 4b44 d7be
000000c0: 8cf2 8abe b7c5 cfbf 308a 5cbf 9b14 bfbf
000000d0: 5067 e5be 4a96 3abf 7892 c7be a24a 1dbf
000000e0: af6d abbe c7bb 5ebf 49bd 3dbf bb16 74bf
000000f0: 3f7b 9ebf 76ea 45bf a107 05bf 18a7 17bf
00000100: 9038 23bf f38e 33bf fd52 86bf e657 8ebf
00000110: 8561 57be 1079 4dbf 1a36 90be 9d4f 903d
00000120: 65bf 983e 385c 5cbf 1269 aabf cb57 a6bd
00000130: 9a3f 91bf 301f 87bf b599 8ebf 056f 04bf
00000140: 4700 a1bf 6c49 a5bf 1275 91bf a601 86bf
00000150: d807 58bf 8514 c1be 1095 a7bf 5ad7 3ebf
00000160: 0576 f0be f0d1 cbbe 8080 29bf 312b 95bf
00000170: 8c01 76bf 6876 d9bd 6ada c2bf b5f2 1dbf
00000180: 6190 44bf 2003 2abf 329a 56bf 31b0 6bbf
00000190: 90a2 c0bd 1ebe 16bf d4dc babb eef9 d7bf
000001a0: 05a7 72bf eb0c 88bf 263f 1abf 9dbb 85bf
000001b0: eaca 94bf e584 13be c464 95bf f310 19bf
000001c0: 443e 34bf e10d b7bf 0f39 fbbf ac9f f53d
000001d0: 2a69 1ebf 99b6 37bf 29c8 d3be df84 0bc0
000001e0: 6bec 91be 5d74 62bf cea6 c4bf 3f0c 84bf
000001f0: b298 81bf e58f abbf 642d a2bf 1a92 b8bf

net.5.weight f4 [128]
0.81719524 0.39674017 1.5247457 1.9265978 1.7781494 0.3971437 0.32487175 1.0582192
-0.014401335 0.9604861 0.4025494 0.5864411 0.021074407 1.7275234 0.54209584 0.23274533
1.4651562 0.96914893 0.5909318 1.4781388 0.48021626 0.39724553 -0.046483453 0.6435974
0.47765234 1.3762321 0.7234628 1.0718937 0.5616394 0.8791026 1.095854 1.2378845
-0.19941531 0.42809686 0.28879094 -0.93931437 0.28007263 -0.011524369 1.2962406 0.59319335
1.0600501 0.5003998 0.4520017 1.1540542 0.6288283 0.4762522 0.42501292 0.51181483
0.31742856 0.7778043 0.660573 1.5412699 0.096198454 0.17905556 0.54571664 0.9798929
0.28002107 0.9599638 1.2232385 1.0330178 -0.31757236 0.32860228 0.66965866 0.38424236
0.0043010735 0.4740631 1.2211976 1.3966781 0.16810347 1.6938032 0.3424856 0.93344885
0.5766949 1.0845098 1.0807804 -0.002297592 0.8098156 0.5931819 0.924993 0.50058734
0.60037 0.11461769 0.9889256 0.57439005 -0.001620976 0.1511822 0.88678753 0.69527346
0.50297534 -0.20592812 0.387896 1.9427607 0.050840106 -0.0013707447 1.1007277 0.071907096
1.1589407 -0.593779 1.3955046 0.16218871 0.20912659 -0.0038910108 0.32095996 0.747838
-0.018141605 0.87972754 0.7923475 0.8515538 0.96937704 1.6567204 0.8164078 0.8489724
0.29337826 0.9246792 1.279 0.24632874 0.41585925 1.1593498 0.6536593 1.3117614
0.229624 1.0344099 0.334029 1.3885748 1.2618761 1.2776358 1.858969 0.77826345
00000000: b533 513f 8721 cb3e de2a c33f c29a f63f
00000010: 669a e33f 6b56 cb3e 9755 a63e ba73 873f
00000020: 94f3 6bbc 6be2 753f f41a ce3e 0121 163f
00000030: 3ca4 ac3c 7d1f dd3f cbc6 0a3f cb54 6e3e
00000040: 3d8a bb3f 251a 783f 4e47 173f a733 bd3f
00000050: e8de f53e c463 cb3e 6f65 3ebd cdc2 243f
00000060: d98e f43e 6028 b03f dc34 393f d033 893f
00000070: 9ac7 0f3f de0c 613f f244 8c3f 0073 9e3f
00000080: 8733 4cbe 832f db3e 68dc 933e e876 70bf
00000090: ae65 8f3e b5d0 3cbc 36eb a53f 85db 173f
000000a0: b9af 873f 341a 003f c46c e73e 0cb8 933f
000000b0: e4fa 203f 54d7 f33e 4b9b d93e 4c06 033f
000000c0: ff85 a23e 2f1e 473f 501b 293f 5548 c53f
000000d0: b203 c53d 575a 373e 16b4 0b3f 43da 7a3f
000000e0: ec5e 8f3e 30c0 753f 1493 9c3f ed39 843f
000000f0: d898 a2be 8f3e a83e c06e 2b3f 6abb c43e
00000100: 05f0 8c3b 66b8 f23e 3450 9c3f 59c6 b23f
00000110: 5123 2c3e 8bce d83f 465a af3e 81f6 6e3f
00000120: 47a2 133f 38d1 8a3f 0357 8a3f 3293 16bb
00000130: 1350 4f3f c5da 173f 57cc 6c3f 7e26 003f
00000140: d9b1 193f aebc ea3d 3a2a 7d3f 3a0b 133f
00000150: ee76 d4ba 82cf 1a3e 8204 633f 71fd 313f
00000160: fec2 003f d2de 52be 4e9a c63e 62ac f83f
00000170: b73d 503d 8faa b3ba a5e4 8c3f 0744 933d
00000180: 2b58 943f e701 18bf e59f b23f cc14 263e
00000190: 4825 563e 5400 7fbb dd54 a43e 5072 3f3f
000001a0: b49d 94bc d335 613f 49d7 4a3f 6eff 593f
000001b0: 1829 783f 6a0f d43f 1a00 513f 4156 593f
000001c0: ad35 963e c7b7 6c3f 46b6 a33f 9a3d 7c3e
000001d0: 81eb d43e 9365 943f 3756 273f cce7 a73f
000001e0: 8e22 6b3e 8b67 843f d905 ab3e d2bc b13f
000001f0: 2885 a13f 9289 a33f b2f2 ed3f 463c 473f

net.5.bias f4 [128]
0.40044293 0.1709436 0.6996665 0.6291762 0.74121493 0.11713051 0.13449176 0.48823908
0.026529433 0.20708099 0.28978956 0.18450987 -0.009984283 0.63656276 0.10985729 0.08141941
0.49071518 0.42657122 0.23238043 0.6159176 0.06322261 0.05538358 -0.025839973 0.33340907
0.045922738 0.596637 0.05197876 0.32739395 0.20367755 0.35319507 -0.091429114 0.46470132
-0.104159586 0.15065643 0.112915285 -0.42919928 0.09173147 0.0005911868 0.5071181 0.2991528
0.5349497 0.20012443 0.11872412 0.5657681 0.020828716 0.35516497 0.20384216 0.22548005
0.0899949 0.33514613 0.20674863 -0.43555087 -0.019538196 -0.086110234 0.2176731 0.4290438
0.3015322 0.3956681 0.40698478 0.7120678 -0.14460766 0.21505706 0.3308982 0.016217383
-0.0028252557 0.085260205 0.5269106 0.79977137 0.03465561 0.73951495 0.08506071 0.5487526
0.030075267 0.51452255 0.39837864 0.00042557414 0.25288397 0.20120414 0.19009718 0.21145725
0.20493217 -0.03285321 0.4296574 0.23603292 -0.005209535 0.038857788 0.39347103 0.14796391
0.27955148 -0.041937467 -0.39621204 0.8588714 -0.06285185 0.0006833287 0.38415372 -0.030864324
0.60659516 -0.09319474 0.76068443 -0.31032968 0.08305224 -0.0030066029 0.09649049 0.36738595
0.004606969 0.3156801 0.29378083 0.32005784 0.3626298 1.084122 0.5850247 0.20739661
-0.0004307177 0.6395846 0.5539643 -0.11605387 0.1901615 0.53770334 0.15260787 0.536793
0.11110274 0.44872493 0.011467153 0.61006266 0.5463454 0.47416764 0.8255869 0.05894985
00000000: db06 cd3e d70b 2f3e 581d 333f b111 213f
00000010: 43c0 3d3f 1fe2 ef3d 35b8 093e 79fa f93e
00000020: 4154 d93c 0a0d 543e 4c5f 943e 28f0 3c3e
00000030: 1e95 23bc c7f5 223f dcfc e03d 38bf a63d
00000040: 053f fb3e 8b67 da3e 23f5 6d3e c7ac 1d3f
00000050: db7a 813d e5d9 623d 5aae d3bc 98b4 aa3e
00000060: 7b19 3c3d 34bd 183f aee7 543d 2ea0 a73e
00000070: d990 503e fcd5 b43e 303f bbbd 55ed ed3e
00000080: 9f51 d5bd ae45 1a3e 2140 e73d 02c0 dbbe
00000090: b5dd bb3d e0f9 1a3a 7ed2 013f 8e2a 993e
000000a0: 77f2 083f 6bed 4c3e a225 f33d 2ed6 103f
000000b0: fca0 aa3c 2fd8 b53e 00bc 503e 3ee4 663e
000000c0: 3f4f b83d 4698 ab3e eab5 533e 8600 dfbe
000000d0: 910e a0bc 905a b0bd b2e5 5e3e a1ab db3e
000000e0: 6e62 9a3e 0295 ca3e 4f60 d03e 134a 363f
000000f0: 0814 14be eb37 5c3e 7d6b a93e 51da 843c
00000100: ed27 39bb e79c ae3d 9de3 063f d1bd 4c3f
00000110: 0af3 0d3d da50 3d3f 4f34 ae3d 0d7b 0c3f
00000120: 6860 f63c c0b7 033f 49f8 cb3e 981f df39
00000130: 027a 813e 7508 4e3e d6a8 423e 4088 583e
00000140: bdd9 513e 1691 06bd 0efc db3e 9db2 713e
00000150: bfb4 aabb 5829 1f3d 0975 c93e da83 173e
00000160: 5f21 8f3e 9fc6 2bbd 4edc cabe ffde 5b3f
00000170: 79b8 80bd 6a21 333a ccaf c43e 2ed7 fcbc
00000180: d249 1b3f e2dc bebd 37bc 423f 88e3 9ebe
00000190: 4b17 aa3d 6d0a 45bb ce9c c53d 031a bc3e
000001a0: 0ff6 963b d2a0 a13e 716a 963e 9fde a33e
000001b0: 9daa b93e 82c4 8a3f 2ec4 153f c75f 543e
000001c0: f3d1 e1b9 d1bb 233f 9bd0 0d3f a7ad edbd
000001d0: b2b9 423e eda6 093f 3d45 1c3e 446b 093f
000001e0: d589 e33d 46bf e53e bae0 3b3c 112d 1c3f
000001f0: 4bdd 0b3f 1ac6 f23e aa59 533f 6675 713d

net.6.weight f4 [64, 128]
-0.529968 0.07959656 0.21812977 1.3852899 0.23314206 -0.04895647 0.50663704 0.7434949
-1.5419192 -0.5358135 -0.38774687 -0.51288706 0.16661853 0.28251132 0.06356671 -0.98620063
0.7851937 0.23095556 -0.94402254 1.0268551 -0.60023636 -1.7240835 -0.82101655 -0.46294162
0.5099513 -0.3483118 -0.19574606 0.08666405 0.9958274 -0.20931555 0.7435546 1.2571652
0.14538527 -0.062058844 0.16223246 -0.30981565 0.4577671 -0.018386807 -0.79217684 -0.29175153
-0.8539573 0.8197916 -0.6607463 0.6614611 0.57925785 0.29104704 0.115148865 -1.4666085
0.36944076 0.13744548 0.20353626 -0.8360581 0.44192266 0.8870058 -0.3614909 0.37399155
-1.6355561 0.79072565 0.15833545 -1.3549701 0.59472084 -1.4656601 -0.84342396 0.10574498
0.05292469 -1.6794912 0.696032 0.14092386 0.58016306 -1.1157262 -0.47210273 0.75239855
0.49123734 -0.26889884 -0.043220386 0.07085004 -0.11235167 -1.4859957 0.23732 0.117864735
0.38107264 -0.038650155 -0.2421108 0.4369885 0.06460912 0.33405104 0.15043956 -1.2626067
0.13133177 0.92089105 -0.07023693 0.01840252 0.18390319 -0.059659258 0.2994207 0.47899044
-0.45850807 -0.20905982 -0.75028425 -0.18728903 0.55845875 0.08895621 0.37521756 -0.37129393
0.032268 -0.004075179 0.2740403 -0.11143234 -0.7010048 0.03146072 -0.2722101 -0.983809
0.0077834153 -0.2454455 0.18382962 0.3699279 -0.13750264 0.28545162 0.71021086 0.23558037
-0.16149236 -0.36532208 -0.7062196 -1.6715977 -0.5135449 -2.076998 0.14929138 0.7525026
-1.1351857 -0.9407402 -0.6805087 -0.4718727 -2.7031076 0.43020928 0.83108884 0.3504072
-0.40931323 -0.386792 0.60497224 0.8077327 0.07579725 0.07393601 -1.818884 0.16703434
1.1060952 -0.07332218 -0.19420159 0.0006565839 0.27223447 -0.44545045 0.14579353 -0.04019556
0.27780512 0.48990563 -1.4510591 -0.74973357 0.092839964 0.39088875 0.46388873 -0.29852396
-0.48120904 -0.7193959 0.07325474 -0.043633077 -0.22193867 -0.07250687 -0.19998719 -0.52642626
-0.5514753 0.5638186 -0.34107593 0.1532754 -0.81415206 -1.7848198 0.42077264 -0.11608156
0.72901064 0.43481633 -0.65392303 -0.4328275 1.3801312 1.0042714 -0.43197498 0.069277555
-0.90058875 -1.1754003 -0.4229893 -1.042713 0.3502233 0.9741808 -0.8419934 0.24667013
-0.050757207 -0.41555253 0.1222333 0.7352632 -1.4275132 0.13244934 1.4420433 -1.094265
0.54469943 -0.019432927 0.15542288 0.07310172 0.13145751 -3.8769605 -0.8643314 -0.04790639
-0.30492505 -0.40742195 -0.013526092 -0.49664146 -0.04485644 0.47978505 0.036536187 -0.6827179
-0.32655546 -0.22949785 -0.36711925 -0.3839584 -0.003671182 -0.0030037498 0.27977133 0.12872535
-5.636856 0.071077086 -4.4027863 -0.007529006 0.9066286 0.020966792 -0.33991495 -0.7407167
0.85227007 -0.0879106 -2.1437743 0.8957968 0.5146224 -1.1632671 -0.5658328 -0.119622126
0.047975037 -1.030554 0.13054828 0.676828 -0.53016967 -0.014132462 0.51579875 -0.7145585
-0.5632228 -0.17738749 -0.38318324 -2.785241 -0.81327844 -0.56228286 0.4444628 0.79086894
00000000: fcab 07bf 8503 a33d 695d 5f3e 2e51 b13f
00000010: cbbc 6e3e 9486 48bd f7b2 013f af55 3e3f
00000020: 9c5d c5bf 132b 09bf c286 c6be 914c 03bf
00000030: 0c9e 2a3e 53a5 903e 432f 823d a577 7cbf
00000040: 7402 493f 9d7f 6c3e 76ab 71bf fd6f 833f
00000050: 17a9 19bf c5ae dcbf 242e 52bf af06 edbe
00000060: 2b8c 023f ed55 b2be a871 48be ec7c b13d
00000070: 8bee 7e3f d156 56be 9859 3e3f caea a03f
00000080: e0df 143e 6a31 7ebd 4420 263e 28a0 9ebe
00000090: 7360 ea3e ee9f 96bc 1acc 4abf 7560 95be
000000a0: f29c 5abf dddd 513f ab26 29bf 8455 293f
000000b0: 3e4a 143f 1e04 953e 2bd3 eb3d d4b9 bbbf
000000c0: 5727 bd3e 82be 0c3e cf6b 503e e707 56bf
000000d0: b043 e23e d012 633f 5615 b9be d27b bf3e
000000e0: e759 d1bf ff6c 4a3f b022 223e a96f adbf
000000f0: a03f 183f c09a bbbf a2ea 57bf d390 d83d
00000100: 8fc7 583d 91f9 d6bf 272f 323f 584e 103e
00000110: 9185 143f 1ed0 8ebf 73b7 f1be 319d 403f
00000120: 7683 fb3e 1cad 89be dc07 31bd d319 913d
00000130: a218 e6bd 1b35 bebf 0404 733e 1163 f13d
00000140: f41b c33e a04f 1ebd e5eb 77be f5bc df3e
00000150: c951 843d bd08 ab3e d40c 1a3e 199d a1bf
00000160: d67b 063e 84bf 6b3f 61d8 8fbd e2c0 963c
00000170: 1e51 3c3e 445d 74bd ac4d 993e 3c3e f53e
00000180: 92c1 eabe c713 56be a112 40bf b2c8 3fbe
00000190: 27f7 0e3f ac2e b63d 841c c03e 3d1a bebe
000001a0: 732b 043d 1489 85bb 034f 8c3e a436 e4bd
000001b0: 0d75 33bf f5dc 003d 1f5f 8bbe e8da 7bbf
000001c0: 050c ff3b 1156 7bbe d53d 3c3e 3167 bd3e
000001d0: 7ecd 0cbe b726 923e 61d0 353f fb3b 713e
000001e0: 415e 25be 7f0b bbbe cfca 34bf eaf6 d5bf
000001f0: ae77 03bf 89ed 04c0 d7df 183e 03a4 403f
00000200: c44d 91bf 5ad4 70bf d135 2ebf 4c99 f1be
00000210: b7ff 2cc0 6444 dc3e 3dc2 543f 9368 b33e
00000220: 8191 d1be 9a09 c6be 76df 1a3f 92c7 4e3f
00000230: 973b 9b3d c36b 973d 31d1 e8bf 0d0b 2b3e
00000240: 8794 8d3f f029 96bd c8dc 46be 9a1e 2c3a
00000250: 5162 8b3e 1512 e4be e64a 153e 19a4 24bd
00000260: 793c 8e3e e9d4 fa3e 4ebc b9bf 8aee 3fbf
00000270: e122 be3d 9222 c83e d382 ed3e 22d8 98be
00000280: 0861 f6be 542a 38bf 9506 963d 99b8 32bd
00000290: e443 63be 7b7e 94bd 71c9 4cbe dfc3 06bf
000002a0: 7c2d 0dbf 6a56 103f 81a1 aebe 3af4 1c3e
000002b0: 456c 50bf fa74 e4bf 836f d73e 2bbc edbd
000002c0: 71a0 3a3f 3fa0 de3e 8067 27bf 919b ddbe
000002d0: 24a8 b03f f78b 803f d32b ddbe 64e1 8d3d
000002e0: fc8c 66bf 8473 96bf 0e92 d8be 9f77 85bf
000002f0: 7850 b33e ea63 793f e18c 57bf 1897 7c3e
00000300: cae6 4fbd 4dc3 d4be 7455 fa3d 363a 3c3f
00000310: c1b8 b6bf cda0 073e e094 b83f e010 8cbf
00000320: 6c71 0b3f cd31 9fbc 2d27 1f3e 5bb6 953d
00000330: cc9c 063e 1f20 78c0 d344 5dbf 7e39 44bd
00000340: 231f 9cbe 9c99 d0be 8b9c 5dbc ca47 febe
00000350: 63bb 37bd 63a6 f53e f8a6 153d 9ac6 2ebf
00000360: 4732 a7be 7c01 6bbe 0ef7 bbbe 3296 c4be
00000370: 3798 70bb 8fda 44bb 303e 8f3e 94d0 033e
00000380: 2061 b4c0 dd90 913d a0e3 8cc0 e1b5 f6bb
00000390: d018 683f 8dc2 ab3c 5509 aebe 9c9f 3dbf
000003a0: 5f2e 5a3f 790a b4bd 9933 09c0 f052 653f
000003b0: 4bbe 033f f0e5 94bf 6bda 10bf 72fc f4bd
000003c0: 7981 443d 32e9 83bf 73ae 053e 9a44 2d3f
000003d0: 33b9 07bf d88b 67bc 630b 043f 4eed 36bf
000003e0: 5f2f 10bf 11a5 35be 9830 c4be 6341 32c0
000003f0: 0433 50bf c5f1 0fbf a190 e33e 6376 4a3f

net.6.bias f4 [64]
-0.39204934 -0.928243 -1.9308335 -1.0705799 -0.25625494 -0.73310125 -0.45961446 -0.14283529
-0.5664665 -1.2231003 -0.14832412 -1.1485028 -0.7050983 0.29620576 -1.0788264 -1.7210147
-0.9557401 -0.90571463 -0.4853043 -1.3345746 -1.546454 -2.398633 -0.35600305 -0.30672243
-0.563266 -0.69403386 -0.5993437 -1.5576066 -0.9169732 -0.40865147 -0.71631247 -0.5537136
-1.378195 0.3893112 -0.40503487 -0.22969219 -0.65112764 -0.81388086 -0.8198916 -0.3760762
-1.1529441 -0.6240739 -0.39088163 -1.0462077 -1.8415848 -0.0069863084 -0.8748073 -0.62683254
-0.79106563 -0.89518136 -0.6349123 0.28867432 -0.64060265 -0.71405417 -0.62865335 -0.72027314
-1.1412901 -0.99025995 -0.3656593 -1.1910732 0.08796831 -1.800331 -1.1586324 -0.4412513
00000000: b1ba c8be 55a1 6dbf 8d25 f7bf c308 89bf
00000010: d933 83be 86ac 3bbf 9652 ebbe 6a43 12be
00000020: f303 11bf 8d8e 9cbf 47e2 17be 2402 93bf
00000030: 5281 34bf 48a8 973e fc16 8abf 364a dcbf
00000040: 62ab 74bf eadc 67bf ce79 f8be 57d3 aabf
00000050: 34f2 c5bf 3483 19c0 0846 b6be b90a 9dbe
00000060: 3332 10bf 34ac 31bf 976e 19bf a75f c7bf
00000070: c1be 6abf c43a d1be 4160 37bf 2dc0 0dbf
00000080: b268 b0bf cc53 c73e bb60 cfbe 6e34 6bbe
00000090: 4db0 26bf 7f5a 50bf 6ae4 51bf 0f8d c0be
000000a0: ac93 93bf 4fc3 1fbf a321 c8be 22ea 85bf
000000b0: 0db9 ebbf 67ed e4bb 5ff3 5fbf 1978 20bf
000000c0: 4783 4abf 9b2a 65bf 9d89 22bf 1fcd 933e
000000d0: 89fe 23bf 41cc 36bf 6def 20bf d263 38bf
000000e0: cb15 92bf ad81 7dbf b237 bbbe 1675 98bf
000000f0: bb28 b43d 3f71 e6bf 114e 94bf b1eb e1be

net.8.weight f4 [2, 64]
0.1311894 -0.52143973 0.13613231 -0.2236008 -0.28280413 -0.4307841 -0.51784164 0.24661943
-0.29835418 -0.09605858 -0.56855553 0.05117389 0.18461154 0.28280807 0.07697951 0.041544955
-0.14509457 0.17270312 -0.19100927 0.24526358 -0.13782546 0.014825845 0.21420932 0.17496751
0.6531697 0.21742457 0.107573934 0.23667389 -0.22143438 0.1634066 -0.20030633 0.12629808
0.052650332 0.1689287 0.059424173 0.19736876 0.18672341 0.09224826 0.13409328 0.22849736
0.36222348 0.23619366 -0.089112915 -0.35857216 0.3499336 0.25794098 -0.2137118 -0.049673904
0.49021667 -0.12710321 -0.54226 0.34254807 0.21829265 0.0850831 0.20754816 -0.16277291
0.31931508 -0.30733353 -0.39971903 -0.5922107 0.17457731 0.1697896 0.48587096 -0.3783047
0.11346641 -0.53191286 -0.19206801 0.040136542 -0.2696656 -0.4121607 -0.5175986 0.25074792
-0.28893876 -0.7432803 -0.56555706 -0.4706068 -0.6180125 0.3038131 -0.09227586 -0.7313125
-0.14555603 0.16437098 -0.17549185 -0.12724128 -0.65599173 -0.011500501 0.20890625 0.1823238
-0.28952548 0.22765504 -0.9534553 -0.55878747 -0.22147758 0.14309292 -0.08689306 -1.2343087
-0.42345795 0.1539977 -1.0626955 0.18794842 0.2844452 0.08855434 0.23469582 0.24199477
0.3640037 0.51294386 0.288566 -0.31749085 0.386882 0.24993025 -0.21259907 -0.9408225
0.47772008 -0.105090834 -0.17267737 0.3395349 0.3059752 -0.01749018 0.20330572 -0.15836082
0.36203194 -0.57397425 -0.43056867 0.116208784 0.2107145 -0.7031693 0.45523778 -0.36960578
00000000: 8456 063e 137d 05bf 4566 0b3e 9cf7 64be
00000010: b4cb 90be bc8f dcbe 4591 04bf ce89 7c3e
00000020: e1c1 98be 5cba c4bd db8c 11bf b69b 513d
00000030: cf0a 3d3e 38cc 903e 6fa7 9d3d 0b2b 2a3d
00000040: ac93 14be 16d9 303e ef97 43be 6026 7b3e
00000050: 1e22 0dbe 1ae8 723c b059 5b3e af2a 333e
00000060: 2136 273f 8ca4 5e3e b94f dc3d a45a 723e
00000070: b2bf 62be 0f54 273e 1a1d 4dbe 4954 013e
00000080: e0a7 573d a5fb 2c3e c366 733d 091b 4a3e
00000090: 6c34 3f3e a8ec bc3d c04f 093e 36fb 693e
000000a0: 5b75 b93e c0dc 713e d580 b6bd c596 b7be
000000b0: 7f2a b33e d710 843e 44d7 5abe dd76 4bbd
000000c0: aefd fa3e 5827 02be 8dd1 0abf 7662 af3e
000000d0: 1c88 5f3e 0c40 ae3d 8187 543e f1ad 26be
000000e0: 447d a33e d25a 9dbe f9a7 ccbe 1f9b 17bf
000000f0: 65c4 323e 53dd 2d3e 14c4 f83e 27b1 c1be
00000100: 1461 e83d 712b 08bf 7aad 44be 3766 243d
00000110: 9c11 8abe ba06 d3be 5881 04bf 0862 803e
00000120: c8ef 93be 9e47 3ebf 59c8 10bf 60f3 f0be
00000130: 1136 1ebf 648d 9b3e 20fb bcbd 4c37 3bbf
00000140: a40c 15be de50 283e 23b4 33be 8a4b 02be
00000150: 13ef 27bf 996c 3cbc 85eb 553e 17b3 3a3e
00000160: af3c 94be 671e 693e a615 74bf b20c 0fbf
00000170: 05cb 62be f386 123e fdf4 b1bd d4fd 9dbf
00000180: 7bcf d8be 93b1 1d3e 6806 88bf 8d75 403e
00000190: cda2 913e fa5b b53d 1a54 703e 7acd 773e
000001a0: b15e ba3e 4a50 033f ecbe 933e 298e a2be
000001b0: 6615 c63e b7ed 7f3e 92b3 59be bed9 70bf
000001c0: ba97 f43e dd39 d7bd 56d2 30be 85d7 ad3e
000001d0: c8a8 9c3e 9147 8fbc 602f 503e 5729 22be
000001e0: 405c b93e faef 12bf 7f73 dcbe dffe ed3d
000001f0: 8bc5 573e e702 34bf ed14 e93e f83c bdbe

net.8.bias f4 [2]
1.1542492 1.1004868
00000000: 70be 933f c0dc 8c3f
