geometry_dqn.pth (torch, 111513 bytes, 12 tensors)

net.0.weight f4 [128, 9]
0	0x3feaa4cf	1.8331546
1	0x3ec510bd	0.38489333
2	0xbf3eff77	-0.7460856
3	0x3dd5d088	0.10440165
4	0xbcee5894	-0.029094972
5	0x3f8991c8	1.0747614
6	0xbe8d3aec	-0.27584016
7	0x3e448706	0.19192132
8	0xbec59fd9	-0.38598517
9	0x3cb7ba4c	0.0224277
10	0x3e86ef12	0.2635427
11	0x3e745608	0.23860943
12	0xbeca4c67	-0.39511415
13	0xbdb59c4a	-0.088677004
14	0x3e17592f	0.14780115
15	0xbf020594	-0.5078976
16	0xbd079b0f	-0.03310686
17	0x3ed2afb6	0.41149682
18	0xc0090697	-2.1410272
19	0xbf04824a	-0.51761305
20	0x3c093700	0.008374929
21	0x3eaeb83c	0.34124935
22	0xbc155e56	-0.00911673
23	0xc027cecd	-2.621997
24	0xbd83f515	-0.0644323
25	0x3d4638dc	0.04839407
26	0xbe4dc114	-0.20093185
27	0x3f930ede	1.1488912
28	0xbd300e1b	-0.042982202
29	0x3e7ffb5f	0.24998234
30	0xbf8e787a	-1.1130517
31	0xbea60dfa	-0.32432538
32	0xbe2c613b	-0.16833965
33	0xbd9e68b5	-0.07734815
34	0x3e397370	0.18110442
35	0x3e0d7e83	0.13817792
36	0x3f022008	0.50830126
37	0x3e22bd08	0.15892422
38	0x3dedfa20	0.11619973
39	0xbf80fc7b	-1.0077051
40	0x3e058e98	0.13042676
41	0x3f361b30	0.71135235
42	0xbe877111	-0.2645345
43	0x3e988ca8	0.29794812
44	0xbef058e9	-0.46942833
45	0x3f8f6707	1.1203316
46	0x3e8797ed	0.26483098
47	0xbf83dfe3	-1.03027
48	0x3d4e3afe	0.050349228
49	0xbe89dc31	-0.26925805
50	0x3f20d0e5	0.6281875
51	0xbe1e2fa3	-0.1544786
52	0xbe46196d	-0.19345637
53	0x3cd51c68	0.026014522
54	0xc0276991	-2.6158183
55	0x3dc0447a	0.09388061
56	0x3e1230ac	0.1427638
57	0xbc9d4b9f	-0.019201098
58	0xbe0fcb20	-0.1404233
59	0xbfe6b911	-1.8025228
60	0x3d967475	0.07346431
61	0x3d4fe986	0.050759815
62	0x3d792326	0.060824536
63	0xbfb5f124	-1.4214215
64	0xbefd2535	-0.4944245
65	0xbb42781b	-0.002967364
66	0x3dd7066d	0.104992725
67	0xbe8367e1	-0.2566519
68	0xc00a692e	-2.1626697
69	0xbe140018	-0.14453161
70	0xbe6545d4	-0.22389919
71	0xbf095ea0	-0.5366001
72	0x3e5ec90f	0.21756385
73	0xbeb8f11a	-0.36121446
74	0x3ecbaacd	0.39778748
75	0xbf97407b	-1.1816553
76	0xbec16e34	-0.3777939
77	0x3c0f8376	0.00875937
78	0xbe101eee	-0.14074299
79	0x3e5d909a	0.21637192
80	0x3f08765d	0.5330561
81	0x3d121c0d	0.035671283
82	0x3e925cd1	0.28586438
83	0x3d9838e6	0.074327275
84	0xbefca528	-0.49344754
85	0x3e4b852b	0.19875018
86	0xbf751970	-0.9574194
87	0x3cd8c970	0.02646324
88	0x3c7172e0	0.014736861
89	0xbd8fcbde	-0.070213065
90	0xbe663490	-0.22480989
91	0xbe86da4c	-0.26338422
92	0x3ef9d964	0.48798668
93	0x3ebef078	0.37292838
94	0x3dddddfa	0.10833354
95	0x3e523fec	0.20532197
96	0x3e488a59	0.19584025
97	0x3dd31096	0.10305898
98	0x3ea2d7eb	0.31805357
99	0xbe93d48d	-0.288731
100	0xbe9752c7	-0.29555342
101	0x3edc43ec	0.4302057
102	0x3ec48e17	0.38389656
103	0xbebcd023	-0.36877546
104	0x3f3793af	0.7170972
105	0x3ecb9273	0.3976017
106	0xbe6cb0c2	-0.23114303
107	0x3eaed033	0.34143218
108	0x3fa68f34	1.3012452
109	0x3e8b6284	0.272236
110	0xbf16aad0	-0.5885439
111	0x3ea64af6	0.32479066
112	0x3da1e6ac	0.07905325
113	0x3e837e61	0.25682357
114	0xbe4dbcab	-0.20091502
115	0x3e385cd8	0.18004167
116	0xbeb2aee2	-0.3489905
117	0xbf127042	-0.5720254
118	0xbee5103d	-0.4473895
119	0x3ee06a35	0.4383103
120	0x3e5683dc	0.20948738
121	0x3dfc1287	0.12308221
122	0xbf59b283	-0.8503801
123	0x3e64f2d3	0.22358255
124	0x3d87d893	0.06633105
125	0xbf682544	-0.9068186
126	0xbdad09a8	-0.084491074
127	0x3e73b9c3	0.23801331
128	0x3e549716	0.2076076
129	0xbfd1e5e6	-1.6398284
130	0x3e08e71d	0.13369413
131	0x3c60eb6a	0.013728002
132	0x3dd87e70	0.10570991
133	0xbec9f87e	-0.39447397
134	0xbedfda80	-0.4372139
135	0xbf9f045c	-1.2423205
136	0x3e784e3d	0.24248596
137	0x3ec54d33	0.3853546
138	0x3e00bfd9	0.12573184
139	0x3dbf4faa	0.093413666
140	0xbf087f5d	-0.5331934
141	0x3ef45397	0.47720024
142	0xbfb75f7a	-1.4326012
143	0x3d28cadb	0.041209083
144	0xbdaff3b5	-0.08591405
145	0xbf017a3d	-0.50577146
146	0x3f3bec6c	0.73407626
147	0xbf8bfd7c	-1.0936732
148	0xbd97d1bd	-0.07413051
149	0x3ecb3b62	0.39693743
150	0x3e4a32c3	0.19745927
151	0xbef51e19	-0.47874525
152	0x3d9fb029	0.07797272
153	0xbf2033c1	-0.6257897
154	0x3e6f8624	0.23391014
155	0x3d7e2182	0.062043674
156	0xbfb2a850	-1.3957615
157	0xbed2a5f5	-0.4114224
158	0xbea906bc	-0.3301295
159	0xbe9e0a25	-0.30867115
160	0xbdf93b76	-0.121695444
161	0x3ef643ac	0.48098505
162	0xbf1dfbc2	-0.61712277
163	0x3ec0f4da	0.37686807
164	0x3ce80f51	0.028327616
165	0xbe7eaf1e	-0.2487149
166	0xbe0d5b63	-0.13804393
167	0xbe990857	-0.29889175
168	0x3edec676	0.4351079
169	0xbf433754	-0.762563
170	0xbeaef7bb	-0.34173378
171	0x3f7aa31e	0.9790515
172	0xbd92a79a	-0.07160874
173	0xbdc4952e	-0.09598766
174	0xbad59143	-0.0016293902
175	0xbb7e0613	-0.0038760945
176	0x3de49f3d	0.11163185
177	0x3f03eb01	0.5153046
178	0x3e577b93	0.21043234
179	0xbe7e1868	-0.24813998
180	0x3fc380c1	1.5273668
181	0x3e8e72a6	0.27821845
182	0xbe5f118f	-0.21784042
183	0xbd2d17c9	-0.04225901
184	0xbe37745b	-0.1791548
185	0x3f18285c	0.59436584
186	0xbdf54a5e	-0.11977075
187	0x3e1af7d2	0.15133598
188	0xbe486bed	-0.1957242
189	0x3f3dfb1a	0.74211276
190	0x3b60dc6a	0.0034311065
191	0x3e955cff	0.29172513
192	0xbec8c7b3	-0.39214858
193	0x3e299b02	0.16563037
194	0x3f5dd974	0.8665993
195	0xbeb05ddf	-0.34446618
196	0xbb81b1a5	-0.0039579445
197	0xbdd23182	-0.10263349
198	0xbfaddc01	-1.3582765
199	0x3eb4de62	0.35325915
200	0xbef6ef88	-0.48229623
201	0xbea3f0c0	-0.32019615
202	0x3e5ab463	0.21357875
203	0xbfa3144a	-1.2740567
204	0x3e209ea2	0.15685514
205	0xc02379f2	-2.554318
206	0xbdda418b	-0.106570326
207	0x3bbdae0c	0.0057885703
208	0xbc5495f0	-0.012975201
209	0x3c2d1e7b	0.010566349
210	0x3df3170d	0.11869631
211	0xbe82e5bd	-0.255659
212	0x3c4fad8d	0.012675655
213	0xbc503dbf	-0.012710034
214	0xbe12b860	-0.14328146
215	0x3ded2f76	0.11581318
216	0x3f6a5307	0.9153294
217	0x3e781a1e	0.24228713
218	0x3cd8c98f	0.026463298
219	0x3d53ced3	0.051710915
220	0xbe44aef4	-0.19207364
221	0x3ebb0fad	0.36535397
222	0xbec23578	-0.37931418
223	0x3e9c9474	0.3058201
224	0xbee96fdd	-0.45593157
225	0xbf758c73	-0.95917434
226	0xbf2f78e8	-0.68543863
227	0x3ee65b8a	0.44991714
228	0x3d3570c6	0.044297002
229	0x3ba23fc7	0.0049514505
230	0xbe90814c	-0.28223646
231	0x3e959e9d	0.29222575
232	0x3dd94999	0.10609741
233	0x3eac5900	0.33661652
234	0xbe169fab	-0.14709346
235	0xbe6e3eef	-0.23266195
236	0x3e02c3c6	0.12769994
237	0xbea8fe29	-0.3300641
238	0x3db08cc5	0.086206
239	0x3e31a44f	0.17347835
240	0xbe93d391	-0.2887235
241	0xbd9ad6c0	-0.075604916
242	0xbe867507	-0.2626116
243	0x3f7abde7	0.9794602
244	0xbd6974d7	-0.056996193
245	0x3e163cb6	0.14671597
246	0x3ddeda48	0.108814776
247	0xbe8af3f9	-0.2713926
248	0xbdc65176	-0.09683506
249	0xbd31a4c5	-0.043370027
250	0x3c9ab520	0.018885195
251	0x3dffb09e	0.12484859
252	0x3f29533e	0.6614264
253	0x3e07a819	0.13247718
254	0x3db084f3	0.08619108
255	0xbf1b2c7c	-0.6061475

net.0.bias f4 [128]
0	0x3c9ef343	0.019403106
1	0xbd88fa71	-0.06688393
2	0xbea3149d	-0.31851664
3	0x3c65716b	0.014004092
4	0xbddd1652	-0.10795273
5	0x3e39bcdb	0.18138449
6	0xbdec0cca	-0.11525877
7	0xbdf8da93	-0.12151065
8	0xbeb27ff3	-0.34863243
9	0x3ddacd9a	0.10683747
10	0xbf09b692	-0.53794205
11	0xbe824a51	-0.25447324
12	0x3e531858	0.20614755
13	0xbe064e13	-0.1311572
14	0xbea78d63	-0.32725057
15	0xbe5572b4	-0.20844537
16	0xbdbbe051	-0.09173644
17	0x3debb8aa	0.11509831
18	0x3e123585	0.14278229
19	0xbdd4574c	-0.10368213
20	0x3e16611e	0.14685485
21	0xbe952848	-0.29132295
22	0xbdca2f4c	-0.098723024
23	0xbc28a8c5	-0.010294144
24	0x3c1e083f	0.009645521
25	0xbf01d333	-0.5071289
26	0xbdee9d1e	-0.116510615
27	0x3e63dfbc	0.22253317
28	0xbee812f6	-0.45326966
29	0x3e4224a5	0.18959291
30	0x3e8a62b7	0.27028438
31	0xbe0c7c1b	-0.13719217
32	0x3cf82e4f	0.03029552
33	0xbe4a0a50	-0.19730496
34	0xbe8b0701	-0.2715378
35	0xbe2d921b	-0.16950266
36	0xbe17dcf6	-0.14830384
37	0x3e4ebbb6	0.20188794
38	0xbe0281af	-0.12744783
39	0xbdf8b51e	-0.1214392
40	0xbe15caa8	-0.14628088
41	0xbdd7b96b	-0.105334125
42	0xbe970c36	-0.29501504
43	0xbe9d960b	-0.30778536
44	0xbe45023a	-0.1923913
45	0xbebfae00	-0.3743744
46	0xbe1eed2d	-0.15520163
47	0xbde53b82	-0.11192991
48	0xbde04cd2	-0.10952152
49	0xbee782ab	-0.4521688
50	0xbed7a4c3	-0.4211789
51	0xbf333bc4	-0.7001307
52	0xbe01d6a0	-0.12679529
53	0x3e0a08fe	0.13479993
54	0xbe5d0d11	-0.21587016
55	0x3d51a824	0.051185742
56	0x3dd5b9f5	0.10435859
57	0x3d9b4f52	0.075834885
58	0x3e8052aa	0.25063068
59	0xbc3bdc04	-0.01146603
60	0x3e398eaf	0.18120836
61	0xbd277c00	-0.04088974
62	0xba8c0d89	-0.0010685186
63	0x3e38b718	0.18038595
64	0x3be69313	0.0070365756
65	0xbc7d9ce5	-0.015479301
66	0xbe0d1516	-0.13777575
67	0x3d56053e	0.052251093
68	0x3e217c49	0.15770067
69	0x3de726de	0.1128671
70	0xbed447d4	-0.4146105
71	0xbde85956	-0.113451645
72	0xbe3c0067	-0.18359528
73	0xbe0a4b44	-0.13505274
74	0xbe43a8f3	-0.19107418
75	0x3e1ee13e	0.1551561
76	0x3d5135dd	0.05107676
77	0x3da84626	0.08216505
78	0x3d294ac8	0.041331083
79	0xbf673c45	-0.9032634
80	0xbe735606	-0.23763284
81	0x3e449a5e	0.19199511
82	0xbeba9d8b	-0.3644832
83	0x3ed9f6ac	0.42571008
84	0xbda4f009	-0.080535956
85	0x3ca76a34	0.020436384
86	0xbe8e5d68	-0.27805638
87	0x3e28c8e6	0.16482887
88	0xbeb700fb	-0.35742936
89	0x3e57327b	0.2101535
90	0xbe3fb542	-0.18721488
91	0xbe895cf8	-0.26828742
92	0xbe2585d7	-0.16164337
93	0x3ce243fb	0.027620306
94	0xbede336e	-0.43398613
95	0x3ecefead	0.40428677
96	0xbed5aa5d	-0.4173154
97	0xbea9c324	-0.33156693
98	0xbe49d24b	-0.19709127
99	0x3d6e2ad7	0.058146324
100	0xbdf43b70	-0.11925399
101	0x3de5b1ee	0.11215578
102	0xbeadb5ad	-0.3392767
103	0x3d5aa14c	0.05337648
104	0xbeb66c7e	-0.35629648
105	0xbd7cec06	-0.061748527
106	0xbe2479a7	-0.16062032
107	0xbe0e4c19	-0.13896216
108	0x3dca8107	0.09887891
109	0xbe9b49ba	-0.30329686
110	0xbeac1026	-0.3360607
111	0x3c9d0c9b	0.01917105
112	0x3e9d703a	0.30749685
113	0x3ca5afd6	0.020225447
114	0xbe9782e2	-0.29592043
115	0x3e5e776a	0.2172524
116	0xbe81d3c5	-0.2535688
117	0xbdf6c6d1	-0.1204964
118	0xbe825a97	-0.2545974
119	0xbe2b6f86	-0.16741762
120	0xbd5025de	-0.050817363
121	0x3e548bc9	0.20756449
122	0xbe12d30f	-0.14338325
123	0xbf07292e	-0.5279721
124	0x3d68ffca	0.056884564
125	0xbcac26be	-0.021014567
126	0x3d08832c	0.03332822
127	0xbe32ceea	-0.17461744

net.2.weight f4 [128]
0	0x3ffe08f6	1.9846485
1	0x3f55e84f	0.835576
2	0x3f97361c	1.1813388
3	0x3f88d24c	1.0689178
4	0x3f8890a2	1.0669138
5	0x3f6c9029	0.9240747
6	0x3fb3a83a	1.4035714
7	0x3f79f606	0.97641027
8	0x3f450ea1	0.76975447
9	0x3f45a2c8	0.7720151
10	0x3f2c21ba	0.6723896
11	0x3f86c013	1.0527366
12	0x3fa15237	1.2603215
13	0x3f13ada2	0.5768682
14	0x3f81883b	1.0119699
15	0x3fb11f53	1.3837684
16	0x3f486097	0.78272384
17	0x3f8aed73	1.0853714
18	0x3f7a2391	0.9771052
19	0x3f865091	1.0493337
20	0x3f85eb5d	1.0462452
21	0x3f41cb67	0.7570099
22	0x3f945413	1.1588157
23	0x3f375ec0	0.7162895
24	0x3f5fe169	0.87453324
25	0x3f90e091	1.1318532
26	0x3f393097	0.7233977
27	0x3ea12932	0.31476742
28	0x3f747d33	0.9550354
29	0x3f680114	0.90626645
30	0x3f8a0974	1.0784135
31	0x3f83665f	1.0265616
32	0x3f35d062	0.7102109
33	0x3f3074d7	0.68928283
34	0x3f523bd4	0.8212254
35	0x3f864aee	1.0491617
36	0x3f5eb9dd	0.87002355
37	0x3fa03302	1.2515566
38	0x3e9bf999	0.30463865
39	0x3f5ed523	0.8704397
40	0x3f5302ba	0.82426035
41	0x3eedd4a1	0.46451285
42	0x3f300e74	0.68772054
43	0x3f363977	0.71181434
44	0x3f572dcb	0.8405425
45	0x3f6d5b82	0.92717755
46	0x3f3d3060	0.7390194
47	0x3f2b0e29	0.6681848
48	0x3f9d7c96	1.2303646
49	0x3f486308	0.7827611
50	0x3fa286a0	1.2697334
51	0x3f56a14d	0.83839875
52	0x3f37da3a	0.7181736
53	0x3f374858	0.7159476
54	0x3f73fc12	0.95306504
55	0x3eba0dd8	0.36338687
56	0x3f769175	0.963157
57	0x3efaf675	0.49016157
58	0x3f85c7c7	1.0451592
59	0x3f441d2e	0.76607025
60	0x3f36d698	0.71421194
61	0x3ec65488	0.38736367
62	0x3f84e870	1.0383434
63	0x3f61b6c3	0.881695
64	0x3eb78e26	0.35850638
65	0x3f68c023	0.9091818
66	0x3fa9c242	1.3262408
67	0x3f1f4be7	0.6222519
68	0x3f75203e	0.9575232
69	0x3f8779cc	1.0584044
70	0x3f86aecd	1.0522095
71	0x3f65382c	0.89538836
72	0x3f777a65	0.96671134
73	0x3f64ffcc	0.89452815
74	0x3fbd9044	1.4809651
75	0x3fa7f077	1.3120259
76	0x3f3963fa	0.7241818
77	0x3f9eb2db	1.2398332
78	0x3f7bf0d5	0.98414356
79	0x3f7b6149	0.9819532
80	0x3f202ed6	0.62571466
81	0x3fa5ee92	1.2963431
82	0x3f6c3437	0.92267174
83	0x3f986090	1.1904469
84	0x3f08475b	0.5323388
85	0x3f59638b	0.84917516
86	0x3f391baa	0.72307837
87	0x3f42342c	0.7586086
88	0x3f3457e9	0.7044664
89	0x3fcead7a	1.6146691
90	0x3f36522c	0.71219134
91	0x3f440034	0.7656281
92	0x3f9ec5ae	1.2404077
93	0x3f50066d	0.81259805
94	0x3f3c6e63	0.73605937
95	0x3fc7fd46	1.5624168
96	0x3f5c31ad	0.860133
97	0x3f6b96cb	0.92026967
98	0x3f7cfc0f	0.9882211
99	0x3f7a53ca	0.977841
100	0x3f62ef23	0.88646144
101	0x3fd12629	1.633977
102	0x3f354310	0.70805454
103	0x3f3d0d4e	0.73848426
104	0x3f4dbb4b	0.8036391
105	0x3f5ea4a9	0.8697
106	0x3f8eb365	1.1148497
107	0x3f4243fa	0.75884974
108	0x3f35cfbc	0.710201
109	0x3f75adf7	0.95968574
110	0x3f4298a0	0.7601414
111	0x3fb2daaf	1.3972987
112	0x3fab844d	1.339975
113	0x3f207ab4	0.6268723
114	0x3f9e0f64	1.2348447
115	0x3f2b05fc	0.66806006
116	0x3f379be8	0.7172227
117	0x3f6c4464	0.92291856
118	0x3f324f44	0.696522
119	0x3f3630a4	0.7116797
120	0x3f4e8435	0.8067048
121	0x3f747660	0.95493126
122	0x3fbf529e	1.4947088
123	0x3f93ae33	1.1537536
124	0x3f367960	0.71278954
125	0x3f4e0f9d	0.80492574
126	0x3fdb03af	1.7110499
127	0x3f373c34	0.7157624

net.2.bias f4 [128]
0	0xbd0abc86	-0.033871196
1	0xbb907669	-0.004408647
2	0x3e5c734b	0.21528356
3	0x3ea01098	0.3126266
4	0x3e782864	0.24234158
5	0x3de35ab7	0.11101287
6	0x3e24e852	0.16104248
7	0x3e617639	0.22017755
8	0x3eb39be5	0.35079876
9	0xbe2b639c	-0.16737217
10	0x3e915284	0.28383267
11	0x3e327957	0.174291
12	0xbd678dcb	-0.05653171
13	0x3e87349a	0.2640732
14	0x3ebc6844	0.36798298
15	0x3cc93bc7	0.024564637
16	0x3ead0ba8	0.33797956
17	0x3e131691	0.14364077
18	0xbe16aef9	-0.14715184
19	0x3d902e66	0.070401
20	0xbce0635e	-0.027391132
21	0x3ea017e1	0.31268218
22	0xbb572111	-0.0032826106
23	0x3ea37f28	0.3193295
24	0x3e49bd02	0.19701007
25	0x3ecb9dcf	0.39768836
26	0x3ea2e444	0.31814778
27	0xbccd5f20	-0.025069773
28	0x3e925ff1	0.28588822
29	0x3e05edd0	0.13079
30	0x3e942efb	0.28942093
31	0xbca0039f	-0.019532977
32	0x3e9e20cb	0.30884394
33	0x3e551fdf	0.20812939
34	0x3eaebef6	0.34130067
35	0x3e002e0d	0.12517567
36	0x3ea9ad6f	0.33140132
37	0xbe2dbb0b	-0.16965882
38	0x3e10f186	0.14154634
39	0xbcbede1a	-0.023299266
40	0x3e8569a9	0.26057175
41	0x3e544699	0.20730056
42	0x3e9bbf7a	0.30419523
43	0x3ea12d0a	0.31479675
44	0x3e1d9f60	0.15392828
45	0x3ed14e8a	0.40880233
46	0x3ea7990f	0.32733962
47	0x3e76f69a	0.24117509
48	0x3ceb08b7	0.028690679
49	0x3eb44713	0.35210475
50	0x3ee97a7e	0.45601267
51	0x3eb835c5	0.35978523
52	0x3ea764cf	0.32694098
53	0xbc8f9a60	-0.017529666
54	0x3ebd68c1	0.36993983
55	0x3e2fa801	0.17153932
56	0x3dbfb36d	0.093603946
57	0x3e3e8f69	0.18609394
58	0x3e57d8b2	0.21078756
59	0x3ea4d5c0	0.32194328
60	0x3e2b0ccb	0.16704099
61	0x3e3792c7	0.17927085
62	0x3ea95d0f	0.3307881
63	0x3eaa9fe4	0.33325112
64	0xbdc36879	-0.09541411
65	0x3eb5d074	0.355106
66	0x3e754a56	0.23954138
67	0x3e1cf095	0.1532615
68	0x3e955040	0.29162788
69	0xbdd45ca3	-0.103692316
70	0x3e93a8b1	0.2883964
71	0x3ec02567	0.37528536
72	0x3ed17e7f	0.4091682
73	0x3e1f386c	0.15548867
74	0x3e16e1c1	0.14734556
75	0x3e0329fe	0.12808987
76	0x3ea3e640	0.32011604
77	0x3cfb31be	0.030663367
78	0x3ebeebc5	0.37289253
79	0x3ed86973	0.4226795
80	0x3e57dc40	0.21080112
81	0x3e3875e2	0.18013719
82	0x3ebf56ab	0.3737081
83	0xbe57bbcc	-0.21067733
84	0x3e795491	0.24348666
85	0x3e0b45e5	0.13600881
86	0x3ea5e4ff	0.32401273
87	0x3e7afc69	0.2451035
88	0x3e9f2bc5	0.3108808
89	0x3e153965	0.14572676
90	0x3ea0ae25	0.31382862
91	0x3eab8ad0	0.33504343
92	0x3ead1cba	0.3381098
93	0x3e93d67d	0.2887458
94	0x3e9d026b	0.30665907
95	0xbd8938c5	-0.06700281
96	0x3ec3e3b2	0.38259655
97	0x3e9f72db	0.31142315
98	0xbdae9bf9	-0.08525843
99	0x3eb184ce	0.34671634
100	0x3e63ac6d	0.22233744
101	0xbd9b13d5	-0.07572142
102	0x3e9f41a3	0.31104764
103	0x3d00eb94	0.031474665
104	0x3ea950c3	0.3306943
105	0xbcb4bcf2	-0.022062752
106	0x3ec9baf5	0.3940045
107	0x3e5b2f48	0.21404755
108	0x3ea09d98	0.31370234
109	0x3e6f5c29	0.23375
110	0x3eae4ddf	0.34043786
111	0xbdc97e1b	-0.09838506
112	0x3e0eff9b	0.13964693
113	0x3e841f80	0.25805283
114	0x3ecdcbfa	0.40194684
115	0x3e74f21d	0.23920484
116	0x3ea157a5	0.3151218
117	0x3ed00fd0	0.40637064
118	0x3e9ee130	0.3103118
119	0x3ea0faf1	0.31441453
120	0xbca8409c	-0.02053862
121	0xbe230a9d	-0.15922017
122	0x3cd4f6be	0.025996562
123	0x3e98ffc9	0.2988265
124	0x3e9b357b	0.3031424
125	0xbde36002	-0.111022964
126	0xbd27b7d4	-0.040946797
127	0x3ea09b29	0.31368378

net.3.weight f4 [128, 128]
0	0xbd2ed55a	-0.042683937
1	0x3cf671b5	0.030083517
2	0x3e091372	0.13386324
3	0x3d111b05	0.03542616
4	0xbd9bd424	-0.07608822
5	0xbdce835d	-0.10083649
6	0x3df886a2	0.12135054
7	0x3e322308	0.17396176
8	0x3e0f3490	0.13984895
9	0xbd88170c	-0.06645021
10	0x3e2d8244	0.16944224
11	0xbb8c7f83	-0.0042876615
12	0xbd917902	-0.071031585
13	0xbd8eadff	-0.06966781
14	0xbcf99f72	-0.030471537
15	0xbd08320d	-0.033250857
16	0x3c9800af	0.018555013
17	0x3dc96e26	0.09835462
18	0x3d8f5cbc	0.070001096
19	0xbda5b69c	-0.080914706
20	0xbcbd9144	-0.023140557
21	0x3ddc30e3	0.10751512
22	0xbb0ad0f3	-0.0021181672
23	0x3d20ddba	0.039273955
24	0x3da517f0	0.08061206
25	0x3d847e62	0.06469418
26	0x3e23fa61	0.1601348
27	0xbd59d2ff	-0.053179737
28	0x3d7c14cf	0.061543282
29	0x3d25b1e5	0.040452857
30	0x3be9d8df	0.0071364488
31	0xbe3ca58f	-0.1842253
32	0x3e05f8e3	0.13083224
33	0xbc0b21e0	-0.008491963
34	0x3d433913	0.047661852
35	0x3d792776	0.06082865
36	0x3ce49029	0.027900772
37	0xbdb16aab	-0.086629234
38	0x3d7977fe	0.06090545
39	0xbd1ea064	-0.03872718
40	0x3c037e64	0.008025739
41	0xbd58ae8e	-0.052900843
42	0x3d3b810c	0.045777366
43	0x3e194912	0.1496928
44	0x3ce12ac5	0.027486214
45	0x3d2cdef3	0.04220481
46	0x3d79d989	0.060998473
47	0xbdae865c	-0.08521721
48	0xbe16b921	-0.14719059
49	0x3db3188c	0.08744916
50	0xbc4b03da	-0.012391055
51	0x3c662397	0.014046571
52	0x3cad6436	0.021165948
53	0xbc3d9706	-0.011571651
54	0x3c334ac4	0.0109431185
55	0x3d22f0e6	0.03978052
56	0xbd0ef8bc	-0.03490518
57	0x3dae85b7	0.08521598
58	0xbd6038a4	-0.054741517
59	0xbb715054	-0.003682156
60	0x3d01dd48	0.03170517
61	0xbc6ffeb5	-0.014648129
62	0x3d1e1d62	0.03860224
63	0x3bba660c	0.0056884345
64	0xbd9a0877	-0.07521146
65	0xbd1177e7	-0.03551474
66	0x3e3a84d1	0.18214728
67	0x3d8c5542	0.06852199
68	0xbdaa601f	-0.08319115
69	0xbd207b2d	-0.03917997
70	0x3e047a41	0.12937261
71	0x3e043d11	0.1291392
72	0xbd4271d5	-0.04747184
73	0x3c1c52cf	0.0095412275
74	0x3d09646a	0.033543028
75	0x3d80b083	0.06283667
76	0x3ca9f73c	0.020747773
77	0x3d4ec0d3	0.05047686
78	0xbba7e8a5	-0.005124169
79	0x3d86fb5a	0.0659091
80	0xbb23f25e	-0.0025016288
81	0x3c6422cf	0.013924315
82	0x3e5b19ac	0.21396512
83	0xbdca7e56	-0.09887378
84	0xbc111de3	-0.008857223
85	0x3bc133bc	0.00589606
86	0x3b05bc05	0.0020406258
87	0x3c6fd0b1	0.014637158
88	0x3e2f653d	0.17128463
89	0xbda43082	-0.08017065
90	0x3d765bb0	0.060146034
91	0x3c449b92	0.0119999815
92	0x3c0ba174	0.00852238
93	0x3c13d449	0.009022781
94	0x3c75bb20	0.014998227
95	0xbd394f92	-0.0452419
96	0x3cc4347a	0.023950804
97	0xbd44715b	-0.047959667
98	0xbd3a613b	-0.045502882
99	0x3d713124	0.058884755
100	0x3d29f07d	0.041489113
101	0x3e013249	0.12616839
102	0x3d372862	0.044716246
103	0xbccec2a2	-0.025239293
104	0x3dcda8a8	0.10041934
105	0xbb044c49	-0.002018707
106	0xbc8c5f02	-0.017135147
107	0x3ceca583	0.028887516
108	0x3e326ae9	0.17423595
109	0x3dde9557	0.10868328
110	0x3dc0562b	0.09391435
111	0xbd6900b2	-0.05688543
112	0xbc9f4bfe	-0.019445416
113	0x3ce88f90	0.028388768
114	0xbc9f0e16	-0.019415896
115	0xbddf1dd5	-0.10894362
116	0x3defb864	0.117050916
117	0xbd8611aa	-0.06546338
118	0x3d5b64be	0.053562872
119	0x3e09b5c3	0.13448243
120	0xbd860707	-0.06544309
121	0xbd99d180	-0.07510662
122	0xbd6d6733	-0.057959747
123	0x3c7e2b9a	0.015513325
124	0x3d19d09c	0.03755246
125	0xb9aebeae	-0.00033329934
126	0x3d502282	0.05081416
127	0x3cb9b21b	0.022667935
128	0xbe37f0c1	-0.17962934
129	0xbe986604	-0.29765332
130	0xbdbd271d	-0.09235976
131	0x3ddf0e93	0.10891452
132	0xbe02c263	-0.12769465
133	0xbec57325	-0.3856441
134	0x3edb2da1	0.4280825
135	0xbd8a5c29	-0.067558594
136	0x3e67d750	0.22640729
137	0xbddccc85	-0.107811965
138	0xbe154b8a	-0.14579597
139	0xbd112058	-0.035431236
140	0xbf4d1c42	-0.80121243
141	0x3e922190	0.2854123
142	0xbd666afc	-0.056254372
143	0x3e8beaeb	0.27327666
144	0x3e642e86	0.22283372
145	0x3e488f59	0.19585933
146	0xbe45963e	-0.19295594
147	0xbd0c1751	-0.034201924
148	0xbf8b31d0	-1.0874577
149	0xbde4fd0e	-0.11181079
150	0x3e5ec748	0.21755707
151	0xbe20bda7	-0.15697347
152	0xbe6c9314	-0.23102981
153	0x3e661582	0.22469142
154	0xbe1717ed	-0.1475522
155	0xbdeea71e	-0.11652969
156	0xbe54ad7c	-0.20769304
157	0x3e0a25dd	0.13491006
158	0x3e9e5037	0.30920574
159	0xbe98c10f	-0.29834792
160	0xbd393736	-0.04521867
161	0x3ea1d206	0.31605548
162	0xbe8a3a38	-0.26997542
163	0x3ee888a0	0.45416737
164	0x3d23e974	0.04001756
165	0xbec94a46	-0.3931448
166	0xbe2baf53	-0.167661
167	0x3e1d5c52	0.15367249
168	0xbd590433	-0.05298252
169	0x3deb2855	0.11482302
170	0xbe28d424	-0.16487175
171	0xbe078d51	-0.13237502
172	0x3d28d02d	0.041214157
173	0xbe49985a	-0.19687024
174	0xbd0182ec	-0.031618997
175	0x3e58b389	0.21162237
176	0x3e9b3346	0.30312556
177	0xbe3e8735	-0.18606265
178	0x3e632323	0.22181372
179	0xbd8a8e3d	-0.06765411
180	0xbdab29ab	-0.08357557
181	0xbcccf46a	-0.02501889
182	0x3d867f9a	0.06567307
183	0x3c0bc47b	0.008530731
184	0x3e7d1f3d	0.24718948
185	0x3b421fec	0.0029621078
186	0x3e11a84f	0.14224361
187	0x3ef145b7	0.471235
188	0x3da8799e	0.08226322
189	0xbd98234a	-0.07428606
190	0x3eafe8b7	0.34357235
191	0x3eacec26	0.33773917
192	0x3d3ed7c4	0.04659249
193	0x3cd0eb4d	0.025502825
194	0xbe1c1aa1	-0.15244533
195	0xbdaa73b7	-0.08322852
196	0x3ec48e40	0.38389778
197	0xbf039de3	-0.5141279
198	0x3c8cc978	0.017185912
199	0xbe38dedd	-0.18053766
200	0xbf075b4b	-0.52873677
201	0x3e83ad23	0.2571803
202	0xbe82a5e0	-0.25517178
203	0xbd091fdf	-0.03347766
204	0xbdec149d	-0.11527369
205	0xbd92f129	-0.07174904
206	0x3da35375	0.079749025
207	0xbe8da4eb	-0.27664885
208	0x3e20f5de	0.15718791
209	0xbe889d54	-0.26682532
210	0x3ed7322a	0.4203046
211	0x3c101613	0.008794325
212	0x3dbc68fe	0.09199713
213	0xbe860e7e	-0.26182932
214	0xbe0535ad	-0.13008757
215	0xbe02237a	-0.12708846
216	0xbe3a4efd	-0.18194194
217	0xbe544b54	-0.2073186
218	0xbdf29c78	-0.1184625
219	0xbea240da	-0.31690103
220	0xbda6f8e3	-0.0815294
221	0xbea0ce91	-0.31407598
222	0xbe8b1976	-0.27167863
223	0x3db156d2	0.08659138
224	0x3cf2d72b	0.029643616
225	0xbe1d3ad3	-0.15354471
226	0xbf06ee6d	-0.5270756
227	0xbd976ebd	-0.073941685
228	0x3e872ecd	0.26402894
229	0x3d78198c	0.06057124
230	0xbe05f469	-0.13081516
231	0xbe87b90b	-0.26508364
232	0x3d5c5fc3	0.053802263
233	0x3e11a30e	0.14222357
234	0xbd9fa293	-0.077946804
235	0x3ddd1d2d	0.107965805
236	0xbe2a8654	-0.16652805
237	0xbe124dfd	-0.14287563
238	0xbea4d85a	-0.32196313
239	0xbd24bbd1	-0.04021818
240	0x3cdb9708	0.026805416
241	0x3e451e88	0.19249928
242	0xbe629087	-0.22125445
243	0x3c2efcd9	0.010680401
244	0xbdcbd8f0	-0.09953487
245	0xbd3918e2	-0.045189746
246	0xbde07623	-0.10960033
247	0xbdf79178	-0.12088293
248	0x3dae54ec	0.08512291
249	0xbe5175ef	-0.20455144
250	0x3cd0719b	0.025444796
251	0x3cccd2d6	0.025002878
252	0x3d10cc68	0.035351187
253	0xbee4314b	-0.44568858
254	0x3de0ea7b	0.109822236
255	0xbe0c9c03	-0.13731389

net.3.bias f4 [128]
0	0xbd335c77	-0.043789353
1	0x3e010969	0.12601246
2	0xbe8897a1	-0.26678184
3	0xbeab8ac6	-0.33504313
4	0xbe074bef	-0.1321256
5	0xbdf3bb0a	-0.11900909
6	0xbe3115f2	-0.17293528
7	0xbecbfc4e	-0.3984093
8	0xbe08fd4f	-0.1337788
9	0xbe2d0c9a	-0.16899338
10	0xbf091e7e	-0.5356215
11	0x3c2e9a20	0.010656863
12	0xbe3bc270	-0.18335891
13	0xbe5c29e7	-0.2150036
14	0xbddf1253	-0.10892167
15	0xbdd737fb	-0.10508724
16	0xbda3f699	-0.08006019
17	0xbe31fce2	-0.17381623
18	0xbe77e70c	-0.24209231
19	0xbe8124cc	-0.25223386
20	0xbe91afa5	-0.2845432
21	0xbe0659c3	-0.13120179
22	0xbd19c799	-0.037543867
23	0xbe886967	-0.26642916
24	0xbdd9ccc2	-0.106347576
25	0xbe9e8209	-0.30958584
26	0xbeaa2779	-0.3323324
27	0xbe07105c	-0.13189834
28	0xbe02960f	-0.12752555
29	0xbe3703c6	-0.17872533
30	0xbdb9ec05	-0.0907822
31	0xbe67dd49	-0.22643007
32	0xbe366b1d	-0.17814298
33	0xbe9f801f	-0.31152436
34	0xbe2a8e03	-0.16655736
35	0xbe1059e6	-0.14096794
36	0xbda8bc52	-0.08239044
37	0xbebad656	-0.3649165
38	0xbdc32f85	-0.09530548
39	0xbdd317dc	-0.10307285
40	0xbdf9c5b2	-0.121959105
41	0xbeeaee0d	-0.45884743
42	0xbdb3be73	-0.0877656
43	0xbd7ab1fb	-0.06120489
44	0xbb7fd986	-0.0039039566
45	0xbe9bfe0e	-0.30467266
46	0xbdca3fd0	-0.098754525
47	0xbe2fbc11	-0.17161585
48	0xbdcce0a6	-0.10003786
49	0xbd60e288	-0.054903537
50	0x3d491879	0.049095605
51	0xbe0a707a	-0.13519469
52	0xbebfd9e5	-0.37470928
53	0xbe6c2afa	-0.2306327
54	0xbe3ca715	-0.18423112
55	0xbeb162a1	-0.3464556
56	0xbe3e3d69	-0.18578114
57	0xbe9062d1	-0.2820039
58	0xbe74cd26	-0.23906383
59	0xbe05e622	-0.1307607
60	0xbd80e1d9	-0.06293077
61	0xbe4f4dec	-0.20244569
62	0xbcf40961	-0.029789628
63	0xbe48235e	-0.19544742
64	0xbe94de3b	-0.29075798
65	0xbe14d3df	-0.14533947
66	0xbeb9ed42	-0.36313826
67	0xbdaa4f73	-0.08315935
68	0xbe92d68e	-0.28679317
69	0xbe952eca	-0.2913726
70	0xbe91438d	-0.2837185
71	0xbe9596d8	-0.29216647
72	0xbe99861b	-0.29985127
73	0xbe492c1e	-0.19645736
74	0x3d1415cd	0.036153603
75	0xbe7c6960	-0.24649572
76	0xbe500446	-0.2031413
77	0xbe29debb	-0.16588871
78	0xbe53c287	-0.20679675
79	0xbe4c4508	-0.19948208
80	0xbdfd0523	-0.123544954
81	0xbe616963	-0.22012858
82	0xbeb29e49	-0.34886387
83	0xbe3a5502	-0.1819649
84	0xbe242b16	-0.16032061
85	0xbee0ec99	-0.4393051
86	0xbe11bce6	-0.14232215
87	0xbe94f7b5	-0.29095235
88	0xbe87ddb4	-0.26536334
89	0xbde61f68	-0.11236459
90	0xbe25f866	-0.16208038
91	0x3d2de606	0.042455696
92	0xbdda9d4b	-0.106745325
93	0xbe1737c7	-0.14767371
94	0xbe23cef0	-0.15996909
95	0xbd0d9f1f	-0.034575578
96	0xbe05f171	-0.13080384
97	0xbe262131	-0.16223599
98	0xbd7bb5db	-0.061452728
99	0xbcb115f4	-0.021616913
100	0xbe7e7089	-0.24847616
101	0xbe03f155	-0.1288503
102	0xbe959381	-0.292141
103	0xbd981fc5	-0.074279346
104	0xbe8a0e49	-0.26964024
105	0xbe8fb5f6	-0.28068513
106	0xbe2ae010	-0.16687036
107	0xbe3ac5d8	-0.18239534
108	0xbd0cbf1b	-0.03436194
109	0xbd838e30	-0.064236045
110	0xbe5ebc68	-0.21751559
111	0xbe596908	-0.21231472
112	0xbe67e9ba	-0.22647753
113	0xbdbd4b08	-0.09242827
114	0xbe034efa	-0.12823096
115	0xbe9731f5	-0.29530302
116	0xbe2be2a2	-0.16785672
117	0xbe61854d	-0.22023506
118	0xbda518a7	-0.08061343
119	0xbe50a4b2	-0.20375326
120	0xbe0234bb	-0.12715428
121	0xbe78eade	-0.24308345
122	0xbeb1be37	-0.34715435
123	0xbe67bcc7	-0.22630607
124	0x3bb5b849	0.00554565
125	0xbea51e30	-0.32249594
126	0xbdee11f4	-0.11624518
127	0xbe031e85	-0.12804611

net.5.weight f4 [128]
0	0x3f5fefb1	0.87475115
1	0x3f8c6ffb	1.0971674
2	0x3f81b5f3	1.0133651
3	0x3f1e5ac6	0.6185726
4	0x3f4aa0fa	0.7915188
5	0x3f4db05c	0.8034723
6	0x3f2bd09c	0.6711519
7	0x3f375b64	0.71623826
8	0x3f4ef01a	0.80835116
9	0x3f86e591	1.0538808
10	0x3f5534b4	0.83283544
11	0x3f94b1ba	1.1616738
12	0x3f97cd09	1.1859447
13	0x3f5e7e05	0.8691104
14	0x3f536507	0.8257603
15	0x3f65cc4c	0.8976486
16	0x3fd9ac88	1.7005777
17	0x3f477077	0.7790598
18	0x3f7fc9c9	0.99917275
19	0x3f2f0076	0.6836008
20	0x3f459a69	0.77188736
21	0x3f572e27	0.840548
22	0x3f2980f0	0.6621237
23	0x3f573cee	0.84077346
24	0x3f42d8cc	0.76112056
25	0x3f642bbd	0.8912924
26	0x3f4b1529	0.7932916
27	0x3f4e670a	0.80625975
28	0x3f77ec1d	0.96844655
29	0x3f44699a	0.76723635
30	0x3f4904a8	0.7852273
31	0x3f8af2ca	1.0855343
32	0x3f8aa3df	1.083126
33	0x3f5ac9c5	0.85464126
34	0x3f8d57de	1.104244
35	0x3f52cf87	0.8234791
36	0x3f476369	0.7788606
37	0x3fd1c35f	1.6387748
38	0x3f5935e3	0.8484785
39	0x3f8b88c8	1.0901117
40	0x3f9261ba	1.1436074
41	0x3f448bb6	0.7677568
42	0x3f49304c	0.7858932
43	0x3f77f368	0.96855783
44	0x3f5f8093	0.87305564
45	0x3f4ed0be	0.80787265
46	0x3f57fe5c	0.84372497
47	0x3f5562c7	0.8335385
48	0x3f48910b	0.7834632
49	0x3f6b6315	0.9194806
50	0x3f792890	0.9732752
51	0x3f0264e4	0.50935197
52	0x3f8e3c1b	1.1112093
53	0x3f7b9332	0.9827148
54	0x3f4d4a8f	0.8019189
55	0x3f7ed168	0.9953828
56	0x3fb33020	1.3999062
57	0x3f3d7106	0.74000585
58	0x3f70580d	0.93884355
59	0x3feeebf8	1.8665762
60	0x3f9ecefc	1.2406917
61	0x3f4918cb	0.78553456
62	0x3fa43431	1.2828428
63	0x3f986e9e	1.1908758
64	0x3f662c0a	0.8991095
65	0x3f480263	0.7812864
66	0x3f42a21f	0.7602863
67	0x3f8d6b96	1.1048458
68	0x3f21946a	0.63117087
69	0x3fb655e4	1.4244962
70	0x3effcd1c	0.49961174
71	0x3f18d126	0.59694135
72	0x3f59c6db	0.85069054
73	0x3ffdb5d5	1.9821116
74	0x3fa277ab	1.269277
75	0x3f38ca07	0.7218327
76	0x3f356486	0.7085651
77	0x3f4a7c54	0.7909596
78	0x3f3c5c05	0.7357791
79	0x3f518f39	0.81859165
80	0x3f829434	1.0201478
81	0x3f345545	0.7044261
82	0x3f3fb571	0.7488623
83	0x3f59df5f	0.8510646
84	0x3f640bd5	0.89080554
85	0x3fd2a15c	1.6455493
86	0x3f481b38	0.7816653
87	0x3f5dcb76	0.8663858
88	0x3f8e9993	1.1140617
89	0x3f471e8b	0.7778098
90	0x3f5860ff	0.84523004
91	0x3f8f2b5d	1.1185108
92	0x3f553754	0.8328755
93	0x3fde7dc8	1.7382135
94	0x3f593f10	0.8486185
95	0x3f1f737a	0.6228558
96	0x3f5b5b31	0.8568602
97	0x3f7b060a	0.9805609
98	0x3f74951b	0.95540017
99	0x3f1e5cd3	0.6186039
100	0x3f3d9dda	0.7406899
101	0x3f9e166f	1.2350596
102	0x3f1791f4	0.5920708
103	0x3f70c1fa	0.94045985
104	0x3f8b5402	1.0885012
105	0x3f59e24a	0.85110915
106	0x3f907390	1.1285267
107	0x3f8e36e2	1.1110499
108	0x3f9b253d	1.2120739
109	0x3f6f253e	0.934162
110	0x3f7dafe3	0.99096507
111	0x3f183e4d	0.59470063
112	0x3fbf9b59	1.4969283
113	0x3fb57162	1.4175227
114	0x3f9afe36	1.2108829
115	0x3f940669	1.1564456
116	0x3efbc463	0.4917327
117	0x3fc12fef	1.5092753
118	0x3f650300	0.894577
119	0x3f940c3e	1.1566236
120	0x3f2e72fc	0.681442
121	0x3f4e7a0a	0.80654967
122	0x3f43b442	0.76446927
123	0x3fa99a1c	1.3250155
124	0x3f7e0c5f	0.99237627
125	0x3f7f5401	0.99737555
126	0x3f66719b	0.900171
127	0x3f52a37b	0.822807

net.5.bias f4 [128]
0	0x3e6fd9f0	0.2342298
1	0x3c37df8b	0.01122273
2	0xbea2def3	-0.31810722
3	0x3e24f09f	0.16107415
4	0x3dcad9f0	0.099048495
5	0xbc9e69e9	-0.019337611
6	0x3e25f2c0	0.16205883
7	0x3e4eeb6b	0.20206992
8	0x3e3bf705	0.18355949
9	0xbe7b0468	-0.245134
10	0x3e6cdb8d	0.23130627
11	0x3db867cf	0.09004175
12	0x3d8e740b	0.06955727
13	0x3e111314	0.14167434
14	0x3e1fbcd7	0.1559938
15	0x3e01441b	0.12623636
16	0x3ebedd20	0.3727808
17	0x3e5d8323	0.21632056
18	0x3e1a0cc5	0.15043934
19	0x3e4cfe5b	0.20018904
20	0x3e571612	0.21004513
21	0x3e6e4883	0.23269849
22	0x3d3854ed	0.045002867
23	0x3e63d9da	0.22251073
24	0x3e8a01c6	0.26954478
25	0xbd545646	-0.05184009
26	0x3e53b426	0.2067419
27	0x3e5b629a	0.21424332
28	0x3dd1c70d	0.10243044
29	0x3e524337	0.20533453
30	0x3ea4ce79	0.32188776
31	0x3e5cef06	0.21575555
32	0xbdc44229	-0.095829315
33	0x3e6ce400	0.2313385
34	0x3e098e37	0.13433157
35	0x3e666394	0.22498924
36	0x3e2281ea	0.15869871
37	0x3efba214	0.49147093
38	0x3e04a8e5	0.12955053
39	0xbe158dde	-0.146049
40	0x3e89782d	0.268495
41	0x3e452703	0.19253163
42	0x3e5f8637	0.21828543
43	0x3dad85e8	0.08472806
44	0x3e5cdb4f	0.21568035
45	0x3e641d07	0.22276698
46	0x3e6daa74	0.23209554
47	0x3e602085	0.21887405
48	0x3e5e3d79	0.21703137
49	0x3d8171aa	0.06320508
50	0xbd73f803	-0.059562694
51	0x3d400dd3	0.046888184
52	0x3e1abea9	0.15111794
53	0x3e99bb04	0.30025494
54	0x3e5c02ba	0.21485415
55	0x3e6b0314	0.22950393
56	0x3ea09e6f	0.31370875
57	0x3e35024f	0.17676662
58	0x3e4a1d33	0.19737701
59	0x3dd80c50	0.105492234
60	0x3d856004	0.06512454
61	0x3e61df98	0.2205795
62	0x3ecbf97d	0.39838782
63	0x3e949932	0.2902313
64	0x3e6196e8	0.22030222
65	0x3e52f426	0.20600948
66	0x3e54fbf2	0.20799235
67	0x3e45147c	0.19246095
68	0x3e344076	0.17602715
69	0x3e66758b	0.22505777
70	0x3e1bd74a	0.15218845
71	0x3e25d0a9	0.16192879
72	0x3e837378	0.25674033
73	0x3e3921f8	0.18079364
74	0x3e59e56e	0.21278927
75	0x3e417225	0.18891199
76	0x3e417452	0.18892029
77	0x3e547fd1	0.20751883
78	0x3e480221	0.19532062
79	0x3e10bcae	0.14134476
80	0x3e4032f6	0.1876944
81	0x3e470202	0.1943436
82	0x3e56ff2f	0.20995782
83	0x3e6625bc	0.22475332
84	0x3d1199e6	0.03554716
85	0x3f037071	0.51343447
86	0x3be9ef0a	0.0071390914
87	0x3e69a580	0.2281704
88	0x3d95e314	0.07318702
89	0x3e5f7946	0.21823606
90	0x3e6b2460	0.22963095
91	0xbd304239	-0.043031905
92	0x3d25e577	0.040502038
93	0x3e999fc2	0.30004698
94	0x3e84cfd1	0.259398
95	0x3b8736fc	0.0041264277
96	0x3e66ee93	0.22551946
97	0x3e439a87	0.19101916
98	0xbd4288e1	-0.04749382
99	0xbe9c88ae	-0.30573028
100	0x3e54922c	0.20758885
101	0x3ecff5ba	0.40617162
102	0x3db45cb4	0.08806744
103	0x3d823a54	0.063587815
104	0x3e948c78	0.2901342
105	0x3e6fc692	0.23415592
106	0x3ea49f07	0.32152578
107	0x3e6795c1	0.2261572
108	0x3d8975a7	0.067118935
109	0x3e6a7b7d	0.2289867
110	0x3e8c99ea	0.27461177
111	0x3dada71d	0.0847914
112	0x3f08dfcd	0.5346649
113	0xbcd068f9	-0.02544068
114	0x3e65bbbc	0.22434896
115	0x3ee5fae5	0.4491798
116	0xbe08fe53	-0.13378267
117	0x3e92f8b5	0.28705373
118	0xbdca29d3	-0.098712586
119	0x3e566572	0.20937136
120	0x3dcbb6cf	0.09946977
121	0x3db3aa44	0.0877271
122	0x3c9ffb5b	0.019529035
123	0x3ea264ed	0.31717625
124	0x3c04bc32	0.00810151
125	0x3e69118c	0.227606
126	0x3dcb7705	0.099348105
127	0x3e5dc7f3	0.21658306

net.6.weight f4 [64, 128]
0	0x3e498c97	0.19682537
1	0xbe8b336b	-0.27187666
2	0xbec4a63d	-0.3840808
3	0x3e2b4ad0	0.16727757
4	0x3e15ed5d	0.14641328
5	0xbea5ce03	-0.32383737
6	0xbe2166b6	-0.15761837
7	0x3d04e19f	0.03244173
8	0xbdd9e66b	-0.10639652
9	0xbe97f5b9	-0.2967966
10	0x3e46c2c9	0.19410242
11	0x3e6a8344	0.22901636
12	0xbe70ffe7	-0.23535119
13	0x3e194d80	0.1497097
14	0xbe2da78a	-0.16958442
15	0x3ec4b66b	0.38420424
16	0xbf1aa3a9	-0.60405976
17	0x3e46d734	0.19418031
18	0x3ce0a247	0.02742113
19	0x3dc570c0	0.09640646
20	0x3dce4ef9	0.100736566
21	0x3e8256ef	0.2545695
22	0x3ea44f5f	0.32091805
23	0x3e6c795d	0.23093171
24	0xbe0e35b8	-0.1388768
25	0xbd01c5d0	-0.03168279
26	0x3e52dae1	0.20591308
27	0x3e30caa0	0.17264795
28	0x3ad895f8	0.0016524186
29	0x3dfb65dd	0.12275288
30	0x3d85a777	0.06526082
31	0x3e5ee231	0.21765973
32	0xbeab0b57	-0.3340709
33	0x3e59348a	0.21211448
34	0x3d0d87dd	0.034553397
35	0x3e5dba7c	0.2165317
36	0xbe010eb6	-0.12603268
37	0x3e0d820a	0.13819137
38	0xbed5844c	-0.41702497
39	0x3e3e5081	0.18585397
40	0x3df30025	0.11865262
41	0x3e1b0bcd	0.1514122
42	0x3dcdf154	0.10055795
43	0x3dc94ce9	0.098291226
44	0x3c8aeff5	0.016960124
45	0x3e0a7323	0.13520484
46	0x3eb7bb53	0.35885105
47	0x3e99a671	0.30009797
48	0x3db4a7a7	0.0882104
49	0xbe815e56	-0.25267285
50	0xbe6d88fc	-0.23196787
51	0x3dc58800	0.096450806
52	0xbbf1abab	-0.0073752007
53	0x3e6b9da2	0.23009351
54	0x3e10c7b5	0.14138682
55	0x3d95771d	0.0729811
56	0x3e3f702e	0.18695137
57	0x3e1d77ae	0.15377685
58	0x3de9c5bc	0.11414668
59	0xbfe1b200	-1.7632446
60	0x3dbe39cc	0.09288368
61	0x3d8f5f13	0.07000556
62	0xbea660ee	-0.32495826
63	0xbef72570	-0.4827075
64	0x3dd7b65b	0.105328284
65	0x3e3035a7	0.17207967
66	0x3e281167	0.16412888
67	0xbe0efdf8	-0.13964069
68	0x3d6df9ae	0.05809944
69	0xbe45bee7	-0.19311105
70	0xbeb1a6e9	-0.34697655
71	0x3dbb2a88	0.091389716
72	0xbd0f2ec2	-0.0349567
73	0xbd54d744	-0.051963106
74	0xbee4bc91	-0.44675115
75	0x3e0cbd5e	0.13744113
76	0xbd55fea7	-0.05224481
77	0xbdd3e762	-0.10346867
78	0x3db5046b	0.08838733
79	0xbdf65fb9	-0.120299764
80	0x3d082038	0.03323385
81	0x3e41d218	0.189278
82	0xbe3a9384	-0.18220335
83	0x3dc08028	0.09399444
84	0xbd1ce16e	-0.038300924
85	0xbdb6b0e4	-0.08920458
86	0x3d6cbe88	0.057798892
87	0x3e021d47	0.12706481
88	0xbe325030	-0.17413402
89	0x3e489005	0.19586189
90	0x3e64db5e	0.22349307
91	0x3ef87246	0.48524684
92	0x3d9f0548	0.07764679
93	0xbdb302b4	-0.0874075
94	0xbdcc7b6c	-0.09984478
95	0x3c6fc723	0.01463488
96	0x3e2103fe	0.15724179
97	0xbf20db4f	-0.6283464
98	0xbe05898b	-0.1304075
99	0xbd0830f4	-0.03324981
100	0x3e312ba7	0.17301808
101	0xbd93b776	-0.07212727
102	0x3b8c5d95	0.004283617
103	0xbe0f90c6	-0.1402007
104	0xbe4c326f	-0.19941114
105	0x3e625d8d	0.22106
106	0xbe543630	-0.20723796
107	0x3e41e197	0.18933712
108	0x3e7b954a	0.24568668
109	0x3e099e1e	0.13439223
110	0x3e595a41	0.21225835
111	0x3db946da	0.09046717
112	0xbf1b2315	-0.60600406
113	0x3d6b7534	0.05748482
114	0x3eb48634	0.3525864
115	0xbe22223f	-0.15833376
116	0x3dbbd018	0.0917055
117	0xbeae0503	-0.339882
118	0xbcfc178c	-0.030772947
119	0xbd0fa1c1	-0.03506637
120	0x3c034c0b	0.0080137355
121	0xbd29cd4a	-0.041455545
122	0x3e6fda03	0.23423009
123	0xbe7afa63	-0.24509577
124	0xbd06bf34	-0.03289719
125	0x3ded6a94	0.11592594
126	0x3eac8a62	0.33699328
127	0x3e50155a	0.20320645
128	0x3e1f0bfd	0.15531917
129	0xbba28f62	-0.00496094
130	0xbe543568	-0.20723498
131	0x3db49e2f	0.088192336
132	0xbf0a1ffb	-0.5395505
133	0x3ddabda3	0.106807016
134	0xbdf2234d	-0.11823139
135	0x3dfe03cc	0.12403068
136	0x3ebfd5fc	0.37467945
137	0x3e755a62	0.2396026
138	0x3e3eef7c	0.18646044
139	0x3f1051be	0.5637473
140	0xbe2941ce	-0.16529009
141	0x3dcdbe9f	0.10046124
142	0x3e26e33e	0.16297624
143	0x3e1d7e81	0.15380289
144	0xbebc2606	-0.3674776
145	0x3e213c49	0.15745653
146	0x3e8d811c	0.27637565
147	0xbe280636	-0.1640862
148	0x3e057ff6	0.13037094
149	0x3de0f454	0.10984102
150	0xbe584745	-0.21120937
151	0x3e3e176e	0.18563625
152	0xbe8c6efc	-0.27428424
153	0x3e6f9c53	0.23399477
154	0x3d51597b	0.051110726
155	0x3e16ce7f	0.1472721
156	0xbe0a4865	-0.13504179
157	0x3e51f055	0.20501836
158	0xbcdb36d0	-0.026759535
159	0xbe2cff74	-0.16894323
160	0xbe7a9f30	-0.24474788
161	0x3e3d8af4	0.18510038
162	0xbf88e21f	-1.0694007
163	0x3e32ac7e	0.17448613
164	0x3e580642	0.21096137
165	0xbf18d70a	-0.59703124
166	0xbe3b9dcb	-0.18321912
167	0xbd44e934	-0.048073962
168	0x3dd8d836	0.10588114
169	0x3df297c1	0.11845351
170	0x3da3da42	0.08000614
171	0xbc2ca4d4	-0.010537345
172	0xbecfd02b	-0.40588507
173	0x3e00a744	0.12563807
174	0xbe4f4889	-0.20242514
175	0x3e473ced	0.19456835
176	0x3e00a349	0.12562288
177	0x3da1cde3	0.07900598
178	0x3e5b711f	0.21429871
179	0x3dadee6a	0.084927395
180	0xbdf47fc5	-0.119384326
181	0x3e427b91	0.1899245
182	0x3e4b7656	0.1986936
183	0x3df275c2	0.11838867
184	0x3d02ca54	0.031931236
185	0x3e63fec2	0.22265151
186	0x3d9f5ce2	0.07781388
187	0x3ea0a815	0.31378236
188	0x3eb89a45	0.36055198
189	0x3e025c5a	0.12730542
190	0xbea89c49	-0.32931736
191	0x3cff38a7	0.031154944
192	0x3e636ece	0.22210237
193	0x3e1e46c3	0.15456681
194	0x3da863d2	0.08222164
195	0xbd03f757	-0.032218304
196	0x3e631942	0.22177604
197	0xbf8556fa	-1.0417168
198	0xbe8f13a0	-0.2794466
199	0x3e0d62ca	0.13807216
200	0x3ce2f876	0.027706366
201	0xbc9943c1	-0.018709065
202	0x3dd29eb7	0.10284179
203	0x3d9761a0	0.07391667
204	0x3df5a73d	0.11994789
205	0xbef3fd1e	-0.4765405
206	0x3e2ce823	0.16885428
207	0xbee0c815	-0.4390265
208	0x3c2d2a77	0.010569206
209	0x3e59789b	0.21237414
210	0xbd1b4377	-0.037906136
211	0x3e2f0a6d	0.17093821
212	0xbd09d5ae	-0.033651046
213	0xbf397fbd	-0.7246054
214	0x3ed6b3c4	0.41934025
215	0x3dc0cac4	0.094136745
216	0xbe7314e7	-0.23738442
217	0x3d9b29b0	0.07576311
218	0x3dd3ef79	0.1034841
219	0x3c8c5c88	0.017133966
220	0x3eabf27a	0.33583432
221	0x3e5db68d	0.21651669
222	0xbd854e47	-0.06509071
223	0x3dcf9dac	0.101374954
224	0x3daf7418	0.08567065
225	0x3de1c0d1	0.11023105
226	0x3ed78fc8	0.42101884
227	0xbcf8251d	-0.030291134
228	0x3e1e9813	0.15487699
229	0xbed517dc	-0.41619766
230	0xbebba977	-0.3665273
231	0x3d48d150	0.04902774
232	0xbbe61b06	-0.0070222644
233	0x3e033045	0.12811382
234	0xbdc64ae0	-0.0968225
235	0xbf014483	-0.50495166
236	0x3f0df17e	0.5544661
237	0xbf099683	-0.5374529
238	0xbddbef6a	-0.10739024
239	0xbcd451fd	-0.025918001
240	0xbf3547d5	-0.7081273
241	0x3f02829a	0.5098053
242	0xbf0c4faa	-0.5480906
243	0xbf3ffeb7	-0.7499804
244	0x3d830c7f	0.06398868
245	0xbebf760d	-0.37394753
246	0xbe122bec	-0.14274567
247	0xbcc9ff71	-0.024657937
248	0x3e6d07d2	0.23147514
249	0xbeb3841d	-0.35061732
250	0x3db50034	0.08837929
251	0xbd6a657f	-0.0572257
252	0x3e399865	0.1812454
253	0x3d994415	0.07483689
254	0x3e06b83f	0.13156222
255	0x3e210815	0.1572574

net.6.bias f4 [64]
0	0x3d9db8f8	0.077012956
1	0xbdf65563	-0.12028005
2	0xbeeb08c9	-0.4590514
3	0xbe8b833f	-0.2724857
4	0xbed82415	-0.42215028
5	0xbd19a0d6	-0.0375069
6	0xbe4b5e3c	-0.19860166
7	0xbe12fe28	-0.14354765
8	0xbeadbf5c	-0.33935058
9	0x3d056a2c	0.032571957
10	0xbe432748	-0.19057953
11	0xbe2f34b1	-0.17109944
12	0x3c80e479	0.015733944
13	0xbe862c7f	-0.26205823
14	0xbd8b1fe5	-0.06793193
15	0x3e83bbf3	0.2572933
16	0xbea3a710	-0.31963396
17	0xbe0e1c57	-0.13877998
18	0xbd1c106a	-0.03810159
19	0xbdca90be	-0.09890889
20	0xbe2c9906	-0.16855249
21	0xbd54ff82	-0.052001484
22	0x3c6735b9	0.01411193
23	0xbe40a71d	-0.18813749
24	0xbef11199	-0.47083738
25	0xbe7e0593	-0.24806814
26	0xbeae097d	-0.33991614
27	0xbeb3c32c	-0.35109842
28	0xbe11dad9	-0.1424364
29	0xbea92907	-0.33039114
30	0xbdfab8ef	-0.122423045
31	0xbd75221d	-0.059846986
32	0x3d12c73b	0.035834532
33	0xbea6e691	-0.32597783
34	0xbdab161e	-0.08353828
35	0xbe5a9722	-0.21346715
36	0xbdae03ef	-0.08496844
37	0xbdab0862	-0.08351208
38	0xbd9a7a17	-0.07542818
39	0xbe761517	-0.24031483
40	0xbdb52ce8	-0.08846456
41	0xbed891a0	-0.42298603
42	0xbea04d90	-0.31309175
43	0xbdc204d2	-0.09473576
44	0xbed24739	-0.41069964
45	0xbd7c7cd2	-0.061642475
46	0xbe993549	-0.29923466
47	0xbf00d68a	-0.5032736
48	0xbe0d4334	-0.13795167
49	0xbdb01c73	-0.08599176
50	0x3d21f422	0.039539464
51	0xbe9b495b	-0.30329403
52	0xbe433b42	-0.19065574
53	0xbe66b091	-0.22528292
54	0xbe5cb396	-0.21552882
55	0xbdfd12da	-0.12357111
56	0xbe8ba66c	-0.27275407
57	0xbea123c6	-0.31472605
58	0xbe8d0f4c	-0.27550733
59	0xbebc872b	-0.36821875
60	0xbe946e7a	-0.28990537
61	0x3d4d60be	0.05014109
62	0xbc992298	-0.018693253
63	0xbda2b7f0	-0.079452395

net.8.weight f4 [2, 64]
0	0x3ed63cbd	0.41843215
1	0xbde02eae	-0.109464034
2	0x3e003b88	0.1252271
3	0x3ecc81e9	0.39942864
4	0x3de632f2	0.11240186
5	0x3ea30862	0.31842333
6	0x3d695e33	0.0569746
7	0x3e9864d3	0.29764423
8	0xbe8af906	-0.27143115
9	0x3df25c88	0.11834055
10	0xbe1d02d5	-0.15333112
11	0xbd94bf81	-0.07263089
12	0xbe690973	-0.22757511
13	0xbe46ac2f	-0.1940162
14	0x3deb0255	0.11475054
15	0x3e95a602	0.29228216
16	0xbe1400a9	-0.14453377
17	0x3e90c992	0.28278786
18	0x3e8f0ea5	0.2794086
19	0x3e5a1559	0.21297206
20	0x3e664de7	0.22490655
21	0xbe8039ca	-0.2504409
22	0x3e97163b	0.29509148
23	0xbe657015	-0.22406037
24	0xbd680cff	-0.05665302
25	0xbd533b28	-0.051570088
26	0xbdcb9577	-0.099406175
27	0x3ea58eef	0.32335612
28	0xbd09f6a8	-0.033682495
29	0xbe576824	-0.2103582
30	0xbe71cc8c	-0.23613185
31	0xbe68b40f	-0.22724937
32	0x3e450362	0.19239572
33	0x3e3f71c0	0.18695736
34	0x3e9e64bb	0.30936226
35	0xbe10eed0	-0.141536
36	0x3e64e5f3	0.22353344
37	0x3e4a8698	0.19777906
38	0xbe42c75c	-0.19021362
39	0xbed12eff	-0.40856168
40	0x3d8afd1d	0.06786559
41	0xbe0dbeae	-0.1384227
42	0xbe4bdfc7	-0.19909583
43	0x3e1bfcba	0.15233126
44	0xbd479e9c	-0.048735246
45	0x3eaf54a8	0.34244275
46	0x3d172393	0.03689916
47	0x3ce5e2f4	0.028062321
48	0x3e3e4e3c	0.18584532
49	0x3e4f0acc	0.20218962
50	0x3e284943	0.16434197
51	0x3d62eb4e	0.055400185
52	0xbebd8799	-0.37017515
53	0xbe9f3428	-0.3109448
54	0xbddc6561	-0.10761524
55	0xbe6c4852	-0.23074463
56	0x3d8cf551	0.06882728
57	0xbea3445b	-0.3188809
58	0xbe417358	-0.18891656
59	0x3e99b7d1	0.30023053
60	0x3d3fcf5d	0.046828616
61	0x3e405a52	0.18784454
62	0x3e2499a4	0.16074234
63	0xbeaea288	-0.34108377
64	0x3e89524a	0.26820594
65	0xbea203a1	-0.31643394
66	0xbe98058f	-0.2969174
67	0x3eb1f6ae	0.34758514
68	0xbecb0537	-0.39652416
69	0x3eb045ac	0.34428155
70	0x3e97e644	0.29667866
71	0xbdffaa57	-0.124836616
72	0xbe34f992	-0.17673329
73	0x3e0bb658	0.13643777
74	0xbe151fd9	-0.1456293
75	0xbf33e30e	-0.7026833
76	0xbdbcea2b	-0.092243515
77	0xbe916041	-0.28393748
78	0x3dcd9ad7	0.10039299
79	0x3e9b401a	0.30322343
80	0x3def16f2	0.11674298
81	0x3e934314	0.28762114
82	0x3e6251a3	0.22101454
83	0x3e728e3a	0.23687068
84	0x3e6ce66b	0.23134772
85	0xbe842ea2	-0.25816828
86	0xbe5eff47	-0.21777068
87	0xbcc31d75	-0.023817757
88	0x3e43116b	0.19049613
89	0x3ec2df73	0.38061103
90	0xbe693023	-0.22772269
91	0xbeebd657	-0.46061966
92	0x3f49de77	0.7885508
93	0xbd97250d	-0.07380114
94	0xbe92f2a4	-0.28700745
95	0x3c9b52f8	0.018960461
96	0x3edde3bf	0.4333782
97	0x3d4cef71	0.050033037
98	0x3e9be468	0.30447698
99	0xb973fee8	-0.00023269246
100	0x3d7f01c9	0.06225756
101	0x3e94545e	0.28970617
102	0xbe363082	-0.17791942
103	0xbcd58c7c	-0.026067965
104	0x3de23af7	0.11046403
105	0x3dda94d0	0.10672915
106	0xbe691da3	-0.22765212
107	0xbe3aa720	-0.18227816
108	0x3e978699	0.29594877
109	0xbeaae44c	-0.33377302
110	0xbd472b71	-0.048625413
111	0xbedc930a	-0.43080932
112	0x3dd787aa	0.10523923
113	0x3e36e5b4	0.17861062
114	0x3eefe2c2	0.4685269
115	0x3e8864e7	0.26639482
116	0xbe87ce61	-0.26524642
117	0xbeb05ea1	-0.34447196
118	0x3e6b7b2e	0.22996208
119	0xbe09bef5	-0.1345175
120	0x3e14dc13	0.14537077
121	0xbec32bb5	-0.38119283
122	0x3d7673ee	0.060169153
123	0x3ea751fd	0.3267974
124	0x3e88f040	0.26745796
125	0x3e9c5d1b	0.30539784
126	0x3dd6e512	0.104929104
127	0xbea8b433	-0.3294998

net.8.bias f4 [2]
0	0x3eaffdd6	0.3437335
1	0x3e8a5e41	0.27025035
