geometry_dqn.pth (torch, 111513 bytes, 12 tensors)

net.0.weight f4 [128, 9]
000000 8b ea 72 3f 93 1b 21 be fb 92 68 3e d3 7f 67 be
       0.94889134 -0.15733175 0.22712319 -0.22607355
000010 db 97 01 bf 15 b5 c9 3e d2 f7 a6 3e d4 66 e0 be
       -0.5062234 0.39395967 0.32610947 -0.43828452
000020 8d b0 8e be 96 56 97 3f 73 ee 00 3e fb 28 8c 3e
       -0.27869073 1.1823299 0.12590961 0.27375016
000030 a2 a2 f7 bf ce f1 ab be 89 10 87 3e 38 30 b5 3d
       -1.9346507 -0.3358292 0.26379803 0.088470876
000040 9a 93 12 3f 21 5f 21 be 22 bf 12 c0 ab 5f 05 bf
       0.5725647 -0.15758945 -2.2929158 -0.520991
000050 90 36 58 be 8c 6d ef 3e fd f4 fe bd eb 95 26 bf
       -0.21114564 0.46763265 -0.124490716 -0.65072507
000060 6b ed 19 3f c6 5f 9f 3d b8 27 20 3e a7 66 14 be
       0.60127896 0.07781939 0.15640152 -0.14492284
000070 1e 42 39 3d 00 64 77 bd c4 56 40 3e 4a 84 65 be
       0.04522907 -0.0603981 0.18783098 -0.22413746
000080 a9 a8 05 3e 12 f8 66 be 9d aa 83 be 00 86 26 3b
       0.1305262 -0.22555569 -0.25716105 0.002540946
000090 20 1c c6 3d 4e e2 26 bf b5 e5 1e 3f 46 6d 0f bc
       0.09673333 -0.65189064 0.62069255 -0.00875408
0000a0 08 db ef be a8 d8 b5 3e 01 a3 aa be 11 f7 c9 bd
       -0.46846795 0.35516858 -0.33327487 -0.09861577
0000b0 bd 89 d2 bc bb b7 2b 3e db 61 0b be 68 ce 57 bd
       -0.025700444 0.16769306 -0.13611548 -0.05268708
0000c0 d6 ba 91 be 86 55 c4 3d 7e a9 c2 be 14 fd 8e bd
       -0.28462857 0.09586625 -0.38019937 -0.069818646
0000d0 62 79 85 be 10 34 80 3d b6 cc 90 bf 59 a6 61 bf
       -0.2606917 0.0625993 -1.1312473 -0.8814445
0000e0 90 4e 7d 3e b0 19 1a be 3f ea a1 be 7f ba cc be
       0.24737 -0.15048862 -0.31624028 -0.39986035
0000f0 26 66 18 3f 8c b1 38 c0 a4 52 18 3f f6 f5 52 3d
       0.59530866 -2.8858366 0.595011 0.051504098
000100 de 00 70 be 6c 9b a0 bd 63 e7 95 be d9 f6 05 3e
       -0.23437831 -0.07842144 -0.29278097 0.13082446
000110 66 ab a5 3c c3 ea 91 3d 70 64 1c be e0 51 e0 bd
       0.02022333 0.07124855 -0.15272689 -0.109531164
000120 0e f5 35 3f df 80 4f 3e 26 d3 9c bd 54 d4 2f 3f
       0.7107705 0.20264004 -0.07657461 0.6868336
000130 95 fe 65 3e 0b 2f 62 be 5f dc 39 bf eb c1 07 be
       0.22460397 -0.22088258 -0.72601885 -0.13257568
000140 f5 93 32 be 62 90 61 3e 38 1a 68 bd 4c 56 9d be
       -0.17439254 0.22027734 -0.05666563 -0.30729902
000150 94 a6 a6 be 74 f2 a6 be 0c ad b5 bd 78 1a 20 be
       -0.32548964 -0.32606852 -0.08870897 -0.15635097
000160 70 da 3c be 08 1c 9d be 39 2d 7c be ca 38 c5 bc
       -0.18442702 -0.3068545 -0.24626626 -0.02407493
000170 10 65 13 be f2 7b 36 bd 9d a6 a9 3c 4a d8 95 3d
       -0.14394021 -0.044551797 0.02070933 0.073166445
000180 b5 d9 60 be fd 81 53 3d da 45 18 3b e2 1e 24 3f
       -0.21958049 0.05163764 0.0023234994 0.64109623
000190 c5 52 00 be 57 b1 21 3f 5d a3 00 bf 69 bb 3b 3d
       -0.12531574 0.63161224 -0.5024927 0.045833025
0001a0 67 ba 27 bd 6f 03 4a bf 51 95 9a 3e c6 08 7f bf
       -0.04094925 -0.7891149 0.30192044 -0.9962276
0001b0 bf 3d f9 bf 20 d6 0f bf ed ce 0d bf 76 07 36 3e
       -1.9471968 -0.56186104 -0.5539387 0.17776284
0001c0 24 c8 25 3e 0a b1 b8 bf a8 ef a3 3e 01 c7 82 3e
       0.16189629 -1.4429028 0.3201878 0.25542453
0001d0 b5 85 8c bd 8a 65 68 bf 1d 07 41 bd 60 b2 e3 be
       -0.0686144 -0.90779936 -0.047125924 -0.44472027
0001e0 63 e9 18 3f a3 a3 66 3a 80 03 98 bf 56 ea 1d bf
       0.5973112 0.00087981875 -1.1876068 -0.61685693
0001f0 75 fb 68 3e eb c0 f4 3e aa 5d ff bf ea 23 3a 3e
       0.22752173 0.47803435 -1.9950459 0.18177763
000200 7f a3 96 be fb de a4 be 50 f9 e0 bd eb 1b a2 3f
       -0.29421613 -0.3220137 -0.109850526 1.266477
000210 86 1a 6e 3e 73 8c d0 3e 28 2c 4a 3f 49 2c 35 c0
       0.23252305 0.40732154 0.7897363 -2.830828
000220 61 88 95 3e f1 a9 95 3e af a1 6b 3e 5e 6e b6 bd
       0.2920561 0.29231218 0.23010896 -0.089077696
000230 02 a5 6a bf f2 ef 04 3f e5 d1 a9 bc ff 25 17 be
       -0.9165803 0.5192863 -0.020729968 -0.14760588
000240 90 c7 6d c0 91 f4 ea 3e 77 af 42 be da b8 52 c0
       -3.7153053 0.45889714 -0.19012247 -3.2925324
000250 20 f6 ac bd 57 c2 39 c0 50 82 27 bf e2 52 9c 3e
       -0.08445382 -2.9024866 -0.65433216 0.30531985
000260 d7 76 67 3e 82 ad ec be 19 11 a9 be 87 5b 5d be
       0.22603928 -0.46226126 -0.33020857 -0.21616946
000270 d7 91 18 3e 89 0e f2 be 13 8a 63 bf 3b be de be
       0.14899383 -0.47276714 -0.8888256 -0.4350451
000280 5c 25 0b be 11 1d 07 bf bc 70 ff bd 32 42 03 3e
       -0.1358847 -0.52778727 -0.12472674 0.1281822
000290 c4 f4 d7 be 11 9c a9 bf 5e 9c 95 3e fc df 6e 3d
       -0.4217893 -1.3250753 0.2922086 0.058319077
0002a0 c8 98 06 bf 1e df c3 3d 18 8d de 3d 51 28 79 be
       -0.52576876 0.095640406 0.10866755 -0.24331786
0002b0 0e fa 0d be 1b f5 92 be a2 a4 7f 3c 29 85 85 be
       -0.1386492 -0.28702626 0.015603216 -0.26078156
0002c0 de d2 1e bd 66 a8 68 be 5d f1 2e bb 4a 5d 27 be
       -0.038775317 -0.22720489 -0.0026694157 -0.1634418
0002d0 df 83 45 bf db b5 a8 3e 54 3b 1a 3e 74 5f 76 c0
       -0.77154344 0.32951245 0.15061694 -3.849576
0002e0 24 bb 50 be 94 c3 f4 3e d5 5e 2c 3f 92 15 b4 3d
       -0.20383888 0.47805464 0.673322 0.08793177
0002f0 45 86 b9 bd 0c 28 65 3f 16 e0 fe 3b 68 7e 9d ba
       -0.09058813 0.8951423 0.007778178 -0.0012015821
000300 80 f3 d8 3e b1 c2 90 be 95 80 33 3f d4 11 05 be
       0.42373276 -0.28273538 0.70118076 -0.12995082
000310 ed e5 65 bf bb 1e bf be ff 57 af bf 5d 08 23 bf
       -0.89803964 -0.37328133 -1.3698729 -0.63684636
000320 be 56 1b be 72 3f ac 3e d8 47 4a 3e be b1 27 bf
       -0.15169808 0.33642155 0.19753969 -0.6550559
000330 97 21 ad 3b 95 8e ad bf ed a8 4c bf 6b ff 77 3f
       0.0052835452 -1.3559138 -0.7994526 0.9687411
000340 fa c6 b2 3e 65 be 0b be de 7b a4 3e 6d e0 46 3d
       0.34917432 -0.13646848 0.32125753 0.048553873
000350 81 09 b0 3e 02 b7 20 be 75 61 11 bf 89 d7 f4 3e
       0.3438225 -0.15694812 -0.5678933 0.4782069
000360 b1 51 91 3f ab 5e 32 3d 8c a0 92 bd 40 4e d7 bf
       1.1353055 0.043547314 -0.07159528 -1.6820755
000370 9f 07 25 3f 83 de d3 3e 23 81 5e bc 17 da cd bf
       0.64464754 0.413807 -0.013580593 -1.6082181
000380 e2 86 e7 bf d3 70 a7 be c8 a0 03 be b3 7e 06 be
       -1.8088038 -0.32703266 -0.12854302 -0.1313427
000390 08 37 5d bd b6 94 53 be 9c 1b e5 bd ee 53 66 be
       -0.05400756 -0.20662197 -0.11186907 -0.22492954
0003a0 10 fa de bd 5e 07 23 3e c7 05 68 bf 2c 8f 23 3e
       -0.108875394 0.15920779 -0.90633816 0.15972584
0003b0 cb 29 a3 3e 14 63 1d 3e 9a af 33 bd fd 0a 71 bf
       0.31867823 0.15369827 -0.04386864 -0.9415739
0003c0 ee fc 07 3f fa 7b d3 3e 82 76 86 be 5d 57 aa 3d
       0.53120315 0.41305524 -0.2626229 0.083174445
0003d0 11 db 91 bd 56 7d 50 3e 06 f2 c8 bd 0a 2e b9 be
       -0.07121862 0.20360312 -0.09811787 -0.36167938
0003e0 72 fe 08 3e ce 41 97 be 70 fc 49 be a0 84 3e bd
       0.13378313 -0.29542392 -0.19725204 -0.0465132
0003f0 5a 57 0e 40 12 c3 f1 3e ae 09 a0 bf 93 46 bd be
       2.2240815 0.4721914 -1.2502954 -0.36967906

net.0.bias f4 [128]
000000 1c c9 a5 be b5 7a 88 be de e1 6d bd dc f5 8e be
       -0.32379997 -0.26656118 -0.05807673 -0.2792195
000010 cc 9b 2e bf 81 1d 75 be 5e 23 a2 be af 53 90 be
       -0.6820648 -0.23937036 -0.31667608 -0.28188846
000020 33 d7 6d be bc 8c 8e be 3b b8 77 be 66 a6 03 3d
       -0.23226623 -0.27841747 -0.24191372 0.03214111
000030 e1 07 cb 3d 27 90 ac bc 67 28 85 be 4c aa 60 be
       0.09913612 -0.021064831 -0.26007387 -0.21939963
000040 53 c1 3c be ae 54 bb 3c fc d7 9f 3e ca a8 b6 bc
       -0.18433122 0.022867527 0.3121947 -0.022297282
000050 07 5e 99 be a3 49 eb be c7 32 83 3e 64 21 a2 be
       -0.2995455 -0.45954618 0.25624678 -0.316661
000060 6e 80 fb 3e 64 5a 8f be 04 0d fc bd a4 a4 a1 be
       0.49121422 -0.2799865 -0.1230717 -0.31570923
000070 55 e6 2d 3e fc 69 7b bf fc 38 8c be aa b1 4c 3e
       0.16982396 -0.98208594 -0.27387226 0.19989648
000080 a3 ed c4 be eb 88 ff 3e 1c c9 c4 3e d1 d2 d8 bc
       -0.38462552 0.49909148 0.38434684 -0.026467713
000090 c3 44 e3 bb b5 fc 09 bf ee b6 9d be ab eb 85 be
       -0.0069356873 -0.53901225 -0.30803627 -0.26156363
0000a0 8d 5b a1 be 81 27 21 be c7 db 9b bc ff 9a b6 bd
       -0.3151516 -0.15737726 -0.019025696 -0.08916282
0000b0 e5 df 99 3e 56 f5 8b 3d f3 42 ef be d8 8a 28 be
       0.3005363 0.068339035 -0.46730766 -0.16459215
0000c0 61 32 43 bd 78 1d 73 3d 6c b9 37 be c3 ac 5f be
       -0.047655467 0.059354275 -0.17941827 -0.21843247
0000d0 51 c3 cb 3e 18 aa 29 bf e5 bd 8d bf de 43 9a 3d
       0.39797452 -0.6627517 -1.1073576 0.07532476
0000e0 f1 69 4a bd 47 e7 2b 3e 96 8e 02 bf 7b 74 63 bc
       -0.04941744 0.16787444 -0.5099882 -0.013882752
0000f0 51 3b 2c be 82 85 f5 3e e7 0d 31 be 93 ee bc 3e
       -0.16819502 0.4795342 -0.1729046 0.36900768
000100 94 c4 39 bc 32 31 9e 3d e4 da 9f be 54 c3 0b bf
       -0.011338372 0.07724227 -0.31221688 -0.5459492
000110 dd d2 9d be 90 52 23 3d 66 de 6f bd bd 9a 49 bd
       -0.30824938 0.03987366 -0.058561705 -0.049219836
000120 64 6a ef ba 06 de 97 be 91 9f c6 3e 9f fd 16 3f
       -0.001826596 -0.29661578 0.38793615 0.58980745
000130 da d8 81 be 34 2a cb 3e 51 d2 5c be 1e c5 d3 be
       -0.25360757 0.39680636 -0.21564604 -0.41361326
000140 05 aa f1 bd 7b 4f 47 be 3c c1 17 be 79 32 33 bf
       -0.11800007 -0.19463913 -0.14819807 -0.6999889
000150 9d 18 66 bb ae d2 04 be 4f 46 b6 be 80 e2 63 bf
       -0.0035109886 -0.12970993 -0.35600516 -0.89017487
000160 f0 ce bb bd 72 19 93 be 1a e9 84 be bc 57 8a 3e
       -0.091703296 -0.2873035 -0.25959092 0.2702006
000170 af bf b5 be 3c 1f 4e be 3a 43 00 bf 74 5e 91 be
       -0.35497805 -0.20129102 -0.5010258 -0.28392375
000180 da 33 db bd 95 55 97 be 41 f1 88 bf 18 d3 2e bf
       -0.10703249 -0.2955748 -1.0698625 -0.68290854
000190 13 d8 2e bf 18 eb 18 be 30 6c 9a be 72 1e 9a 3d
       -0.68298453 -0.14933431 -0.30160666 0.07525338
0001a0 14 e4 0d bf 9a 38 91 be 75 e0 ac be 52 63 d1 be
       -0.55426145 -0.28363496 -0.33764997 -0.40896088
0001b0 1e 02 22 be 28 d8 72 3e 86 60 fe be c9 3e 87 be
       -0.1582112 0.2371527 -0.49683017 -0.2641509
0001c0 e2 6b fa bc 52 6e 4b 3d d4 bb 10 bf b1 89 19 3c
       -0.03056902 0.049665757 -0.565366 0.009371207
0001d0 be 0e 2d 3e 2a 79 40 3e ca 3c 8c be 3c a5 c7 bd
       0.16900155 0.1879622 -0.27390128 -0.09748313
0001e0 7a 20 f6 be 62 89 2a bf 3f b1 99 be ee d1 7b be
       -0.48071653 -0.6661588 -0.3001804 -0.245918
0001f0 51 ac 2c be ac d0 ef 3e 35 5d bd 3d e6 2f 46 bf
       -0.16862608 0.46838892 0.092462935 -0.7741684

net.2.weight f4 [128]
000000 34 99 84 3e ec be 8e 3f b8 b5 be 3f 5a 50 1c 3f
       0.25898135 1.1152015 1.4899206 0.61060107
000010 04 4b 5a 3f 94 d4 29 3f d4 94 9a 3f 92 b4 26 3f
       0.85270715 0.66339993 1.2076669 0.6511928
000020 4e 29 06 3f 27 55 24 3f 59 e5 13 3f 15 0f fe 3e
       0.52406776 0.6419243 0.5777183 0.49620882
000030 09 0e 9c 3f e7 b1 54 3f b0 d4 15 3f 44 18 6d 3f
       1.2191783 0.8308396 0.5852766 0.9261515
000040 86 d1 bf 3f 5d c0 0a 3f ef f9 05 3f a5 15 1b 3f
       1.4985816 0.54199773 0.52334493 0.605799
000050 92 e6 57 3f 25 02 a2 3f ae 50 a6 3f 79 ef 3d 3f
       0.843362 1.2656904 1.2993371 0.7419353
000060 5f 86 c2 3f f7 68 1e 3f bd 43 e7 3e c2 4d 1f 3f
       1.5197257 0.61878914 0.45168868 0.62228024
000070 4e 57 a9 3f 94 15 84 3f fb ff 27 3f 0f 6a 94 3f
       1.3229768 1.0319085 0.6562497 1.1594867
000080 b3 53 93 3f aa e3 36 3f 17 6d d2 3f 66 67 bd 3f
       1.1509918 0.7144114 1.6439542 1.479718
000090 db fb a5 3f ab 38 5b 3f a3 0c 21 3f 78 e2 1f 3f
       1.2967485 0.85633343 0.6290991 0.6245494
0000a0 b3 07 20 3f e1 f8 db 3f 02 e0 8c 3f 48 f4 1d 3f
       0.6251175 1.7185327 1.1005862 0.6170087
0000b0 4b 78 85 3f e8 e1 9e 3f 18 40 23 3f 2c a0 23 3f
       1.0427336 1.2412691 0.63769674 0.6391628
0000c0 dd ca 0e 40 91 3c ad 3f 45 a4 86 3f 35 c5 1d 3f
       2.2311318 1.3534108 1.0518881 0.6162904
0000d0 b0 fc 86 3f 82 8a d5 3f cf de 8a 3f ca c2 12 3f
       1.0545864 1.6682894 1.0849246 0.57328475
0000e0 07 35 4d 3f 5b 3a a6 3e 05 ef 82 3f df fd 6c 3f
       0.8015904 0.32466397 1.0229193 0.92574877
0000f0 fb a3 e5 3e 6c 69 ec 3f c2 eb 07 3f 61 45 72 3f
       0.4485167 1.8469672 0.5309411 0.94637114
000100 dc 4b d6 3f e6 90 55 3f c9 58 a3 3f 45 c8 59 3f
       1.67419 0.8342422 1.276147 0.8507121
000110 42 1f b6 3f 7d 2c 4e 3f ef 8f 4c 3f 59 1d 94 3f
       1.4228289 0.80536634 0.79907125 1.1571456
000120 d4 5c 79 3f 97 8f 21 3f bd d7 a3 3f 65 04 bd 3f
       0.9740727 0.63109726 1.2800213 1.4766966
000130 91 a0 1d 3f 9e 2c 5c 3f 9b b8 01 3f 9d 0b 7b 3f
       0.6157313 0.8600558 0.5067231 0.98064595
000140 d1 e1 8b 3f 03 44 22 3f 15 b5 78 3f 4d a8 89 3f
       1.0928289 0.6338503 0.9715131 1.0754486
000150 97 d2 3a 3f 8f 0a 31 3f 58 6b 13 3f fb 7c a6 3f
       0.72977585 0.69156736 0.5758567 1.3006891
000160 66 fa 25 3f 5d 0a 82 3f ec 5d 20 3f dd ad a7 3f
       0.648352 1.0159413 0.62643313 1.3099934
000170 16 c2 27 3f 7b 1b a3 3f e9 1d 3e 3f b5 2b 21 3f
       0.65530527 1.2742761 0.7426439 0.62957317
000180 e2 10 80 3f 47 8b 3c 3f b5 b3 9e 3f 1b bf 9a 3f
       1.0005152 0.7365002 1.2398592 1.2089571
000190 69 b3 2e 3f b0 02 1b 3f 17 5c 22 3f 2c 2a 11 3f
       0.6824251 0.60550976 0.6342177 0.56704974
0001a0 7b 4a 60 3f 8e b3 a4 3f 3c e7 84 3f cf 51 39 3f
       0.8761365 1.2867296 1.0383067 0.72390455
0001b0 da 64 64 3f de 7e 50 3f 78 d9 a5 3f a2 8d 92 3f
       0.8921639 0.81443584 1.2956991 1.1449473
0001c0 d5 2e 1f 3f 60 6f 76 3f 55 61 9b 3f 3a 73 a8 3e
       0.62180835 0.96263695 1.2139078 0.3290041
0001d0 74 3a e1 3f 5a 7a 89 3f 2a 92 98 3f 03 b0 26 3f
       1.7595963 1.0740464 1.1919606 0.6511232
0001e0 68 2a af 3f c3 8b 54 3f c5 2c 1d 3f e7 38 9d 3f
       1.3684816 0.8302576 0.6139644 1.228299
0001f0 46 34 86 3f 01 dd ac 3f db c3 9b 3f cf 26 aa 3f
       1.0484703 1.3504945 1.2169145 1.3293093

net.2.bias f4 [128]
000000 1f f4 fd 3d 5c ce de 3e fd 68 22 3e 1a fd 84 3e
       0.12400078 0.43516815 0.15860362 0.2597435
000010 33 06 ba 3e 9e 3a 8e 3e 32 84 f6 3e 1c 90 8c 3e
       0.36332855 0.27779096 0.48147732 0.27453697
000020 8a c2 0e 3e a5 40 8a 3e 02 dc 7d 3e df 8c 55 3e
       0.13941398 0.27002445 0.24790958 0.2085452
000030 2e 77 bb 3d 43 5e 61 bc 54 da 31 3e 0f 9d e6 bd
       0.09153591 -0.013755384 0.17368442 -0.11260425
000040 81 f8 1c 3f 77 bc 6e 3e 17 7e af 3e a1 80 82 3e
       0.61316687 0.23314081 0.34275886 0.2548876
000050 65 10 ae 3e 35 9f de 3e b0 42 4f 3e 73 bc 93 3e
       0.33996883 0.4348084 0.20240283 0.28854713
000060 2f 7e 27 3f 5e 23 85 3e 2c 85 77 be 76 57 86 3e
       0.65426916 0.26003546 -0.24171895 0.26238602
000070 0e cf 36 be 3f 87 e1 3e c8 2a 8c 3e 40 2c d2 3e
       -0.17852423 0.44048497 0.2737639 0.41049385
000080 ad 17 08 3e 0e 49 c5 be cb 6c 8e 3e 5c ab d6 3e
       0.13290282 -0.385323 0.27817377 0.41927612
000090 f1 3f 06 be a7 a2 b9 3e 7c ab 88 3e d2 24 88 3e
       -0.13110329 0.36256906 0.26693332 0.26590592
0000a0 0f c7 86 3e 60 4c a0 3e 09 d2 40 be 32 99 84 3e
       0.26323745 0.3130827 -0.18830122 0.2589813
0000b0 33 ca d8 3e 81 bd 81 bc c9 4b 89 3e d7 e8 89 3e
       0.42341766 -0.015837433 0.26815632 0.26935455
0000c0 91 e3 27 be 37 5d 18 3f bc dc 05 3f 69 8d 85 3e
       -0.16395403 0.59517235 0.5228994 0.2608445
0000d0 fd 72 ae 3e 33 2e ba 3e e9 be d4 3e 9c 7c ce bd
       0.34072104 0.36363372 0.41551903 -0.10082361
0000e0 ed 0c c8 3e 8f 92 1e 3e 81 d5 e0 3e d0 f3 d7 3e
       0.39072362 0.15485595 0.4391289 0.42178202
0000f0 3f 7b 42 3e 3c 3c 27 be 6f d2 67 3e 5e 65 ee be
       0.18992327 -0.16331571 0.22638868 -0.46561712
000100 62 22 b5 3e b3 63 a9 3e e2 4a f9 3e c2 14 9b 3e
       0.35377795 0.33083877 0.48689944 0.30289274
000110 c1 6b c4 3e 36 73 ab 3e 7a fb d9 3e 9d dc e7 3e
       0.3836346 0.33486336 0.42574674 0.45285502
000120 3b d0 e4 3e cd 42 87 3e 7b cb 6d 3b 3a 90 d0 3e
       0.44690117 0.26418152 0.0036284614 0.40735036
000130 e6 ec 85 3e 56 af 24 3d 7a e2 47 3e 7d 6d c9 3e
       0.26157302 0.040206276 0.19519988 0.39341345
000140 a4 a5 e3 3e ba e3 88 3e 90 2e 8d be 34 98 df 3e
       0.4446231 0.26736242 -0.27574587 0.4367081
000150 c4 ca b1 3e 72 f5 8f 3e f2 5a 8a 3e a7 f9 14 3f
       0.3472501 0.28116947 0.2702251 0.5819344
000160 1b fc 9a 3e a8 c9 0f be 75 50 88 3e 80 70 5d 3e
       0.30270466 -0.1404177 0.26623884 0.21624947
000170 61 56 8d 3e 9f 7a d0 bd 6c 5a 9f 3e 4b 74 87 3e
       0.27604964 -0.10179638 0.31123674 0.26455912
000180 53 01 b5 3e 5b af b2 3e 26 22 e2 3e 05 41 10 3f
       0.35352573 0.3489941 0.44166678 0.5634921
000190 75 a3 95 3e 1d 7b 82 3e 95 31 88 3e b4 f3 85 3e
       0.2922627 0.25484553 0.26600328 0.26162493
0001a0 29 b0 bd 3e 09 0e a1 bd 26 d3 53 bd 7d 6e a1 3e
       0.37048462 -0.07864005 -0.05171504 0.31529608
0001b0 d4 09 fe 3e 45 bb 31 bd 94 3a aa 3e a5 12 fe bd
       0.49616873 -0.043391485 0.33247817 -0.124059
0001c0 f8 f8 86 3e eb cc b7 3e dc dc 13 3f be 73 09 3e
       0.26361823 0.35898528 0.5775888 0.13423058
0001d0 26 f7 8b be 48 e2 b1 bd 96 fc 00 3f 7f 18 aa 3e
       -0.27336997 -0.08685738 0.50385416 0.33221814
0001e0 f3 56 eb 3e ca 52 b7 3e a4 c7 6b 3e 95 e6 ff be
       0.45964774 0.3580535 0.23025376 -0.49980608
0001f0 95 16 f9 3e 8a 04 a3 be aa a6 1d 3f d7 9c 09 3f
       0.4865004 -0.318394 0.61582434 0.53754944

net.3.weight f4 [128, 128]
000000 13 af b5 bb 6a 5f cd bd 4b 52 bb be 7e ed 77 be
       -0.005544552 -0.100279644 -0.36586222 -0.2421169
000010 15 3a 95 be 8e 44 5a be 86 25 30 be 9f 28 5c be
       -0.29145876 -0.21315214 -0.17201814 -0.2149987
000020 fc 88 4c 3f fb fd 60 be f4 d5 44 be a7 90 76 3e
       0.7989652 -0.21971886 -0.19222242 0.24078618
000030 76 08 a5 bd 83 0a 81 3e ff bc 3a bf 2a b5 1b bf
       -0.080582544 0.25203332 -0.72944635 -0.6082331
000040 4e 12 a2 3e fa a5 50 be 11 47 75 be 5c 31 37 be
       0.3165459 -0.20375815 -0.23952891 -0.17889923
000050 6e 75 b6 be f5 4c 3a 3f 2f 6b 78 3e 42 6f 71 3e
       -0.35636467 0.7277368 0.24259637 0.23577598
000060 33 79 1f c0 d3 b6 23 be b3 05 41 bf 6c 38 fe bd
       -2.4917724 -0.1598771 -0.7539932 -0.12413105
000070 19 e7 01 be 3f 87 30 bf 5b e6 d1 bd 7f 47 67 bd
       -0.12685813 -0.6895637 -0.10249015 -0.05646467
000080 18 e3 81 3e f4 cd 0d bf 5e 6e a6 3d 71 c2 9a 3c
       0.2536857 -0.55392385 0.081265196 0.018891545
000090 50 64 e0 be 99 9d 20 3d 34 6e 19 be 5b 25 17 be
       -0.43826532 0.039212797 -0.14983445 -0.14760344
0000a0 b9 7f 53 be 05 a6 ad 3e 06 fe 22 bf e6 db 29 be
       -0.20654191 0.33915725 -0.6366886 -0.16587791
0000b0 27 24 cb 3e 34 4d c9 3e e5 f2 60 be 4f 03 62 be
       0.3967602 0.39316714 -0.21967657 -0.22071575
0000c0 27 e8 e4 bc 44 9a 5b bf a6 6f 0e be aa 76 28 be
       -0.02794273 -0.85782266 -0.13909778 -0.16451517
0000d0 d3 91 f3 3d 4f f1 11 3f 91 d7 47 bf c7 d1 69 be
       0.11893048 0.5700883 -0.78063303 -0.2283393
0000e0 32 e1 35 be 50 40 41 be 85 81 0b bf 35 7e 7d be
       -0.17761686 -0.1887219 -0.54494506 -0.24755175
0000f0 9c 2d 25 bf cc bb a3 bf e8 d4 05 3f df d8 bd be
       -0.6452272 -1.2791686 0.52277994 -0.37079522
000100 3c e7 b7 3e 41 8c 4e be cd ec 85 bd df da b5 3e
       0.35918605 -0.2017069 -0.06539307 0.35518548
000110 e6 27 e2 be 5e bb 0e bf 1d 8a e5 be ed 41 8e bd
       -0.44171065 -0.5575465 -0.44831935 -0.06946168
000120 71 a4 4a 3e ce c7 00 be 55 98 8e be 28 76 bc 3d
       0.19789292 -0.1257622 -0.27850595 0.09202224
000130 96 ce 47 be de b7 16 bf 3a 1d fa bc 1f 4e c6 bd
       -0.195124 -0.5887431 -0.030531514 -0.09682869
000140 c8 8e 08 3d af 31 11 be 7f a1 76 3e aa 54 d2 3d
       0.03333929 -0.14179109 0.24085043 0.10270055
000150 65 26 ba 3e fc 2f e0 3e 47 5b 42 bf fc e6 72 be
       0.36357418 0.4378661 -0.7592053 -0.23720926
000160 c0 91 c9 be 93 b0 12 be 03 db 23 be ce d1 b7 be
       -0.3936901 -0.1432517 -0.16001515 -0.35902256
000170 69 5b 28 be 58 d5 10 3d 34 ae c0 bd 7c 60 c0 bc
       -0.1644112 0.03535971 -0.094082266 -0.023483507
000180 b2 53 33 3f 8e 5a 0d bf 38 77 34 3e b8 98 c7 bd
       0.70049584 -0.552163 0.17623603 -0.09745926
000190 b9 54 66 3d 1a 67 54 be 6d b8 27 be b6 af 47 3e
       0.05623314 -0.20742455 -0.16378947 0.19500622
0001a0 7b 6d 4f bd 6b a5 e0 be d5 c5 1d 3f d7 63 3e 3e
       -0.050641518 -0.43876204 0.6162999 0.18592773
0001b0 6f f5 a9 bd ed 03 8a be 9f 16 18 3f 6c 07 c6 3c
       -0.08298766 -0.2695612 0.5940952 0.02417346
0001c0 2d c1 15 be ab c9 fa be 53 34 47 bd 95 d6 07 be
       -0.14624472 -0.48981985 -0.048633885 -0.1326545
0001d0 6a 32 83 bd c5 43 31 be 92 2e 96 bd 53 4f d9 be
       -0.064061 -0.17311008 -0.07333101 -0.42443332
0001e0 2d 9d 67 3e 34 be 0b 3f 62 76 d4 be 94 da 5c 3e
       0.22618552 0.545871 -0.4149657 0.21567756
0001f0 95 8b 3b 3f f8 fe 27 bf 11 42 0f be b6 14 42 bf
       0.7325986 -0.65623426 -0.13990046 -0.7581285
000200 72 bc b3 3d e7 cb 41 bd d9 a0 3c bd 7e 97 e5 3d
       0.087761775 -0.047313597 -0.046051834 0.112105355
000210 8a 3b 57 3e cc ea d9 3d 13 56 07 be f2 96 26 3e
       0.21018806 0.10640487 -0.13216428 0.16268519
000220 49 07 36 3e 19 d3 01 3e 50 16 22 3c fc 2f c4 bd
       0.17776217 0.12678184 0.009893015 -0.09579465
000230 40 fa dc bd b5 00 07 be 09 d7 10 3d 3f 0a 01 be
       -0.10789919 -0.13183863 0.035361324 -0.12601565
000240 1b eb a7 bd 1d c1 19 be 12 6c c5 be 2c 98 37 3e
       -0.0819914 -0.15015073 -0.38559014 0.17929143
000250 0b e3 52 be 91 4e d5 3e 13 57 5c bd 59 ff 83 3e
       -0.20594423 0.41661504 -0.053793978 0.25780752
000260 bd ad fa bb c7 c1 8e 3e 26 4b 52 be 0b 5c b3 3d
       -0.0076501057 0.27882215 -0.2053648 0.0875779
000270 35 e5 17 be ef fe a3 bc 80 5d 2c 3e 94 0e b7 bc
       -0.1483353 -0.020019023 0.16832542 -0.022345819
000280 a4 70 e9 3d 5d 35 77 be 80 2a 0b 3e 4f 63 ff 3d
       0.113984376 -0.2414145 0.13590431 0.124701135
000290 8e 52 82 3e 3b be 8d 3e 15 55 d8 3d 5e 13 2b 3e
       0.2545361 0.27684197 0.10563103 0.16706607
0002a0 74 92 d3 3d 9a d3 11 3e 58 cd d5 3b 23 ff 1d 3e
       0.10330668 0.14240876 0.006524723 0.15429358
0002b0 f4 34 97 3d 8c 42 24 bc e1 43 57 3d 9a 22 7e 3e
       0.07383147 -0.010025632 0.05255497 0.24817887
0002c0 34 11 8a 3e 11 c9 bf 3c f8 cb f4 bc e1 01 3a 3e
       0.2696625 0.023411306 -0.029882416 0.18164779
0002d0 7e 48 c8 bc 3c 5a ac 3e a2 08 86 3e 93 54 71 3e
       -0.02444863 0.33662593 0.2617846 0.23567419
0002e0 4f d8 b1 bd c1 d1 1d be c7 86 4e 3e df e1 8c be
       -0.08683836 -0.15412046 0.20168601 -0.27516076
0002f0 01 86 ce 3d fd 02 b4 be c9 94 dd 3d 23 8b 33 be
       0.10084153 -0.3515853 0.10819394 -0.17533545
000300 3e b6 a5 bd bc cb 0b 3e 3a f2 0f 3e fb 5f ba bc
       -0.080914006 0.13651937 0.14057246 -0.022750845
000310 f1 4d 39 3e 6f 07 ad bd 5f b3 f4 bc a5 30 72 3e
       0.18096139 -0.084486835 -0.029870687 0.23651369
000320 2f e0 da 3c ff b2 83 3e 21 c0 8f be fe dc 83 be
       0.026718227 0.257225 -0.2807627 -0.2575454
000330 74 25 bd 3d 03 11 89 be 03 4a b7 bd 59 80 0a 3e
       0.09235659 -0.2677079 -0.089496635 0.13525523
000340 01 87 96 3e 6a 48 07 3e d5 1b 1b be b2 b5 a9 3e
       0.29399875 0.13211218 -0.15147336 0.33146435
000350 38 5f 95 3e 6f 31 f9 3a 43 d2 07 bd fd e1 54 3e
       0.2917421 0.0019011925 -0.033159506 0.20789333
000360 08 a2 5e be 72 dd ab be 98 91 30 3d f2 8f 12 be
       -0.21741498 -0.33567387 0.0431076 -0.14312723
000370 72 f2 47 3e 75 83 33 bf ee e2 64 3e 94 4b 9d 3e
       0.1952608 -0.7012246 0.22352192 0.30721724
000380 96 83 b2 be 29 63 a2 3e d8 58 e5 3e a5 30 1a 3d
       -0.34866017 0.31716278 0.44794345 0.037644047
000390 26 5d 3a 3e 76 40 8e 3e 62 c8 8c 3e 6f e3 29 3e
       0.18199596 0.27783555 0.2749663 0.16590665
0003a0 77 63 1f 3d 3a 8b 83 be c9 1a 86 be 94 87 4d 3d
       0.038913216 -0.2569216 -0.2619231 0.050178126
0003b0 9f 9a 3d 3e 3a a2 94 be fe c8 d4 3e 3b 2d 03 bc
       0.18516015 -0.2903002 0.41559595 -0.008006389
0003c0 4c da 19 3e ed 03 8f 3d 80 7e 93 3d a4 a6 4c 3c
       0.1502468 0.06983171 0.07201862 0.012490902
0003d0 97 38 01 be a9 a3 ef 3c 35 90 9a 3e 98 d4 6e be
       -0.12619244 0.029252844 0.30188146 -0.23323286
0003e0 22 aa 48 3e 1c ba 82 3e e4 1c 1b be 62 fa 7f be
       0.1959615 0.25532615 -0.1514774 -0.24997857
0003f0 d5 1b bc be f7 f9 0f bf f7 04 c1 be 1e 71 89 3e
       -0.36739984 -0.5624079 -0.376991 0.26844114

net.3.bias f4 [128]
000000 d6 fb 74 be a9 fa f4 be 44 3f b8 be ec d2 e5 be
       -0.23924193 -0.4784749 -0.35985768 -0.44887483
000010 b0 b1 ca bd 47 40 d7 bd 47 6a a0 be 32 d8 88 be
       -0.098971725 -0.10510307 -0.31331083 -0.26727444
000020 39 af 20 bf 34 f5 76 be 8e 98 31 bf 97 bd a5 be
       -0.6276737 -0.24116975 -0.69373405 -0.32371208
000030 2e 90 a2 be 3f 37 37 be 6a dd f4 be 13 87 ec bd
       -0.31750625 -0.17892168 -0.47825176 -0.11549201
000040 3a c7 bb be 85 fb 44 bf f6 33 00 bf a7 8f bc be
       -0.36675435 -0.7694629 -0.50079286 -0.36828348
000050 d7 22 ac bd d0 18 0d bd 18 ba a9 be b2 3f 05 bf
       -0.08405083 -0.03444749 -0.3314979 -0.52050316
000060 dc 99 2c bf 5a 25 c2 bd 8e ae 27 be 41 45 82 be
       -0.6742227 -0.094797805 -0.16375181 -0.25443462
000070 fe 2f 95 bd a9 19 18 bf 20 dd 20 be 83 a0 14 be
       -0.072845444 -0.59414154 -0.15709352 -0.14514355
000080 b2 2d 66 be 02 e2 33 be ec b2 53 be 49 37 95 be
       -0.22478369 -0.17566684 -0.20673722 -0.29143742
000090 60 43 0f bf bf 29 99 be 47 13 0b be 4b a4 de be
       -0.5596218 -0.29914662 -0.13581572 -0.4348472
0000a0 31 f2 b0 be 16 30 4a be 8c a3 90 be ea 9f ec bd
       -0.34559777 -0.19744906 -0.28249776 -0.11553939
0000b0 9a 7e c0 be 01 b9 0d bf f6 21 9c be 8b ff a3 be
       -0.3759659 -0.5536042 -0.3049466 -0.320309
0000c0 ea 37 99 be 3a 75 44 bf cd 78 cf be 1c e9 50 bf
       -0.29925472 -0.76741374 -0.4052185 -0.81605697
0000d0 44 a5 bd be 03 fc 59 be fb ca 46 be 23 e1 09 bf
       -0.3704015 -0.21287541 -0.19413368 -0.53859156
0000e0 b5 27 bb be 70 7d 63 be 21 2b 88 bc de bf 80 be
       -0.36553732 -0.2221582 -0.016622128 -0.25146383
0000f0 f6 81 be be a3 22 da be 3b 46 02 bf 61 06 f8 be
       -0.37208527 -0.4260455 -0.50888413 -0.48442367
000100 ef b3 bb be 61 57 3e be 94 92 b5 be 9e 64 1d be
       -0.36660716 -0.1858802 -0.35463393 -0.15370414
000110 78 86 41 be 51 7b a8 be af 08 23 bd 8f 1a 03 be
       -0.18898952 -0.32906583 -0.039803203 -0.128031
000120 51 75 12 be 70 34 20 be a2 9f be be ad e0 16 bf
       -0.14302565 -0.15645003 -0.37231165 -0.5893658
000130 f6 0e 1b bf c5 63 19 be b3 6b 15 bf 2d 98 88 be
       -0.60569704 -0.14979465 -0.5836746 -0.266786
000140 13 22 be be 64 31 cf be e7 f0 8a be e2 e2 51 be
       -0.37135372 -0.4046737 -0.2713692 -0.20496705
000150 9a f7 e5 be 02 6f c1 be 1f 86 13 be d7 9a a1 be
       -0.44915468 -0.37780005 -0.14406632 -0.31563446
000160 a8 a1 c0 bd e4 da cb bd 0c fa 5c be f8 15 f6 be
       -0.094058335 -0.099538594 -0.2157976 -0.48063636
000170 b3 c1 9a be 18 a5 e6 be c3 61 cf be 61 2f 58 be
       -0.30225906 -0.45047832 -0.40504274 -0.21111824
000180 73 83 af be cb fe 9f be 3d 9a ac be 39 04 fe be
       -0.34279975 -0.3124908 -0.33711424 -0.49612597
000190 d8 7c b3 be c6 1a 21 be e2 14 b6 be 06 26 90 be
       -0.35056186 -0.1573287 -0.35562807 -0.2815401
0001a0 2e a0 23 bf 35 1c 7e be 22 91 50 be d6 0c 98 be
       -0.6391629 -0.24815448 -0.20367864 -0.29697293
0001b0 e8 d4 a6 be 13 8e 9e be 67 67 ca be 37 36 10 bf
       -0.3258431 -0.3096777 -0.39532015 -0.56332725
0001c0 78 cf 40 be 8a 7b 92 be ef ef 62 be 76 ff 12 bf
       -0.18829143 -0.28609878 -0.2216184 -0.5742105
0001d0 d3 8d 54 be ca 74 32 bf 5a 4e 1f be 37 04 9f be
       -0.20757227 -0.69709456 -0.15557232 -0.31057903
0001e0 96 51 b0 be fd b5 b6 be 23 2e a4 be a0 81 9e be
       -0.34437245 -0.3568572 -0.3206645 -0.3095827
0001f0 c3 d3 9d be a7 f8 bb be 96 31 2f bf da 9a a8 be
       -0.30825624 -0.36713144 -0.6843504 -0.32930642

net.5.weight f4 [128]
000000 21 3d 8f 3f f6 27 e2 3e 48 9b a8 3f ed 25 5e 3e
       1.119053 0.44171113 1.3172388 0.21694155
000010 e6 7c 60 3e a4 d5 0e 3f c0 a4 8e 3f 52 69 22 3f
       0.21922645 0.5579474 1.1144028 0.63441956
000020 61 31 0d 3f 4e ca 94 3f 33 58 0e 3f 57 05 e9 3e
       0.5515347 1.1624238 0.5560333 0.45511886
000030 43 fc fd 3e 48 94 c5 3f 36 c8 34 3f a7 0d 67 3f
       0.49606523 1.5435877 0.70618 0.90255207
000040 db 75 12 3f f8 53 01 3f fa aa e3 3f 70 e7 c3 3e
       0.57211083 0.5051875 1.7786553 0.3826251
000050 f3 02 45 3f 56 2b 49 3f ed 2f 1e 3e ac eb 7b 3f
       0.76957625 0.7858175 0.1544797 0.9840648
000060 c9 79 36 3f dd f7 39 3f 48 15 f7 3e 0e 8c 92 3f
       0.7127958 0.72643834 0.48258424 1.1448991
000070 24 f4 64 3f 13 04 df 3e 61 c5 7b 3f 16 fd 88 3e
       0.8943503 0.43557796 0.9834805 0.2675559
000080 91 01 1a 3f e2 65 f4 3d c7 e8 00 3f 6f 72 6c 3f
       0.6015864 0.11933495 0.5035519 0.9236211
000090 a9 f1 47 3e 30 b4 a7 3f 3e 09 72 3f fe 8a 21 3f
       0.1952578 1.3101864 0.9454535 0.6310271
0000a0 bc 7a 5d 3f 03 94 7a 3f 17 d5 e8 3f 09 1d 13 3f
       0.865154 0.978821 1.819003 0.5746618
0000b0 64 5f fa 3e d4 83 b5 3f 52 f4 0b 3f 9e e8 59 3f
       0.48900902 1.4180856 0.5466968 0.8512057
0000c0 a8 d5 42 3f 41 13 74 3f bf 0c 6f 3f e3 77 6b 3f
       0.76107264 0.9534188 0.93378824 0.9197981
0000d0 1d 5c 1d 3f 44 b9 9e 3f 14 0b 58 3f 77 e8 eb 3e
       0.6146868 1.2400289 0.84391904 0.46075794
0000e0 f9 9e 48 3f 9f 2b 82 3f 5e 21 53 3f 2e 07 d1 3f
       0.78367573 1.0169562 0.8247279 1.6330316
0000f0 0a 9a 80 3f 17 ab 60 3f c1 ed 7e 3f f3 5d 5e 3f
       1.0047009 0.8776106 0.99581534 0.86862105
000100 f4 54 80 3f cb 48 bd 3f 63 58 5f 3f e1 34 98 3f
       1.0025926 1.478784 0.8724424 1.1891137
000110 e2 34 60 3f 48 63 b4 3f 5c 88 99 3f 89 9a 39 3f
       0.8758069 1.4092798 1.1994739 0.72501427
000120 17 37 82 3f dc 6e 4f 3f 49 c5 b0 3f 6d 6f 53 3f
       1.0173062 0.81028533 1.3810207 0.825919
000130 75 54 2a 3f 6d 5e 14 3f 3c 69 95 3f 04 a1 1f 3f
       0.6653512 0.5795658 1.167274 0.62355065
000140 79 c0 64 3f 7b 4e 88 3f e4 e6 03 3f f3 04 ca 3f
       0.8935619 1.064895 0.51524186 1.578276
000150 c5 c3 b8 3f e0 19 40 3e ca 3e ff 3f d3 0c 6d 3f
       1.4434744 0.1875987 1.9941037 0.92597693
000160 3f ce 26 3f ff c8 4c 3f 43 5c 73 3f d0 fc c8 3f
       0.65158457 0.79994196 0.95062655 1.5702152
000170 30 18 1c 3f 11 77 45 3e 59 54 e6 3e 29 05 00 40
       0.6097441 0.19283701 0.44986227 2.000315
000180 0f 28 98 3f 8b 31 0c 3f d2 ca 31 3f 91 4b c7 3e
       1.1887225 0.54763097 0.69450104 0.3892484
000190 02 2c 9d 3e d2 b0 91 3e 1e dd 8d 3f 95 24 39 3f
       0.30697638 0.28455216 1.1083105 0.72321445
0001a0 3a c4 99 3e 5d 2d d3 3f 02 c0 22 3f a2 e7 0f 3c
       0.3003252 1.6498219 0.6357423 0.008783253
0001b0 a4 e0 ef 3e c3 c2 67 3f 81 ab 86 3f 8c 24 2f 3f
       0.46851075 0.9053156 1.0521089 0.6841514
0001c0 e4 be ac 3f 3f 16 fa 3e 7e 41 c9 3e d4 1e 1a 3f
       1.3495755 0.48845097 0.3930778 0.6020329
0001d0 38 a6 f0 3d 00 61 96 3f cd e9 46 3f c7 75 60 3f
       0.11750454 1.1748352 0.777005 0.87679714
0001e0 60 db 60 3f 94 ae 97 3f 1f af 54 3f 50 6a 46 3f
       0.8783474 1.1850152 0.83079714 0.7750597
0001f0 dc 94 2f 3f 9e 93 74 3f 7b 02 8d 3f 98 aa 7b 3f
       0.68586516 0.95537746 1.1016382 0.9830718

net.5.bias f4 [128]
000000 3b 74 99 3e 41 bb f8 3d 4d da 0e 3f 02 57 f7 3e
       0.2997149 0.12145091 0.5580185 0.4830857
000010 67 44 a8 bd c1 ef 1f 3e 92 f0 cb 3d d7 dc 30 3e
       -0.08216172 0.15618803 0.099579945 0.17271744
000020 73 aa 1f 3e 85 0a f0 be 18 fd 1d 3e 5b 03 69 be
       0.15592365 -0.46883026 0.15428579 -0.22755186
000030 92 a1 6e 3d aa c8 50 3d 2a f7 47 3e 17 dd 9f 3e
       0.058259554 0.05097262 0.1952788 0.31223366
000040 f7 5a 0b 3e 08 20 19 3e 71 16 29 3f 28 94 df 3d
       0.13608919 0.14953625 0.6604987 0.109169304
000050 34 ac c4 bd 5c d3 9b 3d b8 df 8c 3d b2 1f 9e 3e
       -0.09603158 0.07608673 0.068786085 0.30883557
000060 6e 56 42 3e 49 e7 92 3e fc df 13 3e 67 1c a6 3e
       0.18978283 0.28692082 0.14440912 0.32443544
000070 ce dd 56 3e 57 bc ef 3d 33 a4 c3 3e 98 9c b2 be
       0.2098305 0.11705845 0.38211212 -0.34885097
000080 fa 9d dd bd cc 53 c8 3d 3c 93 a9 bd 63 ff f1 3e
       -0.10821147 0.09781608 -0.08280036 0.47265157
000090 c6 a5 2a 3d 3e 16 dc 3e c1 dd 4f be 8c f6 36 3e
       0.041662 0.4298572 -0.20299436 0.17867488
0000a0 33 fe cb 3d f4 1a 9a 3e 36 69 9d bc f4 cb 45 3e
       0.09960594 0.3009869 -0.019215208 0.19316083
0000b0 ba db dc 3d e7 09 fb 3e f3 a9 15 3e 5d 11 95 3e
       0.10784097 0.49030992 0.14615612 0.2911481
0000c0 ed 42 5c 3e 50 35 89 3e d8 72 6e 3e b8 4a 88 3e
       0.21509905 0.26798487 0.23285997 0.26619506
0000d0 1c 6c 7d 3e ea a5 e2 3e c7 30 c3 3e 20 07 f4 3d
       0.24748272 0.44267207 0.38123152 0.119154215
0000e0 cd d5 40 3e ac 11 42 3e 1c f4 93 3d 50 92 ef 3e
       0.18831559 0.18952054 0.072242945 0.46791315
0000f0 c5 63 2c be f4 2f e7 3e d0 77 8e 3e 09 cd 8d 3e
       -0.16834934 0.45153773 0.27825785 0.27695492
000100 b6 62 d3 3e 29 5b a7 3e ec 88 6c 3e 5e 3a 93 3e
       0.41286248 0.32686737 0.23099107 0.28755468
000110 d4 fb 29 3e c0 aa 77 3e 51 11 68 3e c9 ee 91 3e
       0.16599971 0.2418623 0.22662856 0.2850249
000120 8f 88 c6 3e 15 a9 5f bd d6 40 bd 3e c6 ae 5f 3e
       0.3877606 -0.05460461 0.36963528 0.21844015
000130 6f 03 5b 3e 46 77 39 3e 14 b9 a0 3e 91 1a 72 be
       0.21388029 0.18111905 0.31391203 -0.23642947
000140 2a af 85 3e 80 3f be 3e 67 69 ed bd 72 89 d8 3e
       0.26110202 0.37157822 -0.115923695 0.42292362
000150 ee cb bc 3e ea 07 da 3c 49 f7 d6 3e 7e b8 89 3d
       0.36874336 0.026615102 0.4198554 0.06724642
000160 e7 56 22 be a7 8f c4 3e e7 30 7d 3e 52 b3 f7 3e
       -0.15853463 0.38390848 0.24725686 0.48378998
000170 e4 41 20 3e f3 97 20 3d 13 29 ad be 38 05 0e 3f
       0.15650135 0.03920741 -0.338204 0.55476713
000180 7d 92 af 3e 56 87 19 3e 68 24 23 3e ec 9f dc 3d
       0.3429145 0.14993033 0.15931857 0.1077269
000190 35 8d 8a 3d e7 72 54 be 73 44 df 3e b5 fa 4f 3e
       0.06765214 -0.20746957 0.4360691 0.20310481
0001a0 c2 28 9f 3d 87 85 b2 3e f7 9b 07 3e d2 47 5a bb
       0.07771446 0.34867498 0.1324309 -0.0033306968
0001b0 b9 f2 04 3e 22 69 8c 3e 16 78 9b 3e 6c 25 dc 3d
       0.12983216 0.2742396 0.30365056 0.10749325
0001c0 7e 73 de 3e 1f 31 f9 3d a1 ed 87 be 17 e3 f2 3d
       0.4344749 0.12167572 -0.26548484 0.1185972
0001d0 89 89 b1 bc 96 bd a3 3e 14 d1 ee 3d 6b c6 e3 bd
       -0.021672027 0.3198058 0.11660972 -0.111218296
0001e0 ab 94 77 3d d2 5f a8 3e 0e c6 90 3e db af 5f 3e
       0.060444515 0.32885605 0.28276104 0.21844427
0001f0 2f 60 11 3e 62 26 1d 3e 8f ca a7 3e 16 46 8d 3e
       0.14196847 0.15346673 0.32771727 0.27592534

net.6.weight f4 [64, 128]
000000 58 0d b8 3c a2 9d 8c be b8 0e 18 bf e1 8f 69 bd
       0.0224673 -0.27464014 -0.5939746 -0.05702198
000010 29 f2 af bc e6 96 27 3e cd e3 2f 3e ff 74 c1 bd
       -0.021477776 0.16366157 0.17176743 -0.09446143
000020 07 c6 31 be 2c e3 af be 73 74 87 be e4 39 4b 3e
       -0.17360698 -0.34353006 -0.2645603 0.19846302
000030 78 1c 62 be ed ac df 3d 20 32 2e be fc 57 a5 be
       -0.22081172 0.10921655 -0.17011309 -0.3229369
000040 e9 a6 0f bf c5 27 5f be ec c6 7a bf fe 75 c6 bd
       -0.5611406 -0.21792515 -0.9795978 -0.09690474
000050 28 b1 3b 3c 3d fd bb 3e 2b 59 9b bd b2 a0 9e be
       0.011455812 0.36716643 -0.07585367 -0.30981976
000060 7d 9b 73 be b9 f7 12 3e 63 fc e2 3e f9 55 56 3e
       -0.23789783 0.14352311 0.4433318 0.20931233
000070 96 b5 8a bf 8f 46 2e be 23 6d a1 bf b5 57 47 3e
       -1.0836666 -0.17019103 -1.2611431 0.19467051
000080 d8 e9 d3 be 23 27 34 bf 05 25 1f 3f 41 db 6e bf
       -0.41389346 -0.7037222 0.6216586 -0.93303305
000090 a0 8c 1f bd a5 a9 ca 3d fd ef 14 3e 10 b6 9a be
       -0.03895247 0.098956384 0.14544673 -0.30217028
0000a0 26 ca 00 be 8d 8d 89 be 96 1a 22 3e be fd 94 be
       -0.12577114 -0.26865807 0.15830454 -0.2909984
0000b0 ea c5 d9 bd 7e b0 ab bf f3 7d 88 be 58 8a a6 3e
       -0.10633452 -1.3413236 -0.26658592 0.32527423
0000c0 e7 9c 2a 3e 25 33 80 be 37 89 28 3f 79 f9 3f be
       0.16661416 -0.2503902 0.65834373 -0.1874751
0000d0 d4 d3 d5 bd 0b 74 48 be b8 6d 85 bf b5 eb 6f be
       -0.10440794 -0.19575517 -1.0424109 -0.23429759
0000e0 42 31 46 be 7c 1a 67 3d d9 34 d2 3d 99 c2 9e 3d
       -0.19354728 0.05642174 0.10263986 0.0775196
0000f0 77 96 a6 3e 0c a0 34 be 13 1e 73 bf f2 1e 22 3f
       0.3253667 -0.17639178 -0.94967765 0.6332847
000100 62 9a 49 3e 93 4a 0b 3e 17 5b 9b 3e cc 10 01 3f
       0.19687799 0.13602667 0.30342934 0.50416255
000110 e4 f3 70 bd 62 55 11 3f ef 89 86 3e 9d 29 20 bf
       -0.058826342 0.5677091 0.2627711 -0.62563497
000120 4c 4b cf be 9e 5f ca bc 27 dd 36 3f 01 b1 17 be
       -0.40487134 -0.024703797 0.714312 -0.14813615
000130 1d 6c 8f bd cd e0 8f 3e 00 1f 03 be c3 06 6a be
       -0.07003043 0.28101197 -0.12804794 -0.22854142
000140 e7 8d 4c bf 90 a8 84 bf e8 c9 3d 3e 39 16 83 3e
       -0.79904026 -1.0363941 0.18534052 0.25602892
000150 ab dd 92 3d 52 86 0d bf 27 43 ee be 31 c8 f7 3e
       0.07171186 -0.5528308 -0.46535608 0.4839492
000160 be 37 c0 be 38 82 a6 be 2f 00 8a bd 00 8e d0 bd
       -0.37542528 -0.32521224 -0.06738316 -0.10183334
000170 cf e9 34 bf 48 c1 ed 3e b2 e8 9c 3e 4a c2 29 be
       -0.70669264 0.46436524 0.30646282 -0.16578022
000180 ee 25 00 c0 b7 9a 56 be b0 0c 2e be 1f fd 1b be
       -2.002315 -0.20957457 -0.16997027 -0.15233277
000190 cd 66 31 bd 2b d6 d7 be f6 e3 0e 3e 99 73 0d bf
       -0.04331093 -0.42155585 0.13954148 -0.55254513
0001a0 a6 90 1e be da ea 00 3f 89 04 4c bd 0b 0e fd bd
       -0.15484866 0.50358355 -0.049809013 -0.12356194
0001b0 b5 b2 63 be 72 9b 8d bf 83 54 9c bd ab 0f 54 3f
       -0.2223614 -1.1063063 -0.07633307 0.8283641
0001c0 02 5d 1d bf 05 90 3b bf b4 71 39 3d fc cb 61 3f
       -0.61470044 -0.7326663 0.04527445 0.8820188
0001d0 30 77 c8 bd ca eb 9b bd e4 34 6c bf ad e6 30 3e
       -0.09788358 -0.076133326 -0.92268205 0.17275496
0001e0 da 01 f2 3e c6 1a bd 3c 3a 7b a2 bf a8 50 43 be
       0.47267038 0.023084056 -1.2693856 -0.19073737
0001f0 2d 80 88 3e d5 45 31 bd 6f 56 cf bf 02 df 42 bf
       0.2666029 -0.043279488 -1.6198252 -0.7612153
000200 06 4f 1b 3d 59 89 36 3e 46 a4 01 3e 96 07 58 bf
       0.03791716 0.17825831 0.12660322 -0.84386575
000210 ba 77 e1 3e 00 6a 19 3e 17 df 18 be 6a 0e 94 3e
       0.44036657 0.14981842 -0.14928852 0.28917247
000220 2d 2f 3f 3e ec b3 6b bf 6d 76 4f 3e 17 50 6a 3e
       0.1867034 -0.92071414 0.2026002 0.22882114
000230 da 84 a0 3e 6b 5c 03 be de 0c a5 3e 89 58 cf 3e
       0.31351358 -0.12828223 0.3223638 0.40497234
000240 7c 99 7a 3e 4e 1a 09 3e 5d 23 6d 3e 64 0a 65 3c
       0.24472612 0.1338894 0.23158021 0.013979528
000250 37 e3 bc 3a b7 48 cb 3e df a4 f6 be d0 d4 88 3e
       0.0014410977 0.39703915 -0.48172662 0.26724863
000260 b1 c8 94 3d 71 ba 17 be a8 33 2d 3f fa 4e 28 be
       0.07264841 -0.14817216 0.67656946 -0.16436377
000270 8c f4 96 bf 52 d8 de 3d c0 97 f4 be 9c 3d 60 3d
       -1.179338 0.108811036 -0.47772026 0.054746255
000280 2a 62 54 be 17 16 8c be de 09 8b 3e 95 ba 5e be
       -0.20740572 -0.27360603 0.27155966 -0.21750863
000290 63 1a 79 ba bc 86 95 3e 93 31 cf 3e 81 16 8a 3e
       -0.0009502528 0.29204357 0.4046751 0.26970294
0002a0 7c af 0d 3f d2 2d 98 bd 24 ad 0b be e9 bc 7f bc
       0.5534589 -0.074306145 -0.13640267 -0.015609005
0002b0 a9 d6 7a bc f6 5f 53 3e f7 e1 e3 3e ec f3 7d 3e
       -0.015309968 0.20642075 0.44508335 0.2480008
0002c0 8e e9 54 3d ff 06 4e 3e 24 23 6c 3d 31 21 cb 3e
       0.051980548 0.20119856 0.0576507 0.3967376
0002d0 2b 52 93 bf fe 9a c4 bf 5c 29 07 bf e5 6f 1b 3e
       -1.1509451 -1.53598 -0.52797484 0.15179403
0002e0 16 90 f9 3e 6e ab a5 be 50 e9 83 bd b8 42 ae 3e
       0.4874274 -0.32357353 -0.06440985 0.34035277
0002f0 9d 72 3a bf e1 31 9c be b1 5b a0 3e c7 eb 22 3e
       -0.72831136 -0.30506805 0.31319955 0.15910254
000300 34 07 88 3e dc 4b 03 3e ee 50 cd 3e e9 7b 65 be
       0.26567996 0.12821907 0.40100807 -0.22410549
000310 13 5b d8 3e d3 c1 08 3f ef fd 76 be 1d e7 80 3e
       0.42256984 0.5342075 -0.24120305 0.25176325
000320 5f 42 ab be 4b f7 1f bf 1e a8 07 bf c1 72 91 3e
       -0.33449075 -0.62486714 -0.529909 0.28407863
000330 15 3e 53 bf 46 91 1f 3e 13 7c af 3e d0 dc f6 3e
       -0.82516605 0.15582761 0.3427435 0.48215342
000340 27 14 9a 3d a5 3f 59 bf 9d 80 6a 3e 25 a6 99 3e
       0.07523375 -0.8486274 0.22900625 0.3000957
000350 7d b1 c9 3e 1d 3b 30 3e ae 04 84 bd 41 56 90 3d
       0.39393225 0.1721005 -0.06446205 0.070477016
000360 84 80 5d 3e 40 7d a7 bf 06 04 97 3e 10 39 a1 be
       0.21631056 -1.3085098 0.29495257 -0.31488848
000370 ce 4e 59 3e f8 73 60 3e 75 ca 8c 3e ea 7c b8 bd
       0.21221468 0.21919239 0.27498212 -0.090082005
000380 43 37 b7 3e 78 5e 29 3e f9 f7 c1 be 00 fc f8 3d
       0.3578435 0.16539943 -0.378845 0.1215744
000390 f2 a7 88 3d b9 81 3f be 6c cf ca bd f0 d7 95 3e
       0.06672658 -0.18701829 -0.09902844 0.2926631
0003a0 f0 67 81 3d 11 93 ce be 7e 61 db be cd 62 15 3e
       0.06318653 -0.40346578 -0.42847818 0.14588471
0003b0 4f 5c 2e 3e 84 c1 6b bf a5 27 4a 3e d7 39 d4 3e
       0.170274 -0.92092156 0.19741686 0.41450378
0003c0 7a 1a 33 bf b2 0d bd bd b7 1d 02 bd 46 d5 70 3d
       -0.69962275 -0.09231128 -0.03176662 0.058797143
0003d0 fd d9 20 bd f8 05 11 3f 5b ef d6 3d 48 ca f9 be
       -0.03927039 0.5664973 0.10494872 -0.4878714
0003e0 04 21 34 bd 22 8a 88 be 5d 44 19 3d 68 c3 82 be
       -0.0439768 -0.26667887 0.037418712 -0.25539708
0003f0 4e be 9d 3e db 8b 48 3f 20 c0 be 3e 68 3e c7 bf
       0.30809253 0.783384 0.37255955 -1.556592

net.6.bias f4 [64]
000000 36 fc 6a be 54 c9 c7 be 2b 54 48 be 25 c6 16 bf
       -0.22947773 -0.3902079 -0.19563358 -0.58896095
000010 64 7c 17 3e 51 de c5 be d0 8c f8 be 08 b5 c7 be
       0.14793545 -0.38646176 -0.4854493 -0.39005303
000020 2c cc 46 be 5d 16 f0 bd b4 37 da be 3f 5a df 3d
       -0.19413823 -0.117230155 -0.42620623 0.10905885
000030 9f d7 66 3c 57 c1 8c bd ae da a2 be 62 45 44 3d
       0.014089494 -0.06872814 -0.31807464 0.04791773
000040 a3 9f ed bd 61 a0 ce be 75 ea ea be 9d d5 d0 be
       -0.11602714 -0.40356734 -0.45882002 -0.40787974
000050 0b 0a 82 be 6a e4 4a bf a2 b9 86 bd 31 f0 7d be
       -0.25398287 -0.7925478 -0.065783754 -0.24798657
000060 d8 34 dc be 2f 72 7c bf 12 87 f1 be 01 1e 3d bf
       -0.43009067 -0.9861173 -0.47173363 -0.7387391
000070 60 df 8e be b0 9a 13 bf b3 84 c0 be 83 c0 8a be
       -0.27904797 -0.5765791 -0.3760124 -0.271
000080 29 7c e3 3e 19 9e dc be a9 25 9b be de ec 97 be
       0.44430664 -0.4308937 -0.3030217 -0.29672903
000090 10 25 e3 be 0a 09 a3 be 05 ff cf be ff 53 40 bf
       -0.44364214 -0.31842834 -0.40624252 -0.7512817
0000a0 45 b6 45 bf c3 30 1b 3e 7e f8 e3 bd f2 82 02 bf
       -0.77231246 0.1515532 -0.111313805 -0.50981057
0000b0 df 00 16 be ab 9e a4 bd 27 d9 cc be 14 d7 dd be
       -0.1464877 -0.08038076 -0.40009424 -0.43328154
0000c0 39 31 76 3e f7 0d c8 be d0 bc 3a be 54 80 d1 be
       0.24042214 -0.39073154 -0.18236089 -0.4091822
0000d0 f6 c2 19 bf 6e 06 ef be 28 79 00 bf d6 ba b2 be
       -0.6006311 -0.46684593 -0.5018487 -0.3490817
0000e0 7e e5 2d bf 75 82 2d bf 7f 51 1e bf 2b c9 81 be
       -0.679283 -0.67777187 -0.61843103 -0.2534879
0000f0 be ee 01 be f8 3f 67 bd 8f 63 1d bf aa a1 8c be
       -0.12688729 -0.05645749 -0.6148004 -0.2746709

net.8.weight f4 [2, 64]
000000 56 d2 8a 3e 98 09 28 3f fd 1e aa be 64 01 bc be
       0.271136 0.6563964 -0.33226767 -0.3671981
000010 08 68 49 3e 36 6b 73 3e 40 d2 b6 be ce 7c 17 be
       0.19668591 0.23771366 -0.35707283 -0.14793703
000020 63 82 57 3e bb 48 0b be 15 be 25 3e 4f 69 6e be
       0.21045832 -0.13601963 0.16185792 -0.2328236
000030 d6 48 05 3e 30 83 ec 3d 80 2d 6b 3e 42 04 b1 3e
       0.13016066 0.115484595 0.22966576 0.3457356
000040 b2 51 97 3e d1 7b 2a be 2b 32 43 3e b5 bc 0f 3e
       0.29554516 -0.16648795 0.19062106 0.1403683
000050 40 7e 88 be 89 09 94 be b2 3a a1 3d 68 52 cf bd
       -0.2665882 -0.28913525 0.07872523 -0.101231396
000060 ad 38 85 be 22 76 6f 3d 85 a0 36 be 85 16 f0 be
       -0.26019803 0.05846227 -0.17834671 -0.4689218
000070 31 9f 01 3f fa 6e 68 be 46 ec 1a 3e 2f 22 45 bd
       0.5063353 -0.22698584 0.15129194 -0.048128303
000080 52 89 b1 3e 40 01 d7 3d 64 4f 53 3c c9 5a 96 3e
       0.3467508 0.10498285 0.012897346 0.2936614
000090 5e 8e 17 be f6 20 cf 3e e1 14 c6 bd 4a 28 89 3e
       -0.14800403 0.40454835 -0.09671951 0.2678855
0000a0 dc 87 84 be ae d0 1a 3e 3f 54 3e be 80 8f cc bd
       -0.25884902 0.15118667 -0.18586825 -0.09988308
0000b0 d0 01 b2 3c 0d 59 b9 3d 7e b8 1e be 9a ba 4d 3e
       0.02172938 0.09050188 -0.15500066 0.20090714
0000c0 3f 00 65 3e e5 9e 43 3d 6e 48 6f 3e 2f e1 e7 be
       0.22363375 0.047758956 0.23367473 -0.4528899
0000d0 5c d0 1b 3e 7e 9c 0f 3e 76 79 9d be ef 27 09 3e
       0.15216202 0.14024541 -0.3075673 0.1339414
0000e0 75 83 3a be d2 d5 8f be 0c 61 09 be 91 7a fe be
       -0.1821421 -0.2809282 -0.13415927 -0.49702886
0000f0 e0 6e 38 be 47 33 86 bd ee d6 91 bd 66 f4 ee 3d
       -0.18011045 -0.06552749 -0.07121073 0.11667709
000100 0c 20 92 3e e0 93 1a be 40 aa ae be 46 82 5e be
       0.28540075 -0.15095472 -0.34114265 -0.21729383
000110 e5 18 32 3e 02 f3 d5 3e e4 1a a0 be 04 8d b1 bd
       0.17392309 0.41786963 -0.31270516 -0.08669475
000120 57 f7 57 3e 29 15 01 be d2 ef 40 3e 4f 48 90 be
       0.21090446 -0.12605728 0.18841484 -0.28180167
000130 78 df 31 3e 62 a8 b9 3d 5a 0d 50 3e 21 99 b6 3e
       0.17370403 0.090653196 0.20317593 0.35663703
000140 70 fa 99 3e ed ea 2e 3e 0e 13 b3 3d 42 08 32 3e
       0.3007388 0.17081805 0.08743869 0.17385963
000150 73 45 8d be c9 70 a3 3e 85 29 69 3d f5 90 f5 bd
       -0.27592048 0.31921986 0.05692436 -0.11990539
000160 2c b5 6c be 48 02 fe be ab 13 31 be 13 e0 b7 3e
       -0.23115987 -0.49611115 -0.17292659 0.35913143
000170 42 d0 57 3e 66 a6 c8 3d 23 ee 1a 3e 47 ce 41 bf
       0.21075538 0.09797363 0.15129904 -0.7570538
000180 02 70 bd 3e 5a ee e8 3d 94 f7 83 3e 29 8d 8a 3e
       0.36999518 0.11373587 0.25774825 0.27060822
000190 18 67 0d 3f 0b 3b cf 3e 47 41 a2 be be 9c 36 bf
       0.55235434 0.40474734 -0.31690428 -0.7133292
0001a0 ed c3 ac 3e ab 0e ce 3d 12 af 61 be 3c cb d4 3d
       0.3374323 0.100613914 -0.2203944 0.103903264
0001b0 cf 6f fd 3d c7 5f 16 3e 02 93 83 be 09 71 4d 3e
       0.123748414 0.14684974 -0.25698096 0.2006265
0001c0 46 ff 60 3e 0b 5b 39 bf 07 37 84 3e da 46 ee be
       0.21972379 -0.72404546 0.25823233 -0.4653843
0001d0 f8 e9 0c be df 16 09 3e 08 ae ab be fc b7 39 bf
       -0.13761127 0.13387631 -0.33531213 -0.7254636
0001e0 cf 7c c6 be 87 63 95 be a3 ef 2c 3e e0 d8 01 bf
       -0.38767096 -0.29177496 0.16888289 -0.5072155
0001f0 2a e8 dd bd fa c9 a9 be 98 6a 09 3f 32 aa cb 3d
       -0.108352974 -0.33161908 0.53678274 0.099445716

net.8.bias f4 [2]
000000 32 e4 2e 3f 23 e1 2a 3f
       0.6831695 0.6674978
