geometry2_dash_dqn.pth (torch, 75405 bytes, 6 tensors)

net.0.weight f4 [128, 9]
000000 e2 cf 02 bf ba 88 b9 3e b0 f3 bb be e0 b6 a7 bd
       -0.51098454 0.36237127 -0.36709356 -0.081891775
000010 b5 e0 bb bd 70 8f bb be 83 ef b8 be d0 74 d9 3d
       -0.09173719 -0.36632872 -0.36120233 0.10617983
000020 1e 69 be be 76 4a 06 c0 bf 22 0d bf de d9 4b 3f
       -0.37189573 -2.0982947 -0.55131143 0.79629314
000030 d9 3b 5f 3e 8e 64 b2 bd 37 d3 0c c0 5b 2f da bc
       0.21800174 -0.087105855 -2.2003915 -0.026633909
000040 11 09 b6 3d c6 68 fe bb 8b fe 69 c0 47 44 65 bd
       0.08888448 -0.007763955 -3.656161 -0.055973317
000050 4c 82 46 3e 9f e2 18 bd a5 f6 b3 bd b5 be 96 c0
       0.19385642 -0.037325498 -0.08787278 -4.7107797
000060 72 b1 80 be e1 cd a9 3d 65 81 c8 3d 4f f9 21 c0
       -0.2513538 0.082912214 0.09790305 -2.5308416
000070 c7 11 b0 3d 6f b7 f3 be b0 7d 89 3e 48 2f f7 bd
       0.08597141 -0.47600886 0.26853704 -0.12069565
000080 27 e2 29 c0 68 2c 3d 3f f0 48 78 3b 42 d0 dd bc
       -2.6544282 0.73895884 0.003788527 -0.027076844
000090 77 fc 22 40 92 0d 62 bf db 16 0b 3f df b2 39 3e
       2.5466592 -0.88301957 0.5433175 0.1813464
0000a0 50 c2 b9 be 27 b4 ab 40 c2 58 cb 3d 7a ae eb 3c
       -0.3628106 5.3657413 0.099290386 0.02876972
0000b0 6b 2f e1 3d a7 16 a5 be fc 51 85 bd a8 70 3c 3d
       0.109953724 -0.32243845 -0.06509778 0.046005875
0000c0 00 80 ef 3d 80 47 19 bb 40 dc 3a bd 24 13 88 be
       0.11694336 -0.0023388565 -0.045620203 -0.26577103
0000d0 34 81 9c bd 10 bb 83 bd ac a4 93 3f ed 24 19 be
       -0.07641831 -0.06432164 1.1534629 -0.14955492
0000e0 90 b8 4f be cc 70 43 3d 30 68 b7 be 03 6c 1e 3e
       -0.20285249 0.047714993 -0.35821676 0.1547089
0000f0 3b ee 61 3f e3 fc 15 3e 91 c4 6e be 63 cb 1d c0
       0.88254136 0.1464725 -0.23317172 -2.4655387
000100 de 9b 8d be dc 86 06 3f 22 f8 59 3e a5 bf 8d 3e
       -0.2765798 0.5254953 0.21286061 0.27685276
000110 c7 fa af c0 e7 96 2f bf 68 05 8d 3d 5e 32 a4 3e
       -5.4993625 -0.68589634 0.06885797 0.32069677
000120 d8 50 c9 bc 99 fd 92 3e d0 70 87 bf e3 9a 46 be
       -0.024574682 0.28709105 -1.0581303 -0.19395022
000130 3e 33 47 be d2 1f 3d c0 73 99 ba 3d 30 47 80 bf
       -0.19453141 -2.9550672 0.09111299 -1.0021725
000140 2d c0 8e bf 28 8b 29 c0 28 97 10 bd c8 48 09 3f
       -1.1152397 -2.6491184 -0.035300404 0.5362668
000150 a1 97 87 3e aa d3 43 bd 38 cb ca c0 4a c0 0c 3f
       0.2648287 -0.04780928 -6.337307 0.5498091
000160 e1 23 c7 3d 0b cc be 3c 64 3c 01 c0 b9 ec 71 bf
       0.0972364 0.023290655 -2.019311 -0.94501835
000170 73 45 54 be 0c 92 6f be 22 07 c2 be 0b 20 8c bf
       -0.20729618 -0.23395556 -0.37896067 -1.0947279
000180 03 2f 6b 3f ff cb 12 3d 4a 50 ed 3d ae 45 20 40
       0.9186861 0.035839077 0.115875795 2.504253
000190 b3 02 05 3e be 39 28 bf 7d a7 ae be 3f b7 42 3d
       0.12989311 -0.6571311 -0.34112158 0.04753804
0001a0 37 97 32 40 bb 4f 47 bf e1 97 db 3e 74 ab 62 3e
       2.7904794 -0.77856034 0.42889312 0.22135717
0001b0 ac 04 0f 3f 03 71 e1 3e 42 92 93 3d e5 f4 b4 3e
       0.55866504 0.44031534 0.07205631 0.3534309
0001c0 dd eb 8e be 1d f2 1e 3f 32 84 6d bf d4 c2 ce 3e
       -0.27914324 0.62088186 -0.9277984 0.40383017
0001d0 64 97 22 3e 0c c5 63 be 7a ac 2e be 49 6b 70 3e
       0.15878063 -0.22243136 -0.17057982 0.23478426
0001e0 ea 50 27 3d de 63 18 be cf eb 69 be ac 08 17 be
       0.04084865 -0.14881846 -0.2284386 -0.14749402
0001f0 f5 55 90 be c0 8b be bc 75 13 11 3f 51 33 56 3e
       -0.2819058 -0.023259997 0.56670314 0.20918013
000200 15 82 8b bf a7 f2 64 bf 61 86 5f 3e 84 aa a6 c0
       -1.0899073 -0.8943276 0.21828605 -5.208315
000210 c6 ae 9b 3e 2c f1 fc 3d dd 76 ca be 30 09 4f bf
       0.3040678 0.123506874 -0.3954381 -0.80873394
000220 b3 02 ea be 73 86 2e 3e 21 1a f2 3e 3e 29 6f bd
       -0.45705184 0.17043476 0.4728556 -0.05838894
000230 30 eb 50 c0 5d 90 ac bd c1 fe b5 3e 4e 14 5e bf
       -3.2643547 -0.084259726 0.35545924 -0.8674973
000240 ed b5 2b 40 6c 51 e3 be 14 6f c7 3d d4 cd 96 3c
       2.6829789 -0.44398057 0.09737983 0.018408693
000250 b1 a7 01 be e9 5a 69 40 84 be e4 3e 54 0b a1 3c
       -0.12661625 3.6461737 0.44676602 0.019658722
000260 32 d5 1c 3d e7 41 a0 3f f7 34 12 3e eb 2b 7c be
       0.038289256 1.2520112 0.14278017 -0.24626128
000270 2c c6 91 3d 79 bc 61 3d 78 38 07 bf 4b c7 ee be
       0.071178764 0.055111382 -0.5282054 -0.46636423
000280 fe 1d 92 be bc bf 7b be c9 69 64 3e f2 8f 49 3e
       -0.28538507 -0.2458486 0.22305979 0.19683817
000290 ec 25 e8 be 62 fd 49 3e 2d 5c aa 3e 70 d2 d6 bf
       -0.45341432 0.19725564 0.3327345 -1.678297
0002a0 cc 57 80 bf b0 06 0f bf d1 fb c7 3e 54 24 be be
       -1.0026793 -0.5586958 0.39059308 -0.3713709
0002b0 56 65 ac 3c 27 f1 00 bf c0 97 db 3d 98 7e 02 bf
       0.021044414 -0.5036797 0.107223034 -0.50974417
0002c0 bb b9 97 bf ed 3d 20 bf 06 57 46 3e 84 e4 75 bd
       -1.1853555 -0.6259449 0.19369134 -0.060032383
0002d0 ce ee 1b 3f 84 ad f8 3d 72 cd 80 3d ef 34 d3 bf
       0.6091126 0.121424705 0.062891856 -1.6500529
0002e0 0a cc 8a 3e 32 43 df bf db 50 04 be f5 67 8a be
       0.27108794 -1.7442381 -0.12921469 -0.27032438
0002f0 26 b5 39 bf 06 94 8b bf b6 67 ea be ca cd 78 be
       -0.72542036 -1.0904548 -0.4578225 -0.24297252
000300 4c de e1 bf fb f3 35 3e 1e af b5 be f7 86 2e bd
       -1.7645965 0.17768852 -0.35485166 -0.04260918
000310 17 3e 9a be e1 b2 28 3f a9 f8 b3 bf 0c 8b 16 bc
       -0.30125496 0.6589795 -1.406026 -0.009188425
000320 60 b6 0c 3c 29 7e 0a bf 04 db 5a bd 55 53 06 c0
       0.008588403 -0.54098755 -0.053431526 -2.0988362
000330 03 59 89 be 2b 4b 9d 3e 4a f9 1a bf e2 52 e0 bf
       -0.26825723 0.3072141 -0.60536635 -1.7525294
000340 ab f8 43 bf ad 69 3a 3f 35 92 f0 bc 12 8a 56 be
       -0.7655131 0.728175 -0.029366592 -0.20951107
000350 e9 a9 2a c0 94 ba cc 3e 80 18 9d c0 89 b9 5a be
       -2.6666205 0.39986098 -4.9092407 -0.21359839
000360 e1 9d c0 be 76 b2 02 bf 8f e5 c3 3e 81 ee 09 bf
       -0.37620452 -0.5105356 0.38261077 -0.53879553
000370 ba 46 9e be 55 8a f7 bd bb 41 02 3f 43 d9 df bc
       -0.30913335 -0.120869316 0.50881547 -0.027325278
000380 3a 17 3f 3e bc 8f 8e bf b3 cc a0 3e 5c 47 8d 3d
       0.18661204 -1.1137614 0.31406173 0.06898376
000390 80 22 ad 3e ee e1 9f bd 76 c3 b2 c0 bb 70 d9 be
       0.33815384 -0.078067645 -5.58636 -0.4246882
0003a0 67 f1 8d bd 8c 85 bf 3e cd 85 00 c0 84 25 f9 3d
       -0.069308095 0.37406576 -2.0081666 0.12165359
0003b0 50 78 fb 3e dc fd 0c bd 38 39 1a bb b9 68 76 c0
       0.4911523 -0.034421787 -0.002353264 -3.8501418
0003c0 2a 99 72 be b8 2e 8e c0 b7 7b 0d bf e9 6e 04 40
       -0.2369124 -4.443203 -0.552669 2.0692694
0003d0 4c 7e 62 3f ba 42 b4 be 24 ef 12 bf ba 36 5c bc
       0.88473964 -0.35207158 -0.5739615 -0.013440782
0003e0 15 b5 1c 40 30 5d 00 bf 92 91 a3 3c b4 77 06 3c
       2.4485524 -0.5014219 0.019966874 0.00820725
0003f0 84 bf 92 3e 19 83 ba 3e d3 cc c8 be 69 08 cb be
       0.2866174 0.36428145 -0.39218768 -0.39654854

net.0.bias f4 [128]
000000 9d 09 e8 be f8 37 93 be ca d6 14 bc ed 4d ca be
       -0.45319834 -0.28753638 -0.009084413 -0.39512578
000010 16 cd 2d 3e 60 0f 66 bc 91 8e 94 be ff 08 23 3e
       0.16972765 -0.014041752 -0.2901502 0.159214
000020 e3 ec ca 3e d2 70 b9 be 88 7d 4a bd 40 62 66 3e
       0.39633855 -0.36218888 -0.049436122 0.22498417
000030 82 de 03 bf e7 1f c3 bd 3b 75 0f be 8e 1d b7 be
       -0.51511395 -0.09527569 -0.14009564 -0.35764736
000040 05 e0 a1 3d 0e 13 cd 3e 95 74 32 3e 55 4b b8 be
       0.079040565 0.400536 0.17427285 -0.35994974
000050 9e f6 77 3e 60 27 83 3d 7b e2 06 bf 8f 77 a3 3e
       0.2421517 0.064039946 -0.5268933 0.31927153
000060 59 af bc 3d 91 d3 cd be ce c3 66 3e 98 81 a3 bc
       0.092131324 -0.40200475 0.22535631 -0.019959256
000070 1a 86 ac be cb a0 d6 3e 20 5f 95 3d 83 24 83 be
       -0.3369606 0.4191955 0.07293534 -0.25613794
000080 ce 9d f8 3d dc 8a 9d be 0a cb 02 bc 13 0d e7 3c
       0.12139474 -0.30770004 -0.007982979 0.028204476
000090 76 f0 f4 bd d8 e4 aa be 0d 19 3b be 09 e6 ab 3e
       -0.11959927 -0.3337772 -0.18271275 0.3357394
0000a0 17 40 83 be 1a 24 18 3e 7a 3d 49 bd 83 f1 ad 3e
       -0.25634834 0.14857522 -0.049130894 0.3397332
0000b0 7c 28 d3 be 82 24 ee bc eb 78 52 3d bb 73 30 be
       -0.41241825 -0.029070143 0.051384848 -0.17231648
0000c0 ca b2 5a bd 4f 08 cc 3d a9 b4 b1 3d e8 e7 6a be
       -0.053393163 0.09962522 0.08677036 -0.22940028
0000d0 30 97 45 be 91 ba 30 3d 36 07 7f be 90 db ce 3d
       -0.19295955 0.043146674 -0.24905095 0.10100472
0000e0 ca ba ea be da 15 b3 be 5f 70 35 be 0f 35 7c be
       -0.45845634 -0.3497761 -0.17718647 -0.24629615
0000f0 b0 e5 62 be ba 12 2f bd 2d 40 98 bd 98 48 4e be
       -0.22157931 -0.04274247 -0.074341156 -0.2014488
000100 e4 d1 ff be a8 60 82 3a 80 76 c4 be dc 21 08 3e
       -0.4996482 0.0009947019 -0.38371658 0.13294166
000110 de 3d b6 be 6a 83 f6 3d 30 08 9e be e5 5d 7d be
       -0.35594076 0.12036784 -0.30865622 -0.24742849
000120 2a 82 af 3b 70 d1 85 bd 0e cd 7e be 80 78 e1 3d
       0.005356093 -0.06534088 -0.2488291 0.11009312
000130 58 d7 01 bd 07 76 d2 3e 5f 12 83 be 11 6c 38 bd
       -0.03169951 0.41105673 -0.25599954 -0.045024935
000140 36 9a e2 be 78 2f 96 3c 83 d3 57 3d 0d e8 8a be
       -0.4425828 0.018333182 0.052691948 -0.27130166
000150 c6 15 05 3e 07 ff c7 be 67 a4 57 3c 5a 6f 6c bd
       0.12996587 -0.39061758 0.013161755 -0.05772338
000160 c2 35 2e be 4c 1c ac bd d8 55 5f be 5b 1f 4a be
       -0.17012694 -0.08403835 -0.2181009 -0.19738524
000170 ac 69 9a be 23 01 87 bd eb 04 81 3e d8 48 89 be
       -0.30158746 -0.06592014 0.25199065 -0.26813388
000180 89 f3 ec 3d 47 4a 4c bd f3 d3 61 be 80 0b 90 be
       0.11569888 -0.049875524 -0.22053508 -0.28133774
000190 50 17 3f be ac 0f 9a 3e b8 72 b3 be 7b 74 cf bd
       -0.18661237 0.30090082 -0.3504846 -0.10129639
0001a0 92 21 b4 bb 3f 1f 75 bd 34 f0 68 3d 02 03 cb be
       -0.005497166 -0.05984425 0.0568697 -0.39650732
0001b0 d6 ef ab 3c 46 0c 00 3c 98 08 9a bd d1 61 62 be
       0.020988386 0.007815426 -0.075211704 -0.22107626
0001c0 71 b7 e3 bd b7 26 47 3e 23 63 8d be 70 0c 06 3d
       -0.11118973 0.19448362 -0.27614698 0.032726705
0001d0 fe 79 c5 bd d0 d9 ff be 5e 46 c1 3b 7b 01 a7 bd
       -0.09642409 -0.49970865 0.005898281 -0.08154579
0001e0 7b b6 e6 be df ca 69 be 60 c6 f5 bd 19 23 93 be
       -0.45061097 -0.22831295 -0.12000728 -0.28737715
0001f0 57 f6 7d 3d a4 c9 91 be 0f 3b 20 3e 34 80 8f bc
       0.062002506 -0.28474152 0.15647529 -0.017517187

net.2.weight f4 [128, 128]
000000 ad f1 8b 3c 0e 03 42 3d ff db 98 3e b3 fc 7b 3c
       0.017083013 0.047366194 0.29855344 0.015380072
000010 06 c4 22 be ec 02 9c bc 61 74 82 3e 11 fb e5 3e
       -0.1589509 -0.019044362 0.25479415 0.4491811
000020 8a e7 f9 bc 02 2e b7 bf 76 33 ae be 05 21 8d 3e
       -0.030505914 -1.4310915 -0.34023637 0.27564254
000030 47 dd db bf 42 5b 84 bd f3 4b 14 be 7d d4 07 bf
       -1.7176903 -0.064627185 -0.14482097 -0.53058606
000040 3a e7 86 bc 6e 5a 1f be 50 65 a9 3e 38 a0 a3 bf
       -0.01646768 -0.1556184 0.33085108 -1.278327
000050 4d 53 0e bf 59 60 b3 3e de 59 1d be a2 00 0e bf
       -0.55595857 0.35034445 -0.15366313 -0.55469716
000060 ac ac 87 bd 13 c8 48 be a0 c9 b5 bf 81 66 c1 bf
       -0.066247314 -0.19607572 -1.4202156 -1.5109407
000070 cd ac 74 3e 7f 69 23 3f 6a aa 7b 3e cc ad 09 c0
       0.23894043 0.6383285 0.24576727 -2.1512327
000080 c5 ed 83 3d 51 49 d4 bf 58 42 80 3e 70 56 e1 bd
       0.06441835 -1.6584874 0.25050616 -0.11002815
000090 2a fe 12 3d 47 96 d8 be 02 36 fc be ff 4d 71 3e
       0.03588692 -0.42302153 -0.49259955 0.2356491
0000a0 27 47 5c bd 82 86 1d 3e d5 ea 5b bb ab e6 2e 3f
       -0.053778794 0.15383342 -0.003355672 0.6832072
0000b0 79 af 87 be 78 4f c5 bc cf d8 27 3f 35 71 21 c0
       -0.26501063 -0.024085745 0.655652 -2.5225346
0000c0 dc 24 95 3d 78 8a c7 3e bc 8b 8e bd 45 fe 63 bc
       0.07282421 0.3897283 -0.06960246 -0.013915603
0000d0 d2 fe 7d 3d ed 15 a7 be 9e f4 40 3d 4a e0 0c 3e
       0.062010594 -0.32633916 0.047108285 0.13757434
0000e0 3f 9a 00 bf b4 7e cd bd 79 e0 39 3e 63 ee cb be
       -0.5023536 -0.10033932 0.18152036 -0.39830312
0000f0 88 6d 55 bd da f9 a5 3d 6a f1 16 bb 96 6a 7a bf
       -0.05210641 0.08104296 -0.0023032078 -0.9781889
000100 2f c7 c0 be 9d 9f 61 3e 5f d4 37 bd db dd da be
       -0.37651965 0.22033544 -0.044880267 -0.42747387
000110 c9 8b 91 bf c6 a1 3c bf 4a b6 8e bd 6c ca 6c bf
       -1.1370784 -0.73684347 -0.06968363 -0.9249637
000120 07 6b e3 3d af 4b fb 3d 36 02 5a 3d 43 1b 2b 3e
       0.11104398 0.12270295 0.053224765 0.16709618
000130 45 f7 29 3e 1d a0 69 c0 24 5d 93 bd 2e 5b 7e bc
       0.16598232 -3.6503975 -0.071954995 -0.015524669
000140 2d db 88 3d 9c 74 2e 3e 3d a1 99 3e 52 dd ad bd
       0.066824295 0.1703667 0.30005828 -0.08489479
000150 f8 5d 28 3e ab 29 17 3e f7 b1 55 bd 7c 08 93 be
       0.16442096 0.14761989 -0.052171674 -0.2871741
000160 e4 40 05 3e d7 7f 56 3d ec 7e ae be c6 72 91 3e
       0.13013035 0.05236801 -0.3408121 0.28407878
000170 b0 06 80 3c 46 8f a7 3d e8 29 b5 be 16 86 05 c0
       0.015628189 0.08181624 -0.35383534 -2.086309
000180 ae 98 32 bf 69 69 12 3f 19 6f 06 bd 31 db e8 3e
       -0.6976422 0.57192093 -0.032820795 0.4547973
000190 70 8f 18 3c 55 44 09 be d0 6d 72 3b 63 2f 18 3e
       0.009311542 -0.13404973 0.0036991723 0.14861827
0001a0 93 41 88 be 0e f6 99 be 6b eb a1 3d da c5 45 bf
       -0.2661253 -0.30070537 0.079062305 -0.7725502
0001b0 4d 28 83 3d 33 ba 44 3e 29 53 9e 3e c5 28 18 3d
       0.06404171 0.19211654 0.3092282 0.037148256
0001c0 c6 c7 14 bf c9 9e 0e 3e fa 13 55 be bd af 99 3d
       -0.5811733 0.13927759 -0.20808402 0.075042225
0001d0 bb 30 dc be 95 1f 4f bd cc ac 3c 3d f5 56 f2 bf
       -0.43005928 -0.05056723 0.04606323 -1.8932787
0001e0 9c a2 e1 3d 4c e6 bb be c5 a9 84 bd 91 5a 0a bc
       0.110173434 -0.3669914 -0.064776935 -0.008444444
0001f0 d7 d7 a7 be 15 7f 2d be 0c 8c 54 3e 11 ae 57 3f
       -0.3278186 -0.16943009 0.20756549 0.8424998
000200 58 6b ed bc fd 64 bd bd 2e 45 f9 bf f9 c2 4d be
       -0.02898185 -0.092477776 -1.9474237 -0.20093907
000210 c3 4d c9 3c 2d c8 2b bd c8 b5 e6 3d b8 17 53 be
       0.024573212 -0.04193895 0.11265141 -0.20614517
000220 a9 52 a1 bc 48 07 8d be b6 c2 c1 bf 09 3d 5a bd
       -0.019692736 -0.27544618 -1.5137546 -0.053280864
000230 e6 4d 2e be 17 8e a9 3d 5e 50 07 be 5c bf d5 3e
       -0.17021903 0.082790546 -0.13214251 0.41747558
000240 28 4a 3a 3e 1e 89 b3 3d 6a 99 37 3f b1 e0 a6 3e
       0.18192351 0.087663874 0.71718466 0.325933
000250 cf 74 c8 3d 21 9c b9 be c5 40 35 bf 43 b3 a6 c0
       0.097879045 -0.3625193 -0.70801955 -5.2093825
000260 f3 d1 ed be 19 49 ab 3e e4 7e 58 be 02 ac 55 c0
       -0.4644924 0.33454207 -0.21142155 -3.3386235
000270 1b 48 a8 bd ef 7e 16 3e 18 aa 99 3e b3 3d 8a 3e
       -0.08216878 0.14696859 0.30012584 0.27000198
000280 dd b3 18 3e 26 c6 11 be c7 5d 69 3e b8 8e b2 bd
       0.14912362 -0.14235744 0.2278968 -0.08718628
000290 4e fb 9e 3d e4 a5 99 3e 04 3d 2f bf d6 43 b5 3e
       0.07762776 0.30009377 -0.6845248 0.35403317
0002a0 a2 6d 79 3d f6 63 4e 3e c3 ae f4 3b d6 78 d5 3e
       0.06089557 0.2015532 0.0074671223 0.41693753
0002b0 20 f4 84 3e 29 5f d6 3d ec 48 06 3f 2d 66 34 c0
       0.25967503 0.10467369 0.5245502 -2.8187363
0002c0 a9 0c ec bd a5 3e 66 bc bd 3c d2 3c 05 a8 b8 3e
       -0.11525852 -0.014053022 0.025663728 0.3606569
0002d0 d0 fd 6a 3c 26 6f 61 be 91 f0 8f bd be 2d 00 be
       0.01434274 -0.22015056 -0.07028306 -0.1251745
0002e0 92 fe 18 3e 23 9d 19 be ad 5f f5 3d 11 81 b5 3e
       0.14940861 -0.15001349 0.11981139 0.35450032
0002f0 2d e2 aa 3d 03 c7 83 3d ca 45 dd bd bb 13 94 bf
       0.08343921 0.06434443 -0.10804327 -1.1568521
000300 3a 35 0e be 8c f8 11 3e d3 0f cd 3d 5d 48 50 bf
       -0.13887492 0.1425497 0.10012784 -0.8136042
000310 1d 40 cd bd ca e1 00 3f f5 04 5d 3c 32 94 00 bf
       -0.10021994 0.50344527 0.013489951 -0.5022613
000320 15 10 5e 3e 5e 0d fe 3d 36 41 de 3c 22 3f d4 bc
       0.21685822 0.12404893 0.027130704 -0.02590901
000330 4d 56 ef bd 0d 35 bc c0 98 2c af bc 80 76 4d 3e
       -0.116863824 -5.881476 -0.021383569 0.20064735
000340 e2 75 34 bd 8d 27 43 3d 5e 1c ca 3a a8 a4 9f 3c
       -0.044057734 0.04764514 0.0015419831 0.019487694
000350 5a 96 b3 be 0f 57 24 bf 51 e9 f8 bd 7f ea 1b bf
       -0.35075647 -0.6419534 -0.121538766 -0.6090469
000360 82 1f 27 be c9 98 11 bf 80 ab 17 3d ce 99 94 be
       -0.16320613 -0.56873757 0.03702879 -0.29023594
000370 be 71 30 3d 87 66 6e 3f 9c 11 ea bf 93 de ab bf
       0.043077223 0.93125194 -1.8286624 -1.3427299
000380 51 46 b5 be 08 53 d2 bd 85 6d 92 3d 70 e5 ab be
       -0.3540521 -0.10269743 0.071497954 -0.33573484
000390 66 b4 3e bd 47 c9 7e bf ae ba 1f 3d 2c b6 78 bd
       -0.04655876 -0.99525875 0.03899639 -0.060720608
0003a0 22 ec 0a bf 43 ac 64 3e ee dc 7c be e6 1e 3a bf
       -0.5426656 0.22331338 -0.24693653 -0.727034
0003b0 d7 15 87 be 1b b9 48 bf 33 38 cb be b1 92 b4 be
       -0.2638385 -0.7840745 -0.39691314 -0.35268167
0003c0 0c 55 3a bf 7e a9 3d c0 8c df db 3d 28 6f 65 3c
       -0.7278602 -2.96347 0.107359976 0.0140035525
0003d0 d4 02 a6 bf 02 15 5a be 66 a6 0b be f7 a2 a3 3d
       -1.2969613 -0.21297076 -0.13637695 0.079900675
0003e0 02 82 9f 3d 01 6a ec bf 38 ee 74 bc de 95 c1 be
       0.07788469 -1.846985 -0.014949374 -0.37809652
0003f0 d9 50 2f bd d2 33 8a 3e fa 17 32 bf 3e 43 87 be
       -0.04280171 0.2699266 -0.69567835 -0.2641849

net.2.bias f4 [128]
000000 9e 97 d7 3e 1f 79 9f 3e 26 7f 90 3e 87 06 87 bd
       0.42107862 0.31147096 0.28222007 -0.06593042
000010 61 db 3e 3e 71 fe 84 be 77 94 6b 3e c9 5f 51 3d
       0.18638374 -0.25975373 0.23005854 0.05111674
000020 69 c6 ac bd 19 a9 ab bd 09 0c 9d 3c 0f 86 75 3e
       -0.08436281 -0.08381862 0.019170778 0.2397692
000030 0f a3 90 bd 02 11 90 bd 67 27 2a 3c 9f aa ee 39
       -0.07062351 -0.07034494 0.010385371 0.0004552202
000040 e7 80 90 3e 0b f2 e8 3c 0d a1 9f 3e 14 a8 89 bd
       0.28223345 0.028435728 0.3117756 -0.067215115
000050 41 99 14 3f 07 fa 22 3e fc 3d 9e 3d b3 e7 f1 3e
       0.58046347 0.1591569 0.07726666 0.47247085
000060 7e 98 db 3e 4f 0b 36 be 3e b2 ac 3d 16 b5 18 be
       0.4288978 -0.17777751 0.084324345 -0.14912829
000070 79 47 e5 3e a8 3e 0c be c5 0d 93 bd 63 c9 a9 bd
       0.44781092 -0.13695776 -0.07180361 -0.082903646
000080 0d e2 fb bd 41 a0 12 be ea a7 13 3e 6a c4 4e be
       -0.12298975 -0.14318945 0.14419523 -0.20192114
000090 cb 94 37 be 32 02 3c bd 1f 00 a3 bd e8 cd 35 3c
       -0.17927854 -0.04590053 -0.079590075 0.011096455
0000a0 3a e6 d1 bd 46 43 9d bd 00 fc f9 bd ab 13 91 bd
       -0.1024899 -0.07678847 -0.12206268 -0.070838295
0000b0 25 44 ad bc ad 2d 22 bc 41 da 37 be 58 76 a8 3e
       -0.021150658 -0.009898585 -0.17954351 0.3290279
0000c0 52 3f d3 bd 24 b2 74 3e 22 74 5e bd eb d2 06 be
       -0.10314812 0.2389608 -0.05430997 -0.13166396
0000d0 35 ef c0 bd 97 76 b6 bc 14 99 2f bd 36 e8 4b bc
       -0.09420625 -0.022273345 -0.042870596 -0.0124455
0000e0 59 66 2d bd ac 46 b9 bd cc b4 d1 3d 12 09 7b 3d
       -0.042333934 -0.09046683 0.102395624 0.061287947
0000f0 c9 83 b0 3e 60 50 cd bd 82 64 d6 3d 6e 90 b3 be
       0.34475544 -0.10025096 0.10468389 -0.3507113
000100 ed d4 b6 bc 27 8c a5 bd de 22 23 3f 35 74 9a bd
       -0.022318328 -0.080833726 0.6372508 -0.07541696
000110 64 4b 0c bd 3f 7d d5 3e 3f 9e 15 bd 1a 8b 06 3c
       -0.034251586 0.41697118 -0.03652787 0.008211875
000120 f7 a3 e7 bc dd e8 5a 3c 76 a3 2b 3e c2 f8 f9 3e
       -0.028276427 0.013361183 0.16761574 0.488226
000130 4a a3 81 3e e8 03 d2 bd f5 ba d0 bd a9 c3 e1 bd
       0.25319892 -0.10254651 -0.10191909 -0.11023647
000140 7c b5 ef bd f1 38 0c be f4 fc 67 be b1 ce 9f bc
       -0.11704537 -0.13693596 -0.22655088 -0.019507738
000150 02 bf 11 3e af 4d b7 bc 6f 9d d9 bd 71 e3 e3 3b
       0.1423302 -0.02237591 -0.10625731 0.0069546034
000160 f0 39 e0 bd ba 07 d6 3e e5 67 04 3f 94 29 d2 3d
       -0.10948551 0.4180277 0.5172103 0.10261837
000170 5a 8e 3a 3e 74 e8 93 3c fb 09 0d 3e ff dd 8c 3d
       0.18218365 0.018055178 0.13773338 0.0687828
000180 b6 bf 18 be d2 7d 4a bd a1 22 18 3e 8b 7a 3b 3d
       -0.14916882 -0.049436398 0.1485696 0.045771163
000190 68 d0 aa bd fc ab b7 3e c6 d3 2e 3d 66 e2 50 3e
       -0.083405316 0.358734 0.04268243 0.20398864
0001a0 9b 0a 1d bd 18 df f1 3d 38 1e 80 bd d6 4e 4a be
       -0.038340192 0.1181013 -0.06255764 -0.19756636
0001b0 d0 e6 36 be b2 31 49 be c7 f4 01 be ff 71 23 be
       -0.17861485 -0.19647864 -0.12691031 -0.15961455
0001c0 3c 01 ee bc 6c 21 14 bd 49 7a 94 bd bc 1e c5 bd
       -0.029053323 -0.036164686 -0.072498865 -0.09625003
0001d0 7b 98 0e 3d 25 c7 08 bd 77 c6 80 bd 9a e7 08 3c
       0.034813385 -0.033393044 -0.06287854 0.008355999
0001e0 47 1e a8 bd f8 24 4d bd 32 9c f7 bb 21 e1 dc bd
       -0.082089 -0.050084084 -0.0075564617 -0.107851274
0001f0 d2 57 d8 bd a4 95 1f be 46 2a c9 3c 29 bd a6 bd
       -0.105636254 -0.15584427 0.02455629 -0.08141548

net.4.weight f4 [2, 128]
000000 75 3b 79 3f 58 8e 0c 40 48 68 07 40 b6 63 57 bf
       0.9735635 2.196188 2.1157398 -0.8413652
000010 0f ad 2a bf 00 9f 4f bf a7 14 7b 3f 19 6d 32 bf
       -0.66670316 -0.8110199 0.9807839 -0.6969772
000020 5a 8e c4 3e 25 76 29 bd e7 52 08 c0 51 e9 c3 bf
       0.38389856 -0.041372437 -2.13006 -1.5305578
000030 ce dd 4e ba 59 bd 81 3d 0b 27 33 bc ea 19 92 bd
       -0.0007891328 0.06334943 -0.010934602 -0.07133849
000040 b3 c1 c6 3f ec ba dd bf 5f f7 5d bf 58 37 27 3d
       1.5527862 -1.7322669 -0.86705583 0.040824264
000050 2a 41 a4 3e 5f 18 a4 bf a6 7e 00 40 69 29 ab 3e
       0.32080966 -1.2819937 2.00773 0.3343003
000060 86 d4 8c bf 7d 74 67 c0 f9 ae 04 bf f4 b3 15 3d
       -1.1002357 -3.6164849 -0.5182949 0.03654857
000070 e9 34 c9 3f 97 d5 52 be 75 d2 23 bc ec 52 a1 3f
       1.5719272 -0.2058929 -0.009998907 1.2603431
000080 9a cb 80 3f da 20 25 3f c3 7d ff 3f 70 0a 9d bf
       1.0062134 0.6450325 1.9960254 -1.226881
000090 02 6c 3e bf 72 15 7e bc e5 b1 72 3f 2b 9c b5 bd
       -0.74383557 -0.015508043 0.94802696 -0.08867677
0000a0 9c 24 39 3c 85 dd 44 3c 36 11 7b 3c 6c 42 ae bc
       0.011300232 0.012015705 0.015323928 -0.021271907
0000b0 bd 6b b3 3d 89 50 84 3d 04 56 8a bf 65 5c 85 3e
       0.08760784 0.06460673 -1.08075 0.26047054
0000c0 5e bc 1a bd ec f8 e1 be 85 13 07 3d 5e 94 ea ba
       -0.037777297 -0.44135225 0.0329776 -0.0017897
0000d0 90 c5 22 bd f8 b2 a2 3b 97 56 74 3d f0 1e 0c 3c
       -0.03973919 0.0049651824 0.05965289 0.008552298
0000e0 34 dc 47 bf de cc 49 3d c3 ac 8e 3e 28 70 e5 3d
       -0.7807038 0.049267642 0.27866182 0.11203033
0000f0 e0 f3 a2 3e 67 22 1c bc 1b 7b a5 be f7 43 c0 be
       0.31826687 -0.0095296865 -0.32320485 -0.37551853
000100 75 23 91 bd 64 9f cc bc cd 7a 89 bf d5 b7 0b c0
       -0.07086841 -0.024978347 -1.0740601 -2.1830952
000110 c6 b4 3a bd 00 bb d9 3f 05 6f 18 3f d3 d4 ff bc
       -0.045582555 1.7010193 0.595444 -0.031229412
000120 89 c8 ce bc bd 76 a2 3a 5c dc d4 bf 5a a3 0e 3f
       -0.025242107 0.0012395006 -1.6629748 0.55718005
000130 6d 7d 0e 40 14 1e 63 bc b5 6d 74 bc 92 25 f5 3c
       2.2264054 -0.013862152 -0.014918734 0.029925141
000140 87 8d 60 bd 18 1d ae 3f 1f 5e 08 3e 78 05 37 3d
       -0.05482247 1.3602629 0.13317154 0.04468295
000150 bb c0 d1 bf 2c b1 0a 3d 81 17 c8 3d 8c b9 97 bc
       -1.6386942 0.03386037 0.09770108 -0.018521093
000160 5c f1 52 3d dd 59 91 bf 18 cb 94 bf 27 7d 46 3e
       0.05149971 -1.1355549 -1.1624479 0.1938368
000170 3a d1 92 3f 1a 5a 32 3f 1c e3 a7 bf a7 a0 2b 3e
       1.1470101 0.69668734 -1.3116183 0.16760503
000180 6a 4c b5 3e c3 ad 31 bc 75 fb 0a 40 f4 18 b9 be
       0.35409862 -0.010844651 2.1715977 -0.3615185
000190 ae 8e bc 3e f0 35 8f 3d f9 01 c0 3e c9 7d 32 3f
       0.36827606 0.0699271 0.37501505 0.6972318
0001a0 9d be 95 bb b7 b1 7e 3f ea 30 89 bd 6b cc 81 3f
       -0.004569842 0.9948992 -0.06698783 1.0140508
0001b0 86 27 22 3f 89 9b 29 bf 8c 4c d6 3f e7 70 62 bd
       0.6334156 -0.6625295 1.674211 -0.055283453
0001c0 57 6f 95 bc 72 2b 9e ba 74 bf 76 3c 37 ac b7 3c
       -0.018241568 -0.0012067391 0.015060294 0.022420986
0001d0 08 a5 7f be 82 28 1c 3d 8d 3e 18 bd 9c a1 60 bc
       -0.24965298 0.03812457 -0.037169028 -0.013710406
0001e0 d1 f8 9c bd aa bb f8 bc 3f cd a9 3b 7c 2f 78 bd
       -0.076646455 -0.030362923 0.005181938 -0.06059216
0001f0 04 4e 8d 3f 35 41 0b bd 2a 7b 9b bc 50 73 06 3c
       1.1039433 -0.033997733 -0.018979628 0.008206204
000200 8f 3d 3d 3f d0 18 15 40 87 3f 18 40 83 ca f2 be
       0.73922056 2.3296394 2.3788774 -0.4742013
000210 fd df f7 be 8b fc 53 bd d9 7c 89 3f a3 b6 85 bf
       -0.48413077 -0.051754516 1.0741225 -1.0446361
000220 b0 93 05 bf c0 60 61 3c 97 d2 7c bf 40 85 cd bf
       -0.5217848 0.013755977 -0.98758835 -1.605629
000230 d0 3c c6 3b 0d 66 80 bb d5 fe 13 bd 56 e7 04 bc
       0.00604973 -0.0039184154 -0.0361317 -0.008111795
000240 55 32 07 bf 76 c0 0f be d8 ba 1e bf ed a0 44 3a
       -0.52811176 -0.14038262 -0.6200385 0.00075007865
000250 87 0f a4 3e d9 c8 fa bf 5f 99 27 40 cf fd ed 3e
       0.32043096 -1.9592544 2.618736 0.46482703
000260 cc 3a 90 bf 88 14 ee be f3 aa 06 bf a9 d8 d2 bc
       -1.1267943 -0.4650004 -0.526046 -0.025738077
000270 ea 85 95 bf 73 52 d7 3d 90 0e cb bc 66 7a 4a 3f
       -1.1681492 0.10513773 -0.024787217 0.79093015
000280 73 d7 b7 bf d8 df 48 be c9 d4 f3 3f 33 57 ed b9
       -1.4362625 -0.1961664 1.9049312 -0.0004526913
000290 a6 3e bd be 86 73 47 3d 1b df 93 3e 6e ee 3f 3d
       -0.3696186 0.048694156 0.28881153 0.046858244
0002a0 54 79 c3 3c 2a 0a b1 3c 87 d4 53 bc d3 01 a0 3d
       0.023861565 0.021611292 -0.012929088 0.07812848
0002b0 ef 8b 83 3c 97 df d5 bd e7 5e 13 c0 a5 7b 8f 3e
       0.016057936 -0.10443037 -2.3026674 0.2802402
0002c0 27 62 6a bd a4 c7 c9 be 05 3f c4 3c 5c aa a0 3c
       -0.05722251 -0.39410126 0.023955831 0.019612484
0002d0 50 9f 59 bd b2 6e 11 3d 07 af bc 3c 71 99 ca 3c
       -0.053130448 0.035505958 0.023032678 0.02473137
0002e0 45 b0 43 bf bc 3a 01 3d 5c 7a 71 be 0b fc 8f be
       -0.7644084 0.031550154 -0.23581833 -0.2812198
0002f0 c8 55 f1 3d d7 89 7a 3d 1f 13 53 be ca 32 b6 be
       0.117839396 0.06116661 -0.20612763 -0.35585624
000300 cf b1 3d 3d 37 6f 29 bc 4e 14 95 bf 5e cb 42 3f
       0.04631215 -0.010341457 -1.1646821 0.76091564
000310 7b 7f 55 3c 5e 6e 3c 3f 13 a0 74 3f a8 63 ae 3c
       0.013030882 0.73605907 0.95556754 0.021287754
000320 71 15 1d 3d 28 b6 16 bd 97 52 b6 bf ef b5 0e 3f
       0.038350526 -0.03679481 -1.4243954 0.5574636
000330 ec 8c 02 40 a1 85 cc bb c8 da 4a 3c ff 97 8e 3d
       2.0398512 -0.0062415157 0.012381263 0.06962585
000340 74 c9 68 bd 70 c4 70 3f 8c 4b 07 c0 16 d1 8f 3c
       -0.056832746 0.9404974 -2.113986 0.017555755
000350 f9 9a c9 bd b6 4f ae bc ea 67 28 bc e2 96 7c bc
       -0.09844012 -0.021278244 -0.010278681 -0.015416833
000360 c6 47 5e bd 8a 5c 82 bf 6e ee 8c bf d4 45 3f 3e
       -0.054267667 -1.0184491 -1.1010263 0.18678981
000370 2c 43 86 3f e9 a7 d0 3e 1c 43 9d bf 2c 23 e8 bd
       1.0489249 0.40753105 -1.2286105 -0.113348335
000380 b3 2f 0d c0 98 fa f9 3c db 8b f2 3f 9b 1f a7 be
       -2.2060363 0.030515 1.894893 -0.326413
000390 26 66 c0 3f a9 10 79 3f 72 b7 7c 3f 9c cc 62 3f
       1.5031173 0.97291046 0.98717415 0.8859346
0003a0 63 e6 27 bb 1f 48 29 3f 2c fe b1 3e ae 53 60 3d
       -0.00256195 0.66125673 0.3476423 0.054767303
0003b0 43 d2 23 bf 07 de 5a be 46 48 7e be eb db 51 bd
       -0.6399271 -0.21373759 -0.24832258 -0.05123512
0003c0 aa cc 5b bc b8 02 ba 3c f0 4a bb bc 04 20 7d 3d
       -0.013415495 0.022706375 -0.022862881 0.06179811
0003d0 9f 6a 13 bf 00 be 4f 3b 9f e8 5c bd 9b d3 03 bb
       -0.57584566 0.0031698942 -0.053932782 -0.002011514
0003e0 68 d3 66 3c a8 0b 55 3d 0b 79 b3 3c f1 67 85 bd
       0.014088489 0.05201307 0.021908304 -0.06513966
0003f0 ff a6 3b 3f 7b 98 e0 be a6 8c 3e bc 2c d8 bc bc
       0.7330169 -0.43866333 -0.011630213 -0.023052298

net.4.bias f4 [2]
000000 51 9b 1f 3e 55 23 0c 3e
       0.15586592 0.13685353
