checkpoints/geometry_ep400.pth (torch, 75369 bytes, 6 tensors)

net.0.weight f4 [128, 9]
0	0xbe9304ee	-0.287147
1	0x3eb9de0f	0.3630223
2	0xbeae36bb	-0.3402613
3	0xbdeccfc9	-0.115630694
4	0xbd84d6f7	-0.06486314
5	0xbeb023c4	-0.34402287
6	0xbeab42df	-0.33449456
7	0x3c843952	0.016140614
8	0xbebcce3c	-0.36876094
9	0xbff21a53	-1.8914284
10	0xbec34912	-0.38141686
11	0x3f148e53	0.5802967
12	0x3e94e055	0.29077402
13	0x3db5aa32	0.08870353
14	0xbf896e41	-1.0736772
15	0x3e99851d	0.2998437
16	0x3d717b65	0.05895557
17	0x3da483ce	0.08032952
18	0xc0435c82	-3.0525212
19	0xbd2f8399	-0.04285011
20	0x3e3a08c5	0.18167408
21	0xbd297c1b	-0.04137812
22	0xbd97094b	-0.07374819
23	0xc07c0192	-3.9375958
24	0xbe62e3dc	-0.22157234
25	0x3d6a01e2	0.0571307
26	0x3d272cd9	0.040814254
27	0xbfffe459	-1.9991561
28	0x3dd84abb	0.10561129
29	0xbe8a58c5	-0.2702085
30	0x3e7081bf	0.23486994
31	0xbdbc94db	-0.092080794
32	0xbf48ec34	-0.7848542
33	0x3f174309	0.5908666
34	0x3ca90135	0.020630458
35	0xbcec9e15	-0.028883973
36	0x400b1dad	2.1736863
37	0xbf296b49	-0.6617933
38	0x3ec0c3eb	0.37649474
39	0x3df25692	0.11832918
40	0xbe9caa97	-0.305989
41	0x40a772eb	5.232778
42	0x3e6f3c54	0.23362857
43	0x3e11714d	0.14203377
44	0x3d701165	0.05861034
45	0xbea516a7	-0.32243845
46	0xbd8551fc	-0.06509778
47	0x3d3c70a8	0.046005875
48	0x3def8000	0.11694336
49	0xbb194780	-0.0023388565
50	0xbd3adc40	-0.045620203
51	0xbe881324	-0.26577103
52	0xbd9c8134	-0.07641831
53	0xbd83bb10	-0.06432164
54	0x3f994e07	1.1976937
55	0xbe6f6998	-0.23380125
56	0xbe9778da	-0.2958439
57	0xbcb88e45	-0.022528777
58	0xbe24c7de	-0.16091868
59	0x3f19ecf9	0.60127217
60	0x3f4a2b37	0.7897219
61	0x3e31bb65	0.17356642
62	0xbd03b9cf	-0.032159623
63	0xc017dde9	-2.3729193
64	0xbe93e92a	-0.28888828
65	0x3ebbb0e7	0.36658403
66	0x3cde2c95	0.027120868
67	0x3e8ede75	0.27904096
68	0xc08f877a	-4.4852877
69	0xbf0ef0b9	-0.55836064
70	0x3de358a4	0.11100891
71	0x3e0cc563	0.13747172
72	0x3e0a94cf	0.13533328
73	0x3eb9189d	0.3615159
74	0xbf83c327	-1.0293931
75	0xbd8c9196	-0.06863706
76	0xbe3a277b	-0.18179123
77	0xc03b7d91	-2.929539
78	0xbdaf18c7	-0.08549648
79	0xbf52519f	-0.82155794
80	0xbf817b79	-1.0115806
81	0xc012b716	-2.2924247
82	0xbe10079d	-0.14065404
83	0x3f1cb73d	0.612171
84	0x3e5fc9fd	0.21854396
85	0xbd2df0d4	-0.042466
86	0xc09710a3	-4.720781
87	0x3eeca52d	0.4621977
88	0x3dabe67d	0.083935715
89	0xbcb1e07d	-0.02171349
90	0xbff910a3	-1.9458202
91	0xbf3f4927	-0.74720997
92	0xbe544573	-0.20729618
93	0xbe44bad1	-0.1921189
94	0xbeb0c922	-0.34528452
95	0xc006797c	-2.1011648
96	0x3f69ef25	0.9138053
97	0x3dc6c13b	0.097048245
98	0x3d851ea7	0.06499987
99	0x402099ee	2.5093951
100	0x3d1709b5	0.03687449
101	0xbf1fb9e2	-0.6239301
102	0xbeb17c01	-0.3466492
103	0x3d2cfe40	0.04223466
104	0x403a2171	2.908291
105	0xbf0f4cef	-0.55976766
106	0x3eb290fe	0.34876245
107	0x3dcd58f6	0.100267336
108	0x3e21ad44	0.15788752
109	0x3ec859e1	0.39131072
110	0xbcca235b	-0.024675062
111	0x3df7df05	0.121030845
112	0xbe69aba5	-0.22819383
113	0x3e15504f	0.14581417
114	0xbf580bc9	-0.8439298
115	0x3ed84951	0.42243436
116	0x3e8a9fb4	0.2707497
117	0xbe63c50c	-0.22243136
118	0xbe2eac7a	-0.17057982
119	0x3e706b49	0.23478426
120	0x3d2750ea	0.04084865
121	0xbe1863de	-0.14881846
122	0xbe69ebcf	-0.2284386
123	0xbe1708ac	-0.14749402
124	0xbe9055f5	-0.2819058
125	0xbcbe8bc0	-0.023259997
126	0x3f101fd0	0.5629854
127	0x3ebda5cb	0.37040552
128	0xbf594c06	-0.8488163
129	0xbf626f52	-0.8845111
130	0x3e1dc512	0.15407208
131	0xc0a818e2	-5.2530375
132	0x3e2f3c45	0.17112835
133	0xbba5e6e3	-0.005062924
134	0xbf064319	-0.5244613
135	0xbf8e216f	-1.1103953
136	0xbd88df80	-0.06683254
137	0x3e1baf2e	0.15203544
138	0x3eca7ddb	0.39549145
139	0xbd80cd6e	-0.062891826
140	0xc06fa66e	-3.744533
141	0xbc8f5064	-0.017494388
142	0x3e9d840f	0.30764815
143	0xbf519684	-0.81870294
144	0x400271bf	2.0381925
145	0xbeb53037	-0.35388348
146	0x3e348457	0.17628609
147	0xbd84fc7a	-0.064934686
148	0xbdf2feed	-0.118650295
149	0x4076049e	3.8440318
150	0x3eeb757c	0.4598807
151	0xbcbb45ae	-0.022860374
152	0x3d29ec00	0.041484833
153	0x3f8708b7	1.0549535
154	0x3e1553f8	0.14582813
155	0xbe08820e	-0.13330862
156	0x3ce990b8	0.02851139
157	0x3dcebe62	0.100949064
158	0xbf04facb	-0.5194518
159	0xbec6be9f	-0.38817307
160	0xbebd48bb	-0.3696955
161	0xbdff3683	-0.12461569
162	0x3e9e6b90	0.3094144
163	0x3c5aa9a4	0.01334611
164	0xbed5843a	-0.41702443
165	0x3e1d7675	0.15377219
166	0x3eb50530	0.3535552
167	0xbfcfc394	-1.6231561
168	0xbf56f6f5	-0.83970577
169	0xbe968b9a	-0.29403383
170	0x3e9f1549	0.31070927
171	0xbebe2454	-0.3713709
172	0x3cac6556	0.021044414
173	0xbf00f127	-0.5036797
174	0x3ddb97c0	0.107223034
175	0xbf027e98	-0.50974417
176	0xbf97b9bb	-1.1853555
177	0xbf203ded	-0.6259449
178	0x3e465706	0.19369134
179	0xbd75e484	-0.060032383
180	0x3e9902c1	0.29884914
181	0x3e266b95	0.16251977
182	0x3d44104c	0.047867104
183	0xbfc634b2	-1.5484831
184	0x3e4383dd	0.1909327
185	0xbf7ed37a	-0.9954144
186	0xbe617fce	-0.2202141
187	0xbe812c05	-0.25228897
188	0xbf12a75a	-0.5728661
189	0xbf81e5e6	-1.0148284
190	0xbf01d925	-0.5072196
191	0xbe58471c	-0.21120876
192	0xbfb910e5	-1.4458281
193	0x3e40b0fb	0.18817513
194	0xbd04aced	-0.032391477
195	0xbc3fecbe	-0.011714159
196	0xbe5d4043	-0.21606545
197	0x3f1d0255	0.61331683
198	0xbfb997f7	-1.4499501
199	0xbd1d64da	-0.038426258
200	0x3a86efd1	0.001029486
201	0xbed2e9ac	-0.41193902
202	0x3ccea4da	0.025225092
203	0xc0160e7e	-2.3446345
204	0xbe2b8418	-0.16749609
205	0x3ea293a9	0.3175328
206	0xbf10b072	-0.56519234
207	0xbfcb11ff	-1.5864867
208	0xbf396757	-0.7242331
209	0x3f3faa50	0.7486925
210	0xbd82dce4	-0.06389788
211	0xbe1b96cb	-0.15194242
212	0xc05a7db0	-3.4139214
213	0x3ebba185	0.36646667
214	0xc08f2c28	-4.47414
215	0xbe81cc61	-0.2535124
216	0xbd0c692d	-0.03427999
217	0xbeedebb2	-0.46468884
218	0x3ee94301	0.45558932
219	0xbeee0921	-0.4649134
220	0xbe8c6672	-0.2742191
221	0x3e25a228	0.16175139
222	0x3ef19b68	0.47188878
223	0x3cddd446	0.027078759
224	0x3e73f156	0.23822531
225	0xbf721924	-0.9456961
226	0x3eaf31d3	0.342177
227	0x3c8f549a	0.017496396
228	0x3eb4633e	0.35231966
229	0xbb572696	-0.0032829395
230	0xc0b0feda	-5.53111
231	0xbe95efae	-0.29284424
232	0xbd170175	-0.036866624
233	0x3ec63b53	0.38717136
234	0xbff802bd	-1.9375836
235	0x3d4a8bbe	0.049449675
236	0x3ef8cbcf	0.48592994
237	0xbcc27612	-0.023737941
238	0xbc2ed3c7	-0.010670609
239	0xc06cadb5	-3.6981022
240	0xbebea87f	-0.37237927
241	0xc08ae1f9	-4.3400846
242	0xbecc32e7	-0.39882585
243	0x3fe82e9c	1.8139224
244	0x3f3e31a7	0.74294513
245	0xbe583f57	-0.21117912
246	0xbea1d288	-0.31605935
247	0x3c232322	0.009957107
248	0x3f661ce1	0.89887816
249	0xbf238712	-0.63877976
250	0xbca13b73	-0.019681668
251	0xbd06e4ea	-0.032933153
252	0x3ec40f81	0.3829308
253	0x3ed7a0ab	0.42114767
254	0xbead6584	-0.33866513
255	0xbe89da41	-0.26924327

net.0.bias f4 [128]
0	0xbeda46fc	-0.42632282
1	0xbe25a303	-0.16175465
2	0x3b92fbbe	0.0044855764
3	0xbec405bf	-0.38285634
4	0x3e804679	0.25053766
5	0xbc660f60	-0.014041752
6	0xbe1e9bde	-0.15489146
7	0x3e207e92	0.15673283
8	0x3e9c8228	0.3056805
9	0xbead6702	-0.3386765
10	0x3a132e55	0.0005614509
11	0x3e6a0682	0.22854045
12	0xbef1bbd4	-0.47213614
13	0xbdc31fe7	-0.09527569
14	0xbe5137f8	-0.20431507
15	0xbe9aaad6	-0.30208462
16	0x3d8c9e09	0.0686608
17	0x3ecadd40	0.39621925
18	0x3e156b96	0.14591822
19	0xbeb84b55	-0.35994974
20	0x3e25e311	0.161999
21	0x3d98abef	0.07454669
22	0xbee57f6c	-0.44823778
23	0x3e9bc7a1	0.30425742
24	0x3e02c441	0.12770177
25	0xbeaf321f	-0.34217927
26	0x3e4c2c26	0.19938716
27	0x3b6156ae	0.003438394
28	0xbe7a7384	-0.24458128
29	0x3ec518c7	0.38495466
30	0x3d98eac7	0.07466655
31	0xbe332b3d	-0.17496963
32	0x3df22cc0	0.11824942
33	0xbea21b02	-0.3166123
34	0xbaa28d92	-0.001240181
35	0x3db9d184	0.09073165
36	0xbe6fcc3e	-0.23417756
37	0xbe851e01	-0.25999454
38	0xbe324a3e	-0.17411134
39	0x3e9f4a25	0.31111255
40	0xbe834017	-0.25634834
41	0x3daacc5c	0.0833976
42	0xbc130812	-0.008974092
43	0x3ed4856f	0.41508052
44	0xbea0aef3	-0.31383476
45	0x3c3442d1	0.011002258
46	0xbd86d22e	-0.06583057
47	0xbd8a09ad	-0.06740127
48	0xbd5ab2ca	-0.053393163
49	0x3de746ea	0.11292823
50	0x3db1b4a9	0.08677036
51	0xbe025b7a	-0.12730208
52	0xbe459730	-0.19295955
53	0xbcfad476	-0.030618887
54	0xbe7f0736	-0.24905095
55	0x3d2016e3	0.039084326
56	0xbed70572	-0.41996342
57	0xbea36194	-0.31910384
58	0xbe261eb2	-0.16222647
59	0xbe754245	-0.23951061
60	0xbe62e5b0	-0.22157931
61	0xbd2f12ba	-0.04274247
62	0xbd3086e3	-0.043097388
63	0xbe39e632	-0.18154219
64	0xbee4a324	-0.44655716
65	0xbd52e5c0	-0.051488638
66	0xbeb09595	-0.34489122
67	0x3e20050c	0.15626925
68	0xbe60aa72	-0.2194002
69	0x3e08cb7d	0.13358875
70	0xbe1d87ce	-0.15383837
71	0xbe5125ea	-0.2042462
72	0x3cb56872	0.02214453
73	0xbded792f	-0.115953796
74	0xbe72ae2a	-0.23699251
75	0x3d8dcc76	0.069237635
76	0x3cba119a	0.022713471
77	0x3ec380de	0.38184255
78	0xbe83125f	-0.25599954
79	0xbd507f6b	-0.050902765
80	0xbed07910	-0.40717363
81	0x3c962f78	0.018333182
82	0x3d57d383	0.052691948
83	0xbe8ae80d	-0.27130166
84	0x3e282d6b	0.16423576
85	0xbe834b2f	-0.25643298
86	0xbd19b320	-0.037524343
87	0x3c45ff39	0.012084776
88	0xbe0daeab	-0.13836162
89	0xbc58f24b	-0.013241361
90	0xbe480eac	-0.19536847
91	0xbe312715	-0.17300065
92	0xbe9a69ac	-0.30158746
93	0xbde3f46f	-0.111306064
94	0x3e9d351b	0.3070458
95	0xbe963cad	-0.29343167
96	0x3dbea645	0.09309057
97	0x3ca4ecdc	0.020132475
98	0xbe61d3f3	-0.22053508
99	0xbe722b1d	-0.23649259
100	0xbe3f1750	-0.18661237
101	0x3e8b83ad	0.27248898
102	0xbeb372b8	-0.3504846
103	0xbc9e25fd	-0.019305224
104	0x3d92c585	0.0716658
105	0xbd91e255	-0.071232475
106	0x3dd77d96	0.105220005
107	0xbe9b9d2f	-0.3039336
108	0x3d09e7dd	0.033668388
109	0x3d445356	0.047931038
110	0xbd8ea289	-0.06964595
111	0xbe491f50	-0.19640851
112	0xbd05a9ce	-0.03263264
113	0x3e283ac6	0.1642867
114	0xbe9a6f6c	-0.30163133
115	0x3d060c70	0.032726705
116	0xbccfdd53	-0.02537409
117	0xbed5d6d2	-0.41765457
118	0xbca139c3	-0.019680863
119	0xbd87dbaa	-0.066336945
120	0xbeb35b75	-0.35030714
121	0xbe2e18e7	-0.17001687
122	0xbdf5c660	-0.12000728
123	0xbe314996	-0.17313227
124	0x3d9658e0	0.0734117
125	0xbe91c9a4	-0.28474152
126	0x3e3285b0	0.1743381
127	0xbc95d2bf	-0.018288968

net.2.weight f4 [128, 128]
0	0x3c8bf1ad	0.017083013
1	0x3d7f5892	0.062340327
2	0x3ea81f7f	0.3283653
3	0xbdbe50f6	-0.09292786
4	0x3cac4284	0.02102781
5	0xbc9c02ec	-0.019044362
6	0xbe4c2281	-0.19935037
7	0x3f04d2f5	0.51884395
8	0xbb9829b5	-0.0046436437
9	0xbfd33669	-1.650098
10	0xbe578abe	-0.2104902
11	0x3e35aa23	0.17740683
12	0xbfdb3a72	-1.7127211
13	0xbd845b42	-0.064627185
14	0xbe21ec1c	-0.15812725
15	0xbe0e770b	-0.13912599
16	0x3da1da4a	0.079029635
17	0xbda6c89e	-0.081437334
18	0x3eb81475	0.35953107
19	0xbfa3a038	-1.278327
20	0xbeaa85d5	-0.3330523
21	0x3eba12e2	0.3634253
22	0xbda5aef2	-0.08090009
23	0xbdee0a1c	-0.11623022
24	0x3d5bda5f	0.05367505
25	0xbe2f8737	-0.17141424
26	0xc006552b	-2.0989482
27	0xbf8c7838	-1.0974188
28	0x3e74accd	0.23894043
29	0x3efd62c5	0.49489418
30	0x3e3a37f8	0.18185413
31	0xbf797ed8	-0.97459173
32	0x3c9fbcc2	0.019499186
33	0xbfbd7811	-1.4802266
34	0x3e469e67	0.19396363
35	0xbe97f7a7	-0.2968113
36	0xbc524391	-0.012833492
37	0xbe96d6dc	-0.294608
38	0xbed92d5f	-0.42417428
39	0x3e4eff5d	0.20214601
40	0xbd5c4727	-0.053778794
41	0x3e337c63	0.17527919
42	0x3dea0cbb	0.114282094
43	0x3f0ed981	0.55800635
44	0xbe6f540b	-0.23371904
45	0xbe075ec0	-0.13219738
46	0x3f0d3f14	0.55174375
47	0xbfbe5b20	-1.4871559
48	0x3d9524dc	0.07282421
49	0x3eeb85b5	0.46000448
50	0xbd8e8bbc	-0.06960246
51	0xbb464bff	-0.00302577
52	0x3d7dfed2	0.062010594
53	0xbe985756	-0.29754132
54	0x3d40f49e	0.047108285
55	0x3b98e260	0.004665658
56	0xbf1f6c95	-0.6227506
57	0xbd3719b3	-0.044702243
58	0x3d9361d5	0.07196394
59	0xbec3ab04	-0.38216412
60	0xbd556d88	-0.05210641
61	0x3da5f9da	0.08104296
62	0x3e112515	0.14174302
63	0xbf6743e4	-0.9033797
64	0xbe6b998e	-0.23007795
65	0x3e854b08	0.26033807
66	0xbd37d45f	-0.044880267
67	0xbe60d79b	-0.21957247
68	0xbf7d1001	-0.98852545
69	0xbf3ba53c	-0.73299
70	0x3d97f8ca	0.074204996
71	0xbebeb70e	-0.37249035
72	0xbde6e853	-0.11274781
73	0x3c0c61e5	0.008568262
74	0x3d5a0236	0.053224765
75	0x3e968022	0.29394633
76	0x3e2d0c15	0.1689914
77	0xc0152f18	-2.3309994
78	0xbd935d24	-0.071954995
79	0x3cee4d60	0.02908963
80	0x3d88db2d	0.066824295
81	0x3e2e749c	0.1703667
82	0x3e99a13d	0.30005828
83	0xbdaddd52	-0.08489479
84	0x3e101169	0.14069141
85	0x3d33bd53	0.043881726
86	0xbcdd28fa	-0.026997078
87	0xbe9be973	-0.30451545
88	0x3e0540e4	0.13013035
89	0xbe5b0a2d	-0.213906
90	0xbe8cd563	-0.2750655
91	0x3e3ba5cb	0.18324964
92	0x3c8006b0	0.015628189
93	0xbf5baa48	-0.85806704
94	0xbefbe65e	-0.49199194
95	0xc00d4251	-2.2071726
96	0xbdbd2a2e	-0.09236561
97	0x3e9558f4	0.29169428
98	0xbd066f19	-0.032820795
99	0x3d415834	0.047203258
100	0x3c188f70	0.009311542
101	0xbe9c4f80	-0.30529404
102	0x3b726dd0	0.0036991723
103	0x3e8ec5b9	0.27885225
104	0x3d8bc4f9	0.06824679
105	0xbe00294e	-0.12515756
106	0x3df96264	0.1217697
107	0xbedffee7	-0.43749163
108	0x3caad256	0.02085225
109	0x3dc058c9	0.093919344
110	0x3de3ce9a	0.111233905
111	0x3d80c54b	0.06287631
112	0xbeda5e4b	-0.42650065
113	0x3d34207b	0.04397629
114	0xbbd8eb2e	-0.0066198325
115	0x3d99afbd	0.075042225
116	0x3e07ee10	0.13274407
117	0xbc9023ed	-0.017595256
118	0x3e3ac835	0.18240435
119	0xbfe0f5f3	-1.7575058
120	0xbe1f9e8e	-0.15587828
121	0xbeebdac4	-0.46065342
122	0xbd84a9c5	-0.064776935
123	0x3c93517d	0.017983193
124	0xbe03b976	-0.12863716
125	0xbe2d7f15	-0.16943009
126	0x3eaa377c	0.33245456
127	0x3f09421c	0.536165
128	0x3b35fe52	0.0027769995
129	0xbdc6cee4	-0.0970743
130	0xbf525d53	-0.8217365
131	0xbe4b3da2	-0.1984773
132	0x3de6cdc3	0.11269715
133	0xbd2bc82d	-0.04193895
134	0x3e7c15b1	0.2461765
135	0x3cdff518	0.02733855
136	0xbd571f6c	-0.0525202
137	0xbed5d3ec	-0.41763246
138	0xc0016e56	-2.0223594
139	0x3e622713	0.22085218
140	0x3e1447bb	0.14480488
141	0x3da98e17	0.082790546
142	0xbe61b07e	-0.22039983
143	0x3eccc4f1	0.39994004
144	0x3d477852	0.04869873
145	0xba9b040f	-0.0011826771
146	0x3e49f5aa	0.1972262
147	0x3ea6e0b1	0.325933
148	0xbd2433df	-0.04008853
149	0xbebe3ad9	-0.37154272
150	0xbf1c0f34	-0.609607
151	0xc0894397	-4.2895007
152	0xbf4147a0	-0.75499916
153	0x3ec2c5a1	0.38041404
154	0xbf15b208	-0.5847478
155	0xc0015c8e	-2.021274
156	0xbda8481b	-0.08216878
157	0x3e80ab7a	0.25130826
158	0x3e7f3086	0.24920854
159	0xbe072f17	-0.13201557
160	0x3e115552	0.14192703
161	0xbee4f7e9	-0.4472039
162	0x3e46f635	0.19429858
163	0x3e9ba197	0.3039672
164	0xbc887328	-0.016656473
165	0x3df54209	0.11975486
166	0xbf48d1b1	-0.78444964
167	0x3e9395f2	0.28825337
168	0x3d796da2	0.06089557
169	0x3e4c5f0c	0.19958133
170	0xbafc0cb3	-0.0019229859
171	0x3ed578d6	0.41693753
172	0xbbd80704	-0.006592633
173	0x3dd65f29	0.10467369
174	0x3ebdbc35	0.37057653
175	0xbfbbabed	-1.4661843
176	0xbdec0ca9	-0.11525852
177	0x3e32e2cc	0.17469329
178	0x3cd23cbd	0.025663728
179	0x3dcfba6f	0.10142981
180	0x3c6afdd0	0.01434274
181	0x3c3728cf	0.011179163
182	0xbd8ff091	-0.07028306
183	0xbef6b397	-0.4818389
184	0x3e8199a9	0.25312546
185	0xbe080030	-0.13281322
186	0x3db98743	0.09059002
187	0x3e91f6e8	0.28508687
188	0x3daae22d	0.08343921
189	0x3d83c703	0.06434443
190	0xbe79c4cd	-0.2439148
191	0xbf9fdc72	-1.248915
192	0x3d9ad074	0.075592905
193	0x3de775d4	0.11301771
194	0x3dcd0fd3	0.10012784
195	0xbf8beb83	-1.0931247
196	0xbd5bdc8c	-0.053677127
197	0x3ebdab8a	0.37044936
198	0x3ce88010	0.028381377
199	0x3dfa36e2	0.12217499
200	0x3e83749a	0.25674897
201	0x3ddd4ec3	0.10806038
202	0x3cde4136	0.027130704
203	0x3df95ed6	0.12176292
204	0xbdef564d	-0.116863824
205	0xc089734a	-4.2953234
206	0xbcaf2c98	-0.021383569
207	0x3e360556	0.17775473
208	0xbd3475e2	-0.044057734
209	0x3d43278d	0.04764514
210	0x3aca1c5e	0.0015419831
211	0x3c9fa4a8	0.019487694
212	0xbeb3965a	-0.35075647
213	0xbf24570f	-0.6419534
214	0x3d15774c	0.036490723
215	0xbe72c390	-0.23707414
216	0xbe271f82	-0.16320613
217	0xbe910e28	-0.28331113
218	0x3e1e8910	0.15481973
219	0xbe89cfdb	-0.26916394
220	0x3d3071be	0.043077223
221	0x3f0a1d66	0.5395111
222	0xc045859b	-3.0862796
223	0xbfb7d41e	-1.4361608
224	0xbe07481e	-0.13211104
225	0x3e40bff6	0.18823227
226	0x3d926d85	0.071497954
227	0xbeed90ad	-0.4639944
228	0xbd3eb466	-0.04655876
229	0xbf4f0d2f	-0.8087949
230	0x3d1fbaae	0.03899639
231	0xbd130098	-0.035889238
232	0xbef80563	-0.4844161
233	0x3ea3023b	0.3183764
234	0xbeafe4a3	-0.34354123
235	0xbef5e159	-0.4802349
236	0xbe42f6f2	-0.19039515
237	0xbf92f44c	-1.1480803
238	0xbe4275e7	-0.18990289
239	0xbe9234f9	-0.2855604
240	0x3d053797	0.032523718
241	0xbfd3ed5c	-1.6556811
242	0x3c5cfa76	0.013487449
243	0x3c656f28	0.0140035525
244	0xbfe5b8be	-1.7947004
245	0xbe345ae0	-0.17612791
246	0xbea3727b	-0.3192328
247	0x3da3a2f7	0.079900675
248	0x3e0ea424	0.13929802
249	0xbfca9215	-1.5825831
250	0xbc74ee38	-0.014949374
251	0xbe855bd5	-0.26046625
252	0xbdb8ebd0	-0.09029353
253	0x3e8a33d2	0.2699266
254	0xbef3258c	-0.47489583
255	0x3d8bbbdf	0.06822943

net.2.bias f4 [128]
0	0x3eaac5c1	0.33354
1	0x3e4d946b	0.20076148
2	0x3e3dbaf8	0.18528354
3	0xbe0886e2	-0.13332704
4	0x3e312103	0.17297749
5	0xbe629b8c	-0.22129649
6	0x3e3d9026	0.1851202
7	0x3da6b0a9	0.08139164
8	0xbe2f74b2	-0.1713436
9	0xbdaba919	-0.08381862
10	0xbd4e8c18	-0.050426573
11	0x3e1f8bdc	0.15580696
12	0xbd90a30f	-0.07062351
13	0xbd901102	-0.07034494
14	0x3c2a2767	0.010385371
15	0x39eeaa9f	0.0004552202
16	0x3e2a9ad3	0.16660623
17	0x3d9a9892	0.07548632
18	0x3e72d4cc	0.23713988
19	0xbd89a814	-0.067215115
20	0x3f028a09	0.50991875
21	0x3ccc232f	0.02491912
22	0xbcf274c1	-0.029596688
23	0x3eb6b264	0.35682976
24	0x3e6bc28b	0.23023431
25	0xbd46b2ef	-0.048510488
26	0x3d3696d6	0.044577442
27	0xbe18b516	-0.14912829
28	0x3ec31feb	0.3811029
29	0xbe0c3ea8	-0.13695776
30	0xbd930dc5	-0.07180361
31	0xbdd3f030	-0.103485465
32	0xbdabc250	-0.083866715
33	0xbe12a041	-0.14318945
34	0x3cd49628	0.025950506
35	0xbe16a833	-0.147126
36	0xbe528bcd	-0.20561142
37	0xbd3c0232	-0.04590053
38	0xbda3001f	-0.079590075
39	0x3cabe544	0.020983346
40	0xbd911a35	-0.07085077
41	0xbd9d4346	-0.07678847
42	0xbdf9fc00	-0.12206268
43	0xbd9113ab	-0.070838295
44	0xbcad4425	-0.021150658
45	0xbc222dad	-0.009898585
46	0xbe034dbc	-0.12822622
47	0x3ead7775	0.338802
48	0xbdd33f52	-0.10314812
49	0x3e0cfbdc	0.13767952
50	0xbd5e7422	-0.05430997
51	0xbe06d2eb	-0.13166396
52	0xbdc0ef35	-0.09420625
53	0xbcb67697	-0.022273345
54	0xbd2f9914	-0.042870596
55	0x3c9d80a5	0.019226382
56	0xbdc8547a	-0.097817376
57	0xbdb946ac	-0.09046683
58	0x3c27b072	0.010234939
59	0xbd2c1c4a	-0.042019166
60	0x3eb2744f	0.3485436
61	0xbdcd5060	-0.10025096
62	0x3d7a893d	0.061166037
63	0xbe5e001b	-0.21679728
64	0xbcb6d4ed	-0.022318328
65	0xbda58c27	-0.080833726
66	0x3f0170d4	0.5056279
67	0xbd406bd2	-0.046977825
68	0xbd0c4b64	-0.034251586
69	0x3ea3f309	0.3202136
70	0xbde99630	-0.11405599
71	0x3c068b1a	0.008211875
72	0xbce7a3f7	-0.028276427
73	0x3c5ae8dd	0.013361183
74	0x3db9479c	0.090468615
75	0x3ea415ab	0.3204778
76	0x3e32425e	0.1740813
77	0xbdd203e8	-0.10254651
78	0xbdd0baf5	-0.10191909
79	0xbde1c3a9	-0.11023647
80	0xbdefb57c	-0.11704537
81	0xbd26a907	-0.04068854
82	0xbdaa891a	-0.08326931
83	0xbc9fceb1	-0.019507738
84	0x3d7bea67	0.06150284
85	0xbcb74daf	-0.02237591
86	0xbdd99d6f	-0.10625731
87	0x3be3e371	0.0069546034
88	0xbd9f2f9d	-0.077727534
89	0x3eaae0ec	0.33374727
90	0x3ed6306e	0.41833824
91	0x3e29fec8	0.16601098
92	0x3e0d7608	0.13814557
93	0xbc4a39e0	-0.0123429
94	0x3d9c3789	0.0762778
95	0xbd3b8ee5	-0.04579057
96	0xbda6ca9d	-0.08144114
97	0xbcbfda05	-0.02341939
98	0x3d3c1346	0.045916818
99	0x3dac09a9	0.0840028
100	0xbe136dad	-0.14397307
101	0x3e4816ed	0.19539995
102	0xbd05adcd	-0.032636452
103	0x3e557ef8	0.20849216
104	0xbd1d0a9b	-0.038340192
105	0x3d856893	0.065140866
106	0xbd801e38	-0.06255764
107	0xbe0a3999	-0.13498534
108	0xbdc8fa19	-0.09813327
109	0xbe4d36ae	-0.2004039
110	0xbd5029b0	-0.050821006
111	0xbdd8264f	-0.10554182
112	0xbcee013c	-0.029053323
113	0x3d9a9029	0.075470276
114	0xbd947a49	-0.072498865
115	0xbd8a542c	-0.06754336
116	0xbc826f37	-0.015922172
117	0xbd08c725	-0.033393044
118	0xbd80c677	-0.06287854
119	0x3c08e79a	0.008355999
120	0xbda81e47	-0.082089
121	0xbd4d24f8	-0.050084084
122	0xbbf79c32	-0.0075564617
123	0xbdfe6e6f	-0.12423407
124	0xbe0fa843	-0.1402903
125	0xbdfe1e8f	-0.12408172
126	0x3d2337f1	0.03984827
127	0xbda6bd29	-0.08141548

net.4.weight f4 [2, 128]
0	0x3f66c7c6	0.9014858
1	0x3feeff6b	1.8671697
2	0x3fcede9c	1.6161685
3	0xbf61b0fd	-0.8816069
4	0xbeb998e4	-0.3624946
5	0xbf2f1cd5	-0.6840337
6	0x3f6d97e1	0.92809874
7	0xbedeec41	-0.43539622
8	0x3ec4af28	0.38414884
9	0xbd297625	-0.041372437
10	0xc00a8e31	-2.1649287
11	0xbf984d82	-1.1898654
12	0xba4eddce	-0.0007891328
13	0x3d81bd59	0.06334943
14	0xbc33270b	-0.010934602
15	0xbd9219ea	-0.07133849
16	0x3fc2d382	1.5220797
17	0xbf94ac92	-1.1615164
18	0xbf517eed	-0.818343
19	0x3d273758	0.040824264
20	0x3e551d4f	0.20811962
21	0xbf4fab4d	-0.8112076
22	0x40056154	2.0840654
23	0x3e961912	0.29316002
24	0xbf8b0e94	-1.0863824
25	0xc02e0d72	-2.7195706
26	0xbf35200a	-0.7075201
27	0x3d15b3f4	0.03654857
28	0x3fb8d567	1.4440125
29	0xbe52d597	-0.2058929
30	0xbc23d275	-0.009998907
31	0x3f456a1e	0.77115047
32	0x3f8b82a6	1.0899246
33	0x3f2520da	0.6450325
34	0x40023b89	2.0348837
35	0xbf472f0e	-0.77806175
36	0xbf57cfab	-0.8430125
37	0xbc7e1572	-0.015508043
38	0x3f72b1e5	0.94802696
39	0xbda1f0b1	-0.07907236
40	0x3c39249c	0.011300232
41	0x3c44dd85	0.012015705
42	0x3c7b1136	0.015323928
43	0xbcae426c	-0.021271907
44	0x3db36bbd	0.08760784
45	0x3d845089	0.06460673
46	0xbf447137	-0.7673525
47	0x3e8be833	0.2732559
48	0xbd1abc5e	-0.037777297
49	0xbe940fc7	-0.28918287
50	0x3d071385	0.0329776
51	0xbaea945e	-0.0017897
52	0xbd22c590	-0.03973919
53	0x3ba2b2f8	0.0049651824
54	0x3d745697	0.05965289
55	0x3c0c1ef0	0.008552298
56	0xbf57acfc	-0.8424833
57	0x3d49ccde	0.049267642
58	0x3c7efd44	0.015563313
59	0xbcf3eee2	-0.029776994
60	0x3e56112e	0.20904991
61	0xbc1c2267	-0.0095296865
62	0xbdceb1ba	-0.100924924
63	0xbd6554cc	-0.05598907
64	0xbd912375	-0.07086841
65	0xbccc9f64	-0.024978347
66	0xbf83427d	-1.0254666
67	0xbfcb7918	-1.589633
68	0xbd3ab4c6	-0.045582555
69	0x3fc5be55	1.544871
70	0x3e849d69	0.25901344
71	0xbcffd4d3	-0.031229412
72	0xbccec889	-0.025242107
73	0x3aa276bd	0.0012395006
74	0xbfd208ab	-1.6408895
75	0x3e975830	0.2955947
76	0x40039b1a	2.0563416
77	0xbc631e14	-0.013862152
78	0xbc746db5	-0.014918734
79	0x3cf52592	0.029925141
80	0xbd608d87	-0.05482247
81	0x3f8d0137	1.1015996
82	0x3e7d4ea0	0.24737024
83	0x3d370578	0.04468295
84	0xbff34f83	-1.900864
85	0x3d0ab12c	0.03386037
86	0x3dc81781	0.09770108
87	0xbc97b98c	-0.018521093
88	0x3da94077	0.08264249
89	0xbf8e4332	-1.1114256
90	0xbf8edbeb	-1.1160864
91	0x3d75644d	0.059910107
92	0x3fa750b0	1.3071499
93	0x3f3f8535	0.7481263
94	0xbeef33c1	-0.46719173
95	0x3d3f85fe	0.046758644
96	0xbdbad70d	-0.09123049
97	0xbc31adc3	-0.010844651
98	0x3ff22322	1.8916972
99	0xbe248885	-0.16067703
100	0x3d9dd189	0.07705981
101	0x3d7da18a	0.061921634
102	0x3f02b590	0.5105829
103	0x3f09152a	0.5354792
104	0xbb95be9d	-0.004569842
105	0x3f8be423	1.0928997
106	0xbd8930ea	-0.06698783
107	0x3f431115	0.7619794
108	0x3f54c286	0.8310932
109	0xbf30f0f4	-0.69117665
110	0x3f7b3bf6	0.9813837
111	0xbdb6b060	-0.089203596
112	0xbc956f57	-0.018241568
113	0xbb488672	-0.0030597714
114	0x3c76bf74	0.015060294
115	0x3c92b087	0.01790644
116	0xbe43e15c	-0.19128937
117	0x3d1c2882	0.03812457
118	0xbd183e8d	-0.037169028
119	0xbc60a19c	-0.013710406
120	0xbd9cf8d1	-0.076646455
121	0xbcf8bbaa	-0.030362923
122	0x3ba9cd3f	0.005181938
123	0x3cce213b	0.02516233
124	0x3f7ecd9d	0.9953249
125	0xbd0b4135	-0.033997733
126	0xbd63594e	-0.05550509
127	0x3c067350	0.008206204
128	0x3f113a62	0.5672971
129	0x400e8812	2.227055
130	0x3ff2f8e7	1.8982209
131	0xbee2c5a0	-0.442914
132	0xbe49fcfd	-0.19725414
133	0x3dec5711	0.11540044
134	0x3f79a727	0.9752068
135	0xbfa51f33	-1.2900146
136	0xbef9689a	-0.48712617
137	0x3c6160c0	0.013755977
138	0xbf9ea535	-1.2394167
139	0xbf8835f7	-1.0641469
140	0x3bc63cd0	0.00604973
141	0xbb80660d	-0.0039184154
142	0xbd13fed5	-0.0361317
143	0xbc04e756	-0.008111795
144	0xbf2744d3	-0.6533939
145	0xbc1e4a72	-0.009661304
146	0xbf1d2997	-0.61391586
147	0x3a44a0ed	0.00075007865
148	0x3e647a7e	0.22312352
149	0xbfb59976	-1.4187458
150	0x400030b7	2.0029733
151	0x3ecf2121	0.40454963
152	0xbf8a5900	-1.0808411
153	0x3b22e7e3	0.0024857454
154	0xbed97ec0	-0.42479515
155	0xbcd2d8a9	-0.025738077
156	0xbf2c372a	-0.67271674
157	0x3dd75273	0.10513773
158	0xbccb0e90	-0.024787217
159	0x3f1e8da6	0.6193489
160	0xbf871f54	-1.0556436
161	0xbe48dfd8	-0.1961664
162	0x3ffbe3b5	1.9678866
163	0x3dee01e9	0.11621458
164	0xbef781e3	-0.48341283
165	0x3d477386	0.048694156
166	0x3e93df1b	0.28881153
167	0x3d789fba	0.060699202
168	0xbbfeee29	-0.0077798557
169	0x3cb10a2a	0.021611292
170	0xbc53d487	-0.012929088
171	0x3da001d3	0.07812848
172	0x3c838bef	0.016057936
173	0xbdd5df97	-0.10443037
174	0xbfcfe5ba	-1.6241982
175	0x3eaa9378	0.33315635
176	0xbd6a6227	-0.05722251
177	0xbe7927e0	-0.24331617
178	0x3cc43f05	0.023955831
179	0x3ca0aa5c	0.019612484
180	0xbd599f50	-0.053130448
181	0x3d116eb2	0.035505958
182	0x3cbcaf07	0.023032678
183	0xbbe094ce	-0.0068536764
184	0xbf5282ac	-0.8223064
185	0x3d013abc	0.031550154
186	0xbc841a74	-0.016125895
187	0xbd024cfe	-0.031811707
188	0x3d7debbf	0.061992403
189	0x3d7a89d7	0.06116661
190	0x3d5a07eb	0.053230207
191	0xbe288a6b	-0.16459052
192	0x3d3db1cf	0.04631215
193	0xbc296f37	-0.010341457
194	0xbfa606de	-1.2970846
195	0x3f283036	0.65698564
196	0x3c557f7b	0.013030882
197	0x3ec274e8	0.37979817
198	0x3f7cc397	0.98735946
199	0x3cae63a8	0.021287754
200	0x3d1d1571	0.038350526
201	0xbd16b628	-0.03679481
202	0xbfb8e691	-1.4445363
203	0x3eb03dc9	0.34422138
204	0x3fe977f2	1.823973
205	0xbbcc85a1	-0.0062415157
206	0x3c4adac8	0.012381263
207	0x3d8e97ff	0.06962585
208	0xbd68c974	-0.056832746
209	0x3f6cd3a0	0.92510414
210	0xbff3c50b	-1.9044508
211	0x3c8fd116	0.017555755
212	0xbe877931	-0.2645965
213	0xbcae4fb6	-0.021278244
214	0xbc2867ea	-0.010278681
215	0xbc7c96e2	-0.015416833
216	0xbd5e47c6	-0.054267667
217	0xbf8dc8c6	-1.1076896
218	0xbf803309	-1.0015575
219	0x3db62a94	0.0889484
220	0x3f4e717c	0.80641913
221	0x3f127d53	0.5722248
222	0xbf8de45b	-1.1085314
223	0xbdc18454	-0.09449068
224	0xc0113933	-2.2691162
225	0xba18ac06	-0.00058239733
226	0x3fe2e0e7	1.7724885
227	0xbe04a2d5	-0.1295274
228	0x3fc4bb50	1.5369663
229	0x3f404fc9	0.7512174
230	0x3f8d1b28	1.1023912
231	0x3f346db8	0.7047992
232	0xbb27e663	-0.00256195
233	0x3ee55287	0.44789526
234	0x3eb1fe2c	0.3476423
235	0xbe5e0480	-0.21681404
236	0xbee7ab98	-0.45248103
237	0xbe16078e	-0.1465132
238	0x3e997591	0.2997251
239	0xbd37986e	-0.044823103
240	0xbc5bccaa	-0.013415495
241	0xbc8c55ff	-0.01713085
242	0xbcbb4af0	-0.022862881
243	0xbcae5785	-0.021281967
244	0xbf0384e1	-0.5137463
245	0x3b4fbe00	0.0031698942
246	0xbd5ce89f	-0.053932782
247	0xbb03d39b	-0.002011514
248	0x3c66d368	0.014088489
249	0x3d550ba8	0.05201307
250	0x3cb3790b	0.021908304
251	0xbd224a8b	-0.03962187
252	0x3f630d97	0.8869261
253	0xbef0d834	-0.4703995
254	0xbd3c1e56	-0.045927368
255	0xbcbcd82c	-0.023052298

net.4.bias f4 [2]
0	0x3deffceb	0.11718162
1	0x3da789b8	0.08180565
