checkpoints/geometry_ep500.pth (torch, 75369 bytes, 6 tensors)

net.0.weight f4 [128, 9]
000000 e2 cf 02 bf ba 88 b9 3e b0 f3 bb be e0 b6 a7 bd
       -0.51098454 0.36237127 -0.36709356 -0.081891775
000010 b5 e0 bb bd 70 8f bb be 83 ef b8 be d0 74 d9 3d
       -0.09173719 -0.36632872 -0.36120233 0.10617983
000020 1e 69 be be 42 b9 00 c0 10 5c a2 be c6 65 2e 3f
       -0.37189573 -2.0113072 -0.31710863 0.68124044
000030 a0 f9 aa 3e 7c 8e 66 3c ad 2e de bf ad 6c 2c 3e
       0.33393574 0.014072057 -1.7357994 0.16838332
000040 4e b6 b4 3d 57 54 85 3c ad c3 52 c0 93 b3 91 bd
       0.08823834 0.016275568 -3.293193 -0.07114329
000050 0e 45 51 3e 19 cb 33 bd 3a ef a3 bd 5d 61 8c c0
       0.20436499 -0.04389486 -0.08004613 -4.386885
000060 41 0f 51 be ef d0 90 3d 5b 88 94 3c 6f c3 0f c0
       -0.20415975 0.07071101 0.018131426 -2.2463033
000070 de ea 02 3e 6f b7 f3 be 51 77 83 3e ba ac f2 bd
       0.12784907 -0.47600886 0.2567697 -0.11849351
000080 ce a7 c8 bf d0 aa 25 3f 60 7e 37 3c 93 27 f6 39
       -1.567621 0.64713764 0.011199564 0.00046950261
000090 11 94 12 40 76 f8 36 bf 2f 94 e9 3e e8 8f 19 3e
       2.2902873 -0.7147287 0.45620868 0.14996302
0000a0 28 7f ad be 55 0b a9 40 13 ed 65 3e 56 fa 99 3d
       -0.33886075 5.2826333 0.22453718 0.07518451
0000b0 22 49 af 3d a7 16 a5 be fc 51 85 bd a8 70 3c 3d
       0.08558871 -0.32243845 -0.06509778 0.046005875
0000c0 00 80 ef 3d 80 47 19 bb 40 dc 3a bd 24 13 88 be
       0.11694336 -0.0023388565 -0.045620203 -0.26577103
0000d0 34 81 9c bd 10 bb 83 bd 6b 2d 84 3f 5c 1f 4a be
       -0.07641831 -0.06432164 1.032636 -0.19738525
0000e0 5f 0b dd be d6 49 dc bb 3e 7b 81 be d5 f7 f9 3d
       -0.43172738 -0.006722669 -0.2528934 0.12205473
0000f0 5e 10 63 3f 91 ae 59 3e 4b 6b ad bd ba 51 1a c0
       0.8869685 0.21257998 -0.0846773 -2.4112382
000100 10 94 9e be 55 d9 d9 3e 81 0f 65 3d f0 62 80 3e
       -0.30972338 0.42548624 0.05592299 0.25075483
000110 de 8c a3 c0 9b df 1b bf bc 99 18 3e 45 97 56 3e
       -5.1109457 -0.6088807 0.14902395 0.20956142
000120 8d 65 12 bc c4 6b 97 3e d0 70 87 bf 8d 71 5e be
       -0.008935344 0.29574406 -1.0581303 -0.21723004
000130 8b ee 55 be bf ec 37 c0 2e fa 31 3d 19 fe 86 bf
       -0.20891778 -2.8738248 0.04345148 -1.0546294
000140 b3 19 80 bf 9f 09 29 c0 bb c3 9c bd ae 4b 1c 3f
       -1.0007843 -2.6412122 -0.0765452 0.6105298
000150 ef 72 51 3e 6a 56 81 bd 69 b3 a5 c0 85 fc ee 3e
       0.20454 -0.0631531 -5.1781507 0.46677032
000160 4e 76 71 3d c3 4e c6 3c dc cc fe bf bd 42 49 bf
       0.058950715 0.024207478 -1.9906268 -0.7861746
000170 73 45 54 be b9 64 4f be 51 96 b6 be bb 29 b0 bf
       -0.20729618 -0.20253266 -0.35661557 -1.3762735
000180 72 89 6b 3f db 5f ca 3d fb 45 7f 3d 56 97 28 40
       0.920066 0.09881564 0.062322598 2.6342368
000190 3c 98 74 3d b2 35 23 bf bc 4c 98 be 3e 5b 36 3d
       0.059715495 -0.6375381 -0.29746044 0.04452061
0001a0 00 0e 3d 40 08 13 32 bf d7 5e bc 3e 1c 6d e4 3d
       2.9539795 -0.6956029 0.36791107 0.111536235
0001b0 52 81 12 3e ca 68 dc 3e 92 2a a8 3c c3 ed e5 3d
       0.14307144 0.43048698 0.020528112 0.1122699
0001c0 6b e9 68 be c6 c2 35 3e 56 27 68 bf 32 d4 ec 3e
       -0.22745292 0.17750081 -0.9068502 0.46255642
0001d0 d3 4d 4c 3e 0c c5 63 be 7a ac 2e be 49 6b 70 3e
       0.19951563 -0.22243136 -0.17057982 0.23478426
0001e0 ea 50 27 3d de 63 18 be cf eb 69 be ac 08 17 be
       0.04084865 -0.14881846 -0.2284386 -0.14749402
0001f0 f5 55 90 be c0 8b be bc 8c 55 20 3f a9 3b 91 3e
       -0.2819058 -0.023259997 0.62630534 0.2836583
000200 15 82 8b bf 98 17 50 bf 7a 83 41 3e 8e a4 a9 c0
       -1.0899073 -0.81286 0.1889781 -5.3013372
000210 6f ba 87 3e 10 a4 9d bd f4 b7 dc be 9c ef 6d bf
       0.26509425 -0.07697308 -0.43109095 -0.9294374
000220 8d a9 29 be 30 a4 5f 3e c5 e4 d0 3e 6a 3f d3 bd
       -0.16568585 0.21839976 0.40799537 -0.1031483
000230 16 cc 61 c0 2d 27 2d bd 1e c9 a0 3e 6a 0c 73 bf
       -3.5280814 -0.04227369 0.3140344 -0.9494082
000240 3a 5d 16 40 89 37 bd be 85 3e 2e 3e e0 37 06 be
       2.34944 -0.36956432 0.17016037 -0.13107252
000250 8c 09 c5 bd 92 a7 76 40 7b 7f f0 3e 10 85 a4 bc
       -0.096209615 3.8539777 0.4697226 -0.02008298
000260 e8 9b 31 3c fd 53 93 3f 03 39 09 3e f3 97 3a be
       0.010840394 1.1510006 0.13400654 -0.18222027
000270 8e a2 73 bc bd 14 ab 3d 31 89 e1 be de a7 db be
       -0.014870299 0.08353565 -0.4404998 -0.4290151
000280 bf e6 b9 be 89 df e8 bd 84 4b 88 3e ad e7 9c 3d
       -0.36308858 -0.11370761 0.26620114 0.07661376
000290 ec 25 e8 be 35 ce 36 3e d2 5a b6 3e 54 1b bc bf
       -0.45341432 0.17852099 0.35616165 -1.469584
0002a0 84 b1 6c bf 6d a2 ee be 8c 4e ad 3e 54 24 be be
       -0.9245837 -0.46608296 0.3384899 -0.3713709
0002b0 56 65 ac 3c 27 f1 00 bf c0 97 db 3d 98 7e 02 bf
       0.021044414 -0.5036797 0.107223034 -0.50974417
0002c0 bb b9 97 bf ed 3d 20 bf 06 57 46 3e 84 e4 75 bd
       -1.1853555 -0.6259449 0.19369134 -0.060032383
0002d0 8b 79 07 3f 61 03 ba 3d 52 68 83 3d ef 34 d3 bf
       0.52919835 0.09082676 0.06416382 -1.6500529
0002e0 f3 99 58 3e bb e5 67 bf 3d f5 0f be 6d 78 bb be
       0.21152477 -0.90584916 -0.14058395 -0.36615315
0002f0 c6 fc 31 bf 1d 4d 89 bf eb c4 d0 be ca cd 78 be
       -0.69526327 -1.0726658 -0.40775236 -0.24297252
000300 5c 68 be bf 8a ed 65 3e b7 65 33 bc e8 2d e9 bc
       -1.4875598 0.22453895 -0.010949544 -0.028464273
000310 ed 60 8f be f7 93 1f 3f a9 f8 b3 bf 0c 8b 16 bc
       -0.28003636 0.6233515 -1.406026 -0.009188425
000320 60 b6 0c 3c 29 7e 0a bf 04 db 5a bd 55 53 06 c0
       0.008588403 -0.54098755 -0.053431526 -2.0988362
000330 03 59 89 be 2b 4b 9d 3e 4a f9 1a bf 97 4f d3 bf
       -0.26825723 0.3072141 -0.60536635 -1.6508664
000340 c0 1d 3e bf a3 18 33 3f 57 25 43 bd 15 9a 4f be
       -0.74264145 0.6995947 -0.047643032 -0.20273621
000350 0e 11 81 c0 2d c9 c4 3e 87 af 94 c0 fe 4c 5b be
       -4.033332 0.38434735 -4.6464267 -0.21416089
000360 00 89 68 be 80 fb e2 be 62 59 00 3f 45 03 ea be
       -0.22708511 -0.44332504 0.5013639 -0.4570562
000370 11 8c 91 be b0 e8 2e 3e f6 e8 ed 3e 1f 93 70 3d
       -0.28427175 0.1708095 0.46466798 0.058734056
000380 cc de 3b 3e 28 db 94 bf 5e ce a5 3e 5c 47 8d 3d
       0.18346709 -1.1629381 0.32384008 0.06898376
000390 53 95 b2 3e c7 16 8a bd c5 99 b2 c0 75 7b d3 be
       0.3487955 -0.06742626 -5.5812707 -0.41305128
0003a0 c8 df 85 bd 5f f8 c4 3e 14 21 fe bf 9f 6e 89 3d
       -0.065368235 0.38470742 -1.9853845 0.067105524
0003b0 20 4a eb 3e 65 6e 2b bd e7 36 52 bc 0c 36 74 c0
       0.4595499 -0.041853327 -0.012830473 -3.8157988
0003c0 5c d7 9d be 4c 0a 8d c0 94 7c f8 be 7c bc ef 3f
       -0.3082837 -4.407507 -0.48532546 1.8729396
0003d0 04 f1 4a 3f 86 1f 70 be 75 1d ce be 5c 1e 9a bc
       0.7927401 -0.23449525 -0.4025685 -0.018813305
0003e0 9c 5a d5 3f ac dc 16 bf d8 74 17 bc fb f6 be 3c
       1.6668277 -0.5893047 -0.009244166 0.023311129
0003f0 52 f2 a1 3e cb 49 c6 3e d3 cc c8 be 38 4c d7 be
       0.31630188 0.38728175 -0.39218768 -0.42050338

net.0.bias f4 [128]
000000 9d 09 e8 be 23 74 52 be bf 6b f8 3b 57 ae d1 be
       -0.45319834 -0.20552115 0.0075812037 -0.40953323
000010 8e 58 41 3e 60 0f 66 bc 5b 06 3d be cf 80 1e 3e
       0.18881437 -0.014041752 -0.18459456 0.15478824
000020 1f e1 b2 3e 38 23 b9 be 46 dd 9d bc b7 6b 67 3e
       0.3493738 -0.36159682 -0.01927055 0.22599684
000030 b9 5a f1 be e7 1f c3 bd 7d 79 2d be 7c c8 b2 be
       -0.47139528 -0.09527569 -0.16940875 -0.34918582
000040 1b a4 aa 3d 5d f5 c8 3e a6 98 3c 3e 55 4b b8 be
       0.08332082 0.39249697 0.18417606 -0.35994974
000050 2e f9 3a 3e 40 24 e3 3d 7b e2 06 bf 59 83 a4 3e
       0.18259117 0.110908985 -0.5268933 0.3213146
000060 41 7d ef 3d ed 60 c8 be e0 0f 61 3e 22 85 cf bc
       0.11693812 -0.39136449 0.21978712 -0.025332037
000070 4c 6d 99 be 73 c3 d0 3e 98 77 28 3d ce d7 67 be
       -0.299662 0.40774116 0.04112968 -0.22640917
000080 c0 e5 e1 3d f0 32 c1 be 38 27 7a 3c a1 36 f6 3d
       0.110301495 -0.37734175 0.01526814 0.120221384
000090 74 7c 10 be 77 82 9b be 07 97 34 be 52 ee af 3e
       -0.14109975 -0.30372974 -0.17635737 0.3436151
0000a0 17 40 83 be 72 a0 05 3e 34 ee f0 bc 2d 18 da 3e
       -0.25634834 0.13049486 -0.02941046 0.4259657
0000b0 5b 6e ba be c1 fd f0 bc c8 d7 67 bc 9f e7 fd bd
       -0.3641232 -0.029417874 -0.014150567 -0.12397694
0000c0 ca b2 5a bd 0b c6 91 3c a9 b4 b1 3d dc ad 3e be
       -0.053393163 0.01779463 0.08677036 -0.1862101
0000d0 30 97 45 be 16 63 0d 3c 36 07 7f be 7e b4 59 3d
       -0.19295955 0.008629581 -0.24905095 0.053150646
0000e0 eb 88 e8 be f0 83 a3 be da c5 51 be 64 99 8b be
       -0.4541696 -0.31936598 -0.2048563 -0.27265465
0000f0 b0 e5 62 be ba 12 2f bd 1e 93 73 bd 8a bd 31 be
       -0.22157931 -0.04274247 -0.059466474 -0.1735746
000100 18 14 e3 be 22 66 a2 bc 80 76 c4 be 78 7b 08 3e
       -0.44351268 -0.019824091 -0.38371658 0.1332835
000110 be cb 85 be a0 2c f8 3d ca 77 80 be b6 22 48 be
       -0.26132005 0.121178865 -0.25091392 -0.19544491
000120 04 ab 0c 3a 4b 86 97 bd 0e cd 7e be e4 46 d8 3d
       0.00053660595 -0.07398661 -0.2488291 0.10560396
000130 58 d7 01 bd 1b 10 cf 3e 5f 12 83 be 90 cc 33 bd
       -0.03169951 0.40441975 -0.25599954 -0.043896258
000140 16 39 cf be 78 2f 96 3c 83 d3 57 3d 0d e8 8a be
       -0.4047324 0.018333182 0.052691948 -0.27130166
000150 c8 63 49 3e bb 37 92 be 30 a7 22 3c 39 ed a3 bc
       0.1966697 -0.28558144 0.009927556 -0.020010578
000160 c2 35 2e be 54 6b 30 bd 90 e8 39 be 65 c5 39 be
       -0.17012694 -0.043071106 -0.18155122 -0.18141706
000170 ac 69 9a be 89 d0 e6 bd 98 47 8a 3e d0 a1 90 be
       -0.30158746 -0.11270244 0.27007747 -0.28248453
000180 be 0b e5 3d 30 c6 07 3c f3 d3 61 be 01 e2 75 be
       0.1118388 0.008286998 -0.22053508 -0.24011995
000190 50 17 3f be 3c 54 9e 3e b8 72 b3 be 7b 74 cf bd
       -0.18661237 0.3092364 -0.3504846 -0.10129639
0001a0 13 18 86 3d 83 e6 3f bd bd d7 c6 3d 06 d0 b4 be
       0.065475605 -0.046850692 0.097091176 -0.3531496
0001b0 78 50 25 3d e7 bc 18 3d cf 3e 96 bd 14 14 55 be
       0.040359944 0.037289526 -0.073361985 -0.2080844
0001c0 8a b2 7b bd ef e5 21 3e c6 97 a1 be 70 0c 06 3d
       -0.061449565 0.15810369 -0.31561106 0.032726705
0001d0 74 f5 6c bd d0 d9 ff be 53 bd 57 3c 48 3e d0 bd
       -0.05785127 -0.49970865 0.013167697 -0.10168129
0001e0 e9 d3 b4 be 62 a2 4c be 60 c6 f5 bd c9 49 2d be
       -0.35317925 -0.19983819 -0.12000728 -0.16922678
0001f0 ed 35 80 3d a4 c9 91 be e8 e9 2b 3e 90 a3 11 bd
       0.062602855 -0.28474152 0.16788447 -0.035556376

net.2.weight f4 [128, 128]
000000 ad f1 8b 3c f9 db 13 3e 92 e2 8f 3e d1 79 15 bd
       0.017083013 0.14439382 0.28102547 -0.036493126
000010 15 7a d7 bd ec 02 9c bc 5a 4c 4c bd 69 91 0a 3f
       -0.10521332 -0.019044362 -0.049877502 0.5412813
000020 fe 13 23 bc c3 0d c0 bf 77 38 84 be 4b 88 11 3e
       -0.009953497 -1.50042 -0.2582433 0.14212148
000030 93 7a f3 bf 42 5b 84 bd 8b e6 6a be d1 4f 94 be
       -1.9021782 -0.064627185 -0.22939508 -0.28967145
000040 33 e6 5a bd e7 16 08 be ac f1 d7 3e 38 a0 a3 bf
       -0.05344219 -0.13289987 0.42176569 -1.278327
000050 42 bd 29 bf 58 5b b7 3e de 59 1d be dd c8 89 be
       -0.6630441 0.35811877 -0.15366313 -0.2691106
000060 4d a8 25 3d 40 86 35 be 2a fe ec bf c2 a1 c2 bf
       0.040443707 -0.17726994 -1.8515065 -1.5205615
000070 cd ac 74 3e ce 8c 0a 3f 3e 26 dc 3d 6d 39 78 bf
       0.23894043 0.541211 0.107494816 -0.96962625
000080 4d 65 be bb 11 78 bd bf 16 42 5b 3e a0 35 9a 3d
       -0.005810416 -1.4802266 0.21411929 0.075297594
000090 9a 2e 77 bc 51 6d bd be 26 8d b4 be 1f 79 56 3e
       -0.015086794 -0.36997464 -0.35263938 0.20944642
0000a0 27 47 5c bd 99 4f 27 3e fb 11 27 bb f7 d9 c9 3e
       -0.053778794 0.16338958 -0.0025492895 0.39424106
0000b0 00 e3 d1 bd f0 60 a0 be 39 ba 4e 3f 95 25 f3 bf
       -0.10248375 -0.31323957 0.80752903 -1.8995844
0000c0 dc 24 95 3d 81 06 ce 3e bc 8b 8e bd 08 85 47 bd
       0.07282421 0.40239337 -0.06960246 -0.048710853
0000d0 d2 fe 7d 3d 7f e5 88 be 9e f4 40 3d 7a 23 2f 3e
       0.062010594 -0.26737592 0.047108285 0.17103377
0000e0 6f 4e 09 bf a2 cb 73 bd 21 e7 c2 3d 34 1d ff be
       -0.53635305 -0.05952037 0.095167406 -0.49826968
0000f0 88 6d 55 bd da f9 a5 3d 68 13 c0 3d 48 e5 70 bf
       -0.05210641 0.08104296 0.093787014 -0.94099855
000100 fa c0 6f be cd 6a 4e 3e 5f d4 37 bd a7 79 b8 be
       -0.23413458 0.20157929 -0.044880267 -0.36030313
000110 01 b7 79 bf f8 e1 2c bf 4a b6 8e bd c2 0f 35 bf
       -0.97544867 -0.675323 -0.06968363 -0.7072717
000120 8b ee c8 bd 6f bb 6c 3d 36 02 5a 3d 8a 9a ae 3e
       -0.098111235 0.057795938 0.053224765 0.3410228
000130 45 f7 29 3e af cb 4e c0 24 5d 93 bd 0c cb 5a bc
       0.16598232 -3.2311819 -0.071954995 -0.013354074
000140 2d db 88 3d 9c 74 2e 3e 3d a1 99 3e 52 dd ad bd
       0.066824295 0.1703667 0.30005828 -0.08489479
000150 98 29 58 3e e0 5d 8e bc 34 fd 51 3d 2f f4 05 be
       0.21109617 -0.017378747 0.051266864 -0.1308143
000160 e4 40 05 3e 0d 75 5a be ec 7e ae be 6e 67 7e 3e
       0.13013035 -0.21333714 -0.3408121 0.24844143
000170 b0 06 80 3c 76 1a fb be 9d 4e 09 bf c2 82 09 c0
       0.015628189 -0.49043626 -0.5363558 -2.1486058
000180 ca 43 63 be cc ca c3 3e 19 6f 06 bd 02 5b 75 3e
       -0.22193828 0.3824066 -0.032820795 0.23960498
000190 70 8f 18 3c 25 e9 50 be d0 6d 72 3b 63 2f 18 3e
       0.009311542 -0.20401438 0.0036991723 0.14861827
0001a0 a6 75 8e be 66 ee 08 be 26 74 de 3d 15 c1 2e bf
       -0.27824134 -0.13372192 0.10861997 -0.6826337
0001b0 0b a8 b3 3d 86 56 fe 3d b1 cb 7a 3e c5 28 18 3d
       0.08772286 0.12418847 0.24491765 0.037148256
0001c0 c6 c7 14 bf f5 8d 79 3d 52 07 34 be bd af 99 3d
       -0.5811733 0.060926396 -0.17580917 0.075042225
0001d0 ee b6 4b 3e 95 1f 4f bd 98 13 63 3d 23 73 f8 bf
       0.19894001 -0.05056723 0.055438608 -1.9410137
0001e0 24 54 10 be 7d 5b 14 be c5 a9 84 bd 4c 98 31 bd
       -0.14094597 -0.14488025 -0.064776935 -0.043358132
0001f0 8c 1d b5 be 15 7f 2d be a4 a6 8d 3e ed e1 a4 3e
       -0.35374105 -0.16943009 0.276662 0.32203618
000200 58 6b ed bc 26 9c 04 be a4 bb 81 bf c5 45 59 be
       -0.02898185 -0.12950191 -1.0135388 -0.21218021
000210 20 06 72 3d 2d c8 2b bd 70 e3 c3 3e a4 e3 16 bd
       0.059087873 -0.04193895 0.3825946 -0.03683819
000220 5e ef 96 bd 5e e8 c0 be 10 77 f4 bf 0b ff 6c 3e
       -0.073698744 -0.37677282 -1.9098835 0.23144166
000230 d3 ff 09 3e 17 8e a9 3d 70 a0 63 3c f7 e2 ba 3e
       0.13476495 0.082790546 0.013893232 0.36501285
000240 d3 18 18 3e 51 e1 87 3c 4b 07 09 3f b1 e0 a6 3e
       0.1485322 0.016586931 0.53526753 0.325933
000250 58 79 98 3d 2b eb a8 be c5 40 35 bf 53 44 a0 c0
       0.074450195 -0.3299192 -0.70801955 -5.0083404
000260 37 e6 cc be 09 72 b8 3e 06 99 c2 be a7 36 32 c0
       -0.4001939 0.36024502 -0.38007373 -2.7845857
000270 1b 48 a8 bd 78 4a 7e 3e d8 e2 77 3e 5a d8 15 3c
       -0.08216878 0.24833095 0.24207628 0.0091458205
000280 6c fc d4 3d d1 e1 d8 be c1 0d 2a 3e 39 3d 77 3e
       0.10399708 -0.42359784 0.16606809 0.24144448
000290 b7 0f df bb e4 a5 99 3e ae 74 4f bf c5 8b 96 3e
       -0.0068072933 0.30009377 -0.81037414 0.2940351
0002a0 a2 6d 79 3d 40 64 4b 3e f9 27 6f bd d6 78 d5 3e
       0.06089557 0.19862461 -0.05838773 0.41693753
0002b0 5e 43 0f 3e 29 5f d6 3d 4c 05 00 3f b0 47 10 c0
       0.13990542 0.10467369 0.5000808 -2.2543755
0002c0 a9 0c ec bd ad f9 f4 3d bd 3c d2 3c ec 7d 78 3e
       -0.11525852 0.119616844 0.025663728 0.24266785
0002d0 d0 fd 6a 3c 70 26 14 be 91 f0 8f bd 83 46 91 bd
       0.01434274 -0.14467788 -0.07028306 -0.07093527
0002e0 d5 ba 41 3e 33 22 08 be f9 26 a9 3d bb 01 85 3e
       0.18918927 -0.13294296 0.082593866 0.25977883
0002f0 2d e2 aa 3d 03 c7 83 3d 6a 0e 42 be a6 13 95 bf
       0.08343921 0.06434443 -0.18950811 -1.1646621
000300 f8 07 f0 3c 38 61 0d 3e d3 0f cd 3d ce 19 94 bf
       0.029300675 0.13806617 0.10012784 -1.1570375
000310 eb 03 84 bd 5c be 00 3f f5 04 5d 3c 67 dc 04 bc
       -0.0644606 0.50290465 0.013489951 -0.008109189
000320 ae 6d 80 3e d4 33 27 3e 36 41 de 3c cb ba 0e bd
       0.2508368 0.16328365 0.027130704 -0.03484611
000330 4d 56 ef bd 4a 90 a3 c0 98 2c af bc cb 94 25 3e
       -0.116863824 -5.1113634 -0.021383569 0.16170041
000340 e2 75 34 bd 8d 27 43 3d 5e 1c ca 3a a8 a4 9f 3c
       -0.044057734 0.04764514 0.0015419831 0.019487694
000350 5a 96 b3 be 0f 57 24 bf 4e 8d dd 3c c8 20 d8 be
       -0.35075647 -0.6419534 0.027044918 -0.4221251
000360 82 1f 27 be ce 29 5f be 80 ab 17 3d 33 4d 88 be
       -0.16320613 -0.21793291 0.03702879 -0.26621398
000370 be 71 30 3d ea 45 16 3f 2c 4f 21 c0 9e 2b ab bf
       0.043077223 0.5870043 -2.5204573 -1.3372686
000380 7e 1d 90 bd aa 21 dd 3d 85 6d 92 3d d7 83 8a be
       -0.07036875 0.107974365 0.071497954 -0.2705371
000390 66 b4 3e bd d7 f1 71 bf ae ba 1f 3d 2c b6 78 bd
       -0.04655876 -0.94509643 0.03899639 -0.060720608
0003a0 d2 53 0d bf 36 11 8a 3e 12 51 22 be af 10 0b bf
       -0.55206025 0.26966256 -0.15851238 -0.5432233
0003b0 a8 e6 6d be 4f 13 6c bf 58 2f 06 be b1 92 b4 be
       -0.2323252 -0.9221696 -0.13103998 -0.35268167
0003c0 0c 55 3a bf fd a4 02 c0 34 d1 dc 3d 28 6f 65 3c
       -0.7278602 -2.04132 0.1078209 0.0140035525
0003d0 3f 74 c5 bf 02 15 5a be 37 86 67 be f7 a2 a3 3d
       -1.54261 -0.21297076 -0.22609793 0.079900675
0003e0 38 5f da 3d 12 ab 01 c0 38 ee 74 bc de 95 c1 be
       0.10662693 -2.0260663 -0.014949374 -0.37809652
0003f0 b8 33 96 bd d2 33 8a 3e 44 da fd be 9b ab a2 bd
       -0.07334083 0.2699266 -0.49580586 -0.079428874

net.2.bias f4 [128]
000000 56 dc a3 3e f9 18 82 3e 67 78 76 3e 6b e1 c1 bd
       0.3200404 0.25409678 0.24069367 -0.09466823
000010 41 62 76 3e b1 8b 72 be dc d4 4e 3e bc d8 ec 3d
       0.24060918 -0.236861 0.20198387 0.11564776
000020 32 20 1a be 19 a9 ab bd b2 e5 1b 3d 06 a3 6f 3e
       -0.15051344 -0.08381862 0.03806085 0.23402032
000030 0f a3 90 bd 02 11 90 bd 67 27 2a 3c 9f aa ee 39
       -0.07062351 -0.07034494 0.010385371 0.0004552202
000040 fc 7a 43 3e bb 2d 52 3d ac ae 95 3e 14 a8 89 bd
       0.19089884 0.051313143 0.29234827 -0.067215115
000050 4a 0f 0b 3f 36 cf a2 3d ef cc b6 bc c1 93 c2 3e
       0.54320204 0.079496786 -0.022314517 0.38003352
000060 76 bb af 3e dc 33 b7 bd 70 fd 89 3d 16 b5 18 be
       0.3432271 -0.08945438 0.067377925 -0.14912829
000070 f5 37 ce 3e a8 3e 0c be c5 0d 93 bd 4e d4 26 bd
       0.40277067 -0.13695776 -0.07180361 -0.040729813
000080 28 d0 3d bd 41 a0 12 be 9e c4 b6 3d a6 c4 1b be
       -0.04634109 -0.14318945 0.089242205 -0.15211734
000090 f8 0f 28 be 32 02 3c bd 1f 00 a3 bd 44 e5 ab 3c
       -0.16412342 -0.04590053 -0.079590075 0.020983346
0000a0 3a e6 d1 bd 46 43 9d bd 00 fc f9 bd ab 13 91 bd
       -0.1024899 -0.07678847 -0.12206268 -0.070838295
0000b0 25 44 ad bc ad 2d 22 bc 24 ea 61 bd 96 9e aa 3e
       -0.021150658 -0.009898585 -0.055154935 0.33324116
0000c0 52 3f d3 bd 80 6e 4c 3e 22 74 5e bd eb d2 06 be
       -0.10314812 0.19964027 -0.05430997 -0.13166396
0000d0 35 ef c0 bd 97 76 b6 bc 14 99 2f bd 36 e8 4b bc
       -0.09420625 -0.022273345 -0.042870596 -0.0124455
0000e0 de 8f 74 bd ac 46 b9 bd 72 b0 27 3c 4a 1c 2c bd
       -0.059707515 -0.09046683 0.010234939 -0.042019166
0000f0 00 04 c2 3e 60 50 cd bd 74 dc a5 3d 30 a6 60 be
       0.37893677 -0.10025096 0.08098689 -0.21938396
000100 ed d4 b6 bc 27 8c a5 bd aa be 0f 3f d7 28 a9 bd
       -0.022318328 -0.080833726 0.56150305 -0.08259743
000110 64 4b 0c bd d3 98 c9 3e ab ce d7 bd 1a 8b 06 3c
       -0.034251586 0.39374408 -0.10537466 0.008211875
000120 f7 a3 e7 bc dd e8 5a 3c 07 c1 0d 3e 75 96 cf 3e
       -0.028276427 0.013361183 0.13843165 0.40544477
000130 6a d3 61 3e e8 03 d2 bd f5 ba d0 bd a9 c3 e1 bd
       0.22053304 -0.10254651 -0.10191909 -0.11023647
000140 7c b5 ef bd db ca 21 bd 7f 8f 19 be b1 ce 9f bc
       -0.11704537 -0.0395001 -0.14996146 -0.019507738
000150 99 c5 87 3d af 4d b7 bc 6f 9d d9 bd 71 e3 e3 3b
       0.06629486 -0.02237591 -0.10625731 0.0069546034
000160 f0 39 e0 bd b7 57 dc 3e 71 26 fd 3e cc 4b bb 3d
       -0.10948551 0.4303567 0.4944339 0.091453165
000170 72 f5 3c 3e 58 86 4f 3b 85 87 10 3e 9c 63 54 bd
       0.18453005 0.0031665768 0.14114197 -0.051852807
000180 ca 99 42 be 05 da bf bc f2 7e a0 3d 36 e3 91 3d
       -0.19003978 -0.02341939 0.07836713 0.07123415
000190 cf 2b a5 bd 57 64 76 3e df 41 3e bd cb 16 59 3e
       -0.080649965 0.24061714 -0.04644954 0.21200101
0001a0 9b 0a 1d bd 5e 78 a8 3d 38 1e 80 bd dd 57 eb bd
       -0.038340192 0.08226083 -0.06255764 -0.11491368
0001b0 49 8a fe bd d6 3c a2 be cf 2d 00 be d7 4b 2c be
       -0.124287196 -0.3168704 -0.12517475 -0.16825806
0001c0 3c 01 ee bc 90 67 bf bc 49 7a 94 bd bc 1e c5 bd
       -0.029053323 -0.023364812 -0.072498865 -0.09625003
0001d0 98 9d fc 3c 25 c7 08 bd 77 c6 80 bd 9a e7 08 3c
       0.030836865 -0.033393044 -0.06287854 0.008355999
0001e0 47 1e a8 bd f8 24 4d bd 32 9c f7 bb a2 30 a1 bd
       -0.082089 -0.050084084 -0.0075564617 -0.07870604
0001f0 5a 91 e7 bd a4 95 1f be f1 37 23 3d 29 bd a6 bd
       -0.113070205 -0.15584427 0.03984827 -0.08141548

net.4.weight f4 [2, 128]
000000 3e ad 77 3f 3a 01 05 40 5e 42 ea 3f 7c 50 3a bf
       0.9674872 2.0781999 1.8301504 -0.7277906
000010 74 69 fb be 8d 3b 4b bf 46 f3 71 3f f2 29 e5 be
       -0.49103892 -0.7938774 0.9451183 -0.44758564
000020 f2 05 ba 3e 25 76 29 bd 56 ca f2 bf 00 d4 a8 bf
       0.3633266 -0.041372437 -1.8967998 -1.3189697
000030 ce dd 4e ba 59 bd 81 3d 0b 27 33 bc ea 19 92 bd
       -0.0007891328 0.06334943 -0.010934602 -0.07133849
000040 08 cb bd 3f 7b 86 9b bf 7a 4f 5a bf 58 37 27 3d
       1.4827585 -1.2150415 -0.8527752 0.040824264
000050 f5 d3 4c 3e fa ae a2 bf 18 cd 03 40 76 c7 ec 3e
       0.2000273 -1.2709649 2.059393 0.46245927
000060 f2 e7 87 bf 69 b6 42 c0 85 34 0a bf f4 b3 15 3d
       -1.0617659 -3.0423834 -0.5398639 0.03654857
000070 97 6a c1 3f 97 d5 52 be 75 d2 23 bc 1f 2f 5b 3f
       1.5110654 -0.2058929 -0.009998907 0.85618776
000080 56 a0 80 3f da 20 25 3f 2c 9d 02 40 22 6e 45 bf
       1.0048931 0.6450325 2.040843 -0.77121174
000090 0f 98 49 bf 72 15 7e bc e5 b1 72 3f b1 f0 a1 bd
       -0.7874765 -0.015508043 0.94802696 -0.07907236
0000a0 9c 24 39 3c 85 dd 44 3c 36 11 7b 3c 6c 42 ae bc
       0.011300232 0.012015705 0.015323928 -0.021271907
0000b0 bd 6b b3 3d 89 50 84 3d 62 8c 5f bf ba 6d 90 3e
       0.08760784 0.06460673 -0.8732358 0.28208715
0000c0 5e bc 1a bd f5 46 a8 be 85 13 07 3d 5e 94 ea ba
       -0.037777297 -0.32866636 0.0329776 -0.0017897
0000d0 90 c5 22 bd f8 b2 a2 3b 97 56 74 3d f0 1e 0c 3c
       -0.03973919 0.0049651824 0.05965289 0.008552298
0000e0 56 69 50 bf de cc 49 3d 44 fd 7e 3c e2 ee f3 bc
       -0.8141073 0.049267642 0.015563313 -0.029776994
0000f0 e7 d5 4c 3e 67 22 1c bc 0f b7 99 bd 96 1a 10 be
       0.20003472 -0.0095296865 -0.07505619 -0.14072642
000100 75 23 91 bd 64 9f cc bc ca fd 89 bf a3 50 ca bf
       -0.07086841 -0.024978347 -1.0780575 -1.5805858
000110 c6 b4 3a bd fa 18 d1 3f 10 7c fe 3e d3 d4 ff bc
       -0.045582555 1.6335747 0.49704027 -0.031229412
000120 89 c8 ce bc bd 76 a2 3a 57 2c d2 bf d4 24 d3 3e
       -0.025242107 0.0012395006 -1.6419781 0.41239035
000130 ca 80 07 40 14 1e 63 bc b5 6d 74 bc 92 25 f5 3c
       2.1172357 -0.013862152 -0.014918734 0.029925141
000140 87 8d 60 bd f9 c9 8c 3f 49 42 16 3e 78 05 37 3d
       -0.05482247 1.0999137 0.14673723 0.04468295
000150 67 c7 e7 bf 2c b1 0a 3d 81 17 c8 3d 8c b9 97 bc
       -1.8107728 0.03386037 0.09770108 -0.018521093
000160 5c f1 52 3d 5e 67 93 bf db 3b 8f bf d9 12 be 3d
       0.05149971 -1.151592 -1.1190141 0.09280939
000170 e1 cd 9b 3f 66 44 38 3f fe 5b 80 bf f5 66 7d 3d
       1.2172204 0.7197937 -1.0028074 0.061865766
000180 04 94 71 3b c3 ad 31 bc cc 2c f0 3f ca 98 33 be
       0.0036861906 -0.010844651 1.8763671 -0.17538753
000190 4a e2 8a 3e e4 3c 10 3d af 90 d0 3e cb 00 1d 3f
       0.2712577 0.03521432 0.40735385 0.61329335
0001a0 9d be 95 bb e0 c0 81 3f ea 30 89 bd 1a a2 3c 3f
       -0.004569842 1.0136986 -0.06698783 0.7368485
0001b0 84 43 2a 3f fb 56 16 bf 47 d7 6c 3f cf b7 2b bd
       0.6650927 -0.5872647 0.9251599 -0.04192334
0001c0 57 6f 95 bc 24 7e 10 3d 74 bf 76 3c 37 ac b7 3c
       -0.018241568 0.035276547 0.015060294 0.022420986
0001d0 f0 1e 49 be 82 28 1c 3d 8d 3e 18 bd 9c a1 60 bc
       -0.19640708 0.03812457 -0.037169028 -0.013710406
0001e0 d1 f8 9c bd aa bb f8 bc 3f cd a9 3b 56 e0 04 3c
       -0.076646455 -0.030362923 0.005181938 0.0081101265
0001f0 39 42 84 3f 35 41 0b bd 4e 59 63 bd 50 73 06 3c
       1.033271 -0.033997733 -0.05550509 0.008206204
000200 bc 47 2b 3f 29 90 0e 40 b0 87 11 40 9f 52 f7 be
       0.6690633 2.2275488 2.2739067 -0.48305222
000210 b2 cd b9 be 61 4d e3 bd ac 19 78 3f 9d f4 a8 bf
       -0.36289746 -0.11098743 0.9691417 -1.319965
000220 f2 ca 04 bf c0 60 61 3c 6f 19 a3 bf ce 00 a6 bf
       -0.5187217 0.013755977 -1.2742137 -1.2968996
000230 d0 3c c6 3b 0d 66 80 bb d5 fe 13 bd 56 e7 04 bc
       0.00604973 -0.0039184154 -0.0361317 -0.008111795
000240 7d 03 21 bf 15 54 56 3d 4e 3c 1c bf ed a0 44 3a
       -0.6289595 0.05232628 -0.6102952 0.00075007865
000250 46 9e 74 3e c5 42 cd bf 4b 3e 0c 40 71 10 e0 3e
       0.23888502 -1.6036001 2.191302 0.43762544
000260 e9 ce 90 bf 57 f1 cf be 96 56 de be a9 d8 d2 bc
       -1.1313144 -0.40613815 -0.43425435 -0.025738077
000270 93 74 74 bf 73 52 d7 3d 90 0e cb bc 4c 68 2b 3f
       -0.9549038 0.10513773 -0.024787217 0.6695602
000280 50 0b 8f bf d8 df 48 be fe 4d ed 3f 1b 56 66 3e
       -1.1175327 -0.1961664 1.8539426 0.22493784
000290 0a 96 b7 be 86 73 47 3d 1b df 93 3e ba 9f 78 3d
       -0.35856658 0.048694156 0.28881153 0.060699202
0002a0 54 79 c3 3c 2a 0a b1 3c 87 d4 53 bc d3 01 a0 3d
       0.023861565 0.021611292 -0.012929088 0.07812848
0002b0 ef 8b 83 3c 97 df d5 bd 3a 29 03 c0 9e 74 8e 3e
       0.016057936 -0.10443037 -2.0493913 0.27823347
0002c0 27 62 6a bd d4 1d c1 be 05 3f c4 3c 5c aa a0 3c
       -0.05722251 -0.3771807 0.023955831 0.019612484
0002d0 50 9f 59 bd b2 6e 11 3d 07 af bc 3c 71 99 ca 3c
       -0.053130448 0.035505958 0.023032678 0.02473137
0002e0 eb f7 48 bf bc 3a 01 3d 74 1a 84 bc fe 4c 02 bd
       -0.7850329 0.031550154 -0.016125895 -0.031811707
0002f0 c6 e7 97 3d d7 89 7a 3d 78 4b a4 bd a2 da 36 be
       0.07417254 0.06116661 -0.08022207 -0.1785684
000300 cf b1 3d 3d 37 6f 29 bc a9 9e 95 bf 30 0a f4 3e
       0.04631215 -0.010341457 -1.1689044 0.47664022
000310 7b 7f 55 3c 7c 17 0c 3f aa ba 93 3f a8 63 ae 3c
       0.013030882 0.54723334 1.154134 0.021287754
000320 71 15 1d 3d 28 b6 16 bd 67 20 e5 bf ce c9 bc 3e
       0.038350526 -0.03679481 -1.7900513 0.36872715
000330 a3 3f ee 3f a1 85 cc bb c8 da 4a 3c ff 97 8e 3d
       1.861317 -0.0062415157 0.012381263 0.06962585
000340 74 c9 68 bd 22 c5 32 3f b6 15 ea bf 16 d1 8f 3c
       -0.056832746 0.6983205 -1.8287876 0.017555755
000350 5f 04 25 be b6 4f ae bc ea 67 28 bc e2 96 7c bc
       -0.16114949 -0.021278244 -0.010278681 -0.015416833
000360 c6 47 5e bd e4 25 84 bf 16 50 8b bf eb 27 11 3e
       -0.054267667 -1.0324063 -1.0883815 0.14175384
000370 9d 5b 64 3f 78 c1 08 3f 28 a1 9d bf f2 b2 1f be
       0.8920229 0.5342021 -1.2314806 -0.15595606
000380 4b cb 10 c0 06 ac 18 ba 63 f4 f2 3f 8c 75 41 be
       -2.262408 -0.00058239733 1.8980831 -0.18892497
000390 03 de b8 3f 85 f8 18 3f b3 ea 89 3f 7d a4 38 3f
       1.4442753 0.5975421 1.077475 0.7212599
0003a0 63 e6 27 bb eb 69 ec 3e 2c fe b1 3e 8a 5e 3e be
       -0.00256195 0.4617456 0.3476423 -0.18590751
0003b0 58 ed 2b bf 3a 3e 44 be 87 b7 c1 3d 71 d0 e5 bb
       -0.6715903 -0.19164363 0.09458833 -0.0070133735
0003c0 aa cc 5b bc 4d 1e 0a 3c f0 4a bb bc 04 20 7d 3d
       -0.013415495 0.008430076 -0.022862881 0.06179811
0003d0 32 2d fd be 00 be 4f 3b 9f e8 5c bd 9b d3 03 bb
       -0.49448544 0.0031698942 -0.053932782 -0.002011514
0003e0 68 d3 66 3c a8 0b 55 3d 0b 79 b3 3c d6 2a 61 bd
       0.014088489 0.05201307 0.021908304 -0.054972492
0003f0 fb 3c 63 3f 7b 98 e0 be 56 1e 3c bd 2c d8 bc bc
       0.88764924 -0.43866333 -0.045927368 -0.023052298

net.4.bias f4 [2]
000000 37 06 00 3e 54 70 fb 3d
       0.12502371 0.12277284
