checkpoints/geometry_ep200.pth (torch, 75369 bytes, 6 tensors)

net.0.weight f4 [128, 9]
000000 ca 07 98 be f5 e6 a3 3e 1a b0 8a be c2 77 8e be
       -0.29693443 0.32012144 -0.2708748 -0.27825743
000010 74 d4 a7 3d 68 6a 45 be 9b a9 21 be 00 ab 72 3c
       0.08194819 -0.19278872 -0.15787356 0.014811277
000020 ec 9a 98 bd 28 73 6b bf 20 57 ae be 48 c1 fe 3e
       -0.07451424 -0.9197259 -0.34050846 0.49756837
000030 ce 37 90 3e 27 b3 1c 3e 67 86 64 3e d9 17 ac 3e
       0.28167576 0.15302716 0.22316895 0.33611944
000040 cc 7e 63 3b c6 0c 25 3e 44 b8 fa bf 92 eb c6 bc
       0.0034713028 0.16118154 -1.9587483 -0.02428225
000050 32 8d 83 3e 3f 52 a6 bd 63 5b 8f bc c0 8b 2b c0
       0.2569366 -0.08121156 -0.017499631 -2.6804047
000060 47 fd 33 be ac b5 b9 3c 35 d4 8a bd 1c 9a 7b bf
       -0.17577086 0.022669636 -0.067787565 -0.9828203
000070 ce bf d2 3d 18 41 19 bd 6e 50 30 3e ae 91 b1 3b
       0.1029049 -0.037415594 0.17218181 0.0054189777
000080 b8 8e 0b 3e cc 94 d7 3e 17 93 25 bb e3 58 ab 3d
       0.13628662 0.4210571 -0.0025264674 0.08366563
000090 29 5a d1 3f e3 4f 23 bf 57 49 f7 3d d9 5a e6 3d
       1.635564 -0.6379377 0.12074535 0.112477966
0000a0 8c 60 39 be 27 12 86 40 c8 c9 d4 3e 62 e5 7d 3c
       -0.18103236 4.189716 0.41560197 0.015496584
0000b0 07 0f be 3b a7 16 a5 be fc 51 85 bd a8 70 3c 3d
       0.0058001312 -0.32243845 -0.06509778 0.046005875
0000c0 00 80 ef 3d 80 47 19 bb 40 dc 3a bd 24 13 88 be
       0.11694336 -0.0023388565 -0.045620203 -0.26577103
0000d0 34 81 9c bd 10 bb 83 bd 6e 54 3f 3f 0a 46 28 be
       -0.07641831 -0.06432164 0.74738204 -0.16432968
0000e0 03 d2 be be b5 e8 f4 bd 21 19 bd bd b7 1c 3e 3f
       -0.372696 -0.11958448 -0.092333086 0.74262565
0000f0 b5 de 31 3f b3 b4 5d 3e 50 b5 05 bc a1 73 c7 bf
       0.6948045 0.21650963 -0.008160904 -1.5582162
000100 11 ee af be 47 8b 4a 3e c9 f9 ce bc a5 2b 7c 3e
       -0.34361318 0.19779693 -0.025265591 0.24626024
000110 4d b4 57 c0 a4 ab da be ac 3c b9 3d b6 2b 54 3e
       -3.3703797 -0.42709076 0.09044775 0.207198
000120 07 70 93 3e ff 63 a3 3e 4f bb 10 bf 9f 2c 03 be
       0.28796408 0.31912228 -0.5653581 -0.1280999
000130 ee d9 81 be 61 0d da bf aa 1b 68 be f2 16 0f bf
       -0.2536158 -1.7035333 -0.22666803 -0.55894387
000140 d9 e2 1d bf 9f 58 a4 bf 96 97 63 be 80 c8 16 3f
       -0.6167427 -1.2839545 -0.22225794 0.5889969
000150 35 83 9a 3e 64 9f df 3c 52 bb 56 c0 e7 51 d0 3e
       0.30178228 0.027297683 -3.3551831 0.40687487
000160 11 83 11 3d c2 12 f9 bd e3 61 b8 bf 3e b2 1f bf
       0.035525385 -0.12161781 -1.4404873 -0.6238135
000170 73 45 54 be b3 a8 a3 bd 12 58 97 be 29 8c 47 c0
       -0.20729618 -0.07991161 -0.2955938 -3.1179297
000180 6b 7d 64 3f fd 84 38 ba e4 4c c9 3c c1 f7 db 3f
       0.8925387 -0.000703886 0.024572797 1.7184983
000190 22 2c 18 be f3 b6 0d bf 36 56 ee be d7 69 cb 3c
       -0.14860585 -0.55357283 -0.4655015 0.024830742
0001a0 ae d9 f3 3f 80 86 8b be 5f 7a db 3e fe 62 0c bb
       1.9050806 -0.27251053 0.428668 -0.0021421309
0001b0 c3 53 a7 bd 1f d8 4e 3e 61 a7 06 3e 99 1e 83 3e
       -0.08170273 0.20199631 0.13149787 0.25609282
0001c0 6a ee 1a be 9e 30 d5 3d f0 b8 24 bf 31 02 97 3e
       -0.1513001 0.104096636 -0.6434469 0.2949386
0001d0 50 b4 87 3e 0c c5 63 be 7a ac 2e be 49 6b 70 3e
       0.26504755 -0.22243136 -0.17057982 0.23478426
0001e0 ea 50 27 3d de 63 18 be cf eb 69 be ac 08 17 be
       0.04084865 -0.14881846 -0.2284386 -0.14749402
0001f0 f5 55 90 be c0 8b be bc 91 97 01 3f d2 f0 ee 3e
       -0.2819058 -0.023259997 0.50621897 0.46668106
000200 fa c0 34 be f7 a6 1c bf d0 e9 09 3e 00 78 7b c0
       -0.1765174 -0.6119227 0.13468099 -3.9291992
000210 8a a2 1a 3e 02 f8 9c 3d 7b 38 a4 be da e2 85 bf
       0.15101066 0.07664491 -0.3207434 -1.0459855
000220 45 f3 6e 3d 80 bd 47 3e 71 1b 9d 3e ae d4 a8 bd
       0.05833747 0.19505882 0.30685 -0.082436904
000230 41 a8 6f c0 49 eb ca 3c 56 bb 6f 3e 9b f1 3d bf
       -3.7446444 0.024770396 0.23411307 -0.74196786
000240 ca 38 93 3f ce 3f d2 be ec ea 20 bd 04 96 e7 bc
       1.1501706 -0.41064304 -0.03928654 -0.028269775
000250 86 e2 81 bd 3f d9 14 40 7d f7 f0 3e 2f c2 06 3e
       -0.06342034 2.3257596 0.4706382 0.13160013
000260 64 59 81 3d a5 82 5c 3f e9 ec 98 3e 01 e8 09 be
       0.06315878 0.8613685 0.29868248 -0.13467409
000270 23 35 cd 3d a4 51 aa 3d 29 03 06 bf ac f0 d3 be
       0.10019901 0.08316353 -0.5234857 -0.41394556
000280 ae 34 a4 be 8c 77 21 be 1d 8e 59 3e 1e 47 86 bb
       -0.3207144 -0.1576826 0.21245618 -0.0040978333
000290 d9 98 84 be ec 3e 16 3d 0f a6 a4 3e e0 38 cd bf
       -0.25897864 0.0366811 0.32157943 -1.6032982
0002a0 e1 88 39 bf c2 47 41 be 3f 91 86 3e a8 4f de be
       -0.72474486 -0.1887503 0.2628269 -0.43420148
0002b0 38 1b ad 3d 27 f1 00 bf c0 97 db 3d 21 7d e4 be
       0.08452457 -0.5036797 0.107223034 -0.44626716
0002c0 bb b9 97 bf 57 fe 0f bf 4b b0 83 3e 84 e4 75 bd
       -1.1853555 -0.56247467 0.25720438 -0.060032383
0002d0 c4 b9 9c 3e 63 dd 72 3e d2 01 11 3d 5c b5 6c bf
       0.30610478 0.23717265 0.035402127 -0.9246423
0002e0 2b 92 e6 3d 80 9a 11 bf 11 42 89 be 16 4e c9 bd
       0.11258348 -0.56876373 -0.26808217 -0.09829347
0002f0 87 0d fa be ae 32 3b bf b6 9f df be 1c 47 58 be
       -0.48838446 -0.73124206 -0.43676537 -0.21120876
000300 ef 08 0b bf 42 b7 0f 3e b7 48 b5 3d dd 21 a7 bd
       -0.54310507 0.14034751 0.0885176 -0.08160756
000310 15 f7 82 bd 80 cd 08 3f f3 ab cd bf d0 1d c0 3d
       -0.063947834 0.5343857 -1.60681 0.09380686
000320 25 bf 1a 3e d6 ad ba be 37 58 a1 3d 97 b8 01 c0
       0.15111978 -0.3646075 0.07878154 -2.0268915
000330 d7 87 2e be 98 5c 8d 3e e9 bb 20 bf cd 2b 9c bf
       -0.17044006 0.27609706 -0.6278673 -1.2200867
000340 ca ce 2c bf 5f 2f 19 3f 53 56 e5 bd 82 e2 aa bd
       -0.67503035 0.5983791 -0.11198106 -0.08343984
000350 36 7c 37 c0 00 56 a2 3e 5f 48 3c c0 1e fd 4d be
       -2.8669562 0.31706238 -2.9419172 -0.20116088
000360 cf 56 b8 3b 83 82 d0 be 95 4f a8 3e 34 de 89 be
       0.0056255828 -0.40724573 0.32873216 -0.2692734
000370 69 34 66 be 07 16 77 3e eb d5 f8 3e 24 c3 af bd
       -0.2248093 0.24129497 0.48600706 -0.08582142
000380 52 3d b7 3b bc 50 4c bf 6a d7 c5 3e e6 e3 a1 3c
       0.0055920267 -0.7981069 0.3864091 0.01976199
000390 5d 7d 6a 3e ca 02 56 3c 14 97 88 c0 4a c4 5d be
       0.22899385 0.013062188 -4.268442 -0.2165691
0003a0 9b d1 73 3d 8b 67 ac 3e 93 5b ec bf 3d 33 23 3c
       0.059526067 0.33672747 -1.8465446 0.009960947
0003b0 38 94 c0 3e aa 4c 01 3d fe 70 98 3c 3d ca 57 c0
       0.37613082 0.031567253 0.018608566 -3.3717186
0003c0 87 8d d3 be ee 96 86 c0 27 18 97 be 57 39 9a 3f
       -0.41318914 -4.205924 -0.29510614 1.2048749
0003d0 88 e3 0f 3f 5e 87 f4 bd 2b 0b 96 be 6e e7 75 3c
       0.5620656 -0.11939882 -0.29305395 0.01500879
0003e0 ff 32 b1 bd 13 30 db be be 75 0e bd 72 e2 77 be
       -0.08652305 -0.42810115 -0.034780256 -0.24207476
0003f0 5e 14 ce 3e 0e 9b 8b 3e 81 26 fb be 00 4a 02 bf
       0.40249914 0.27266735 -0.49052814 -0.50894165

net.0.bias f4 [128]
000000 98 31 8f be bb bf 02 be e6 2d 3d 3d 49 ec a9 be
       -0.27967525 -0.12768452 0.04618635 -0.33188084
000010 ad 96 a6 3e 60 0f 66 bc 0e 1c e6 bd 99 57 0b 3e
       0.32536831 -0.014041752 -0.1123582 0.13607635
000020 5f c7 6a 3e 55 d4 a0 be 02 2b 7a 3d e1 6b 64 3e
       0.22927617 -0.31411996 0.06107617 0.22306778
000030 94 4e ca be e7 1f c3 bd 38 13 65 be 2d a5 9b be
       -0.39513075 -0.09527569 -0.22370613 -0.30399457
000040 b3 c6 04 3e de 1f ad 3e 48 b7 ed 3d 91 c8 97 be
       0.12966423 0.33813375 0.11607224 -0.29645208
000050 7e 50 ab 3d c0 54 e0 3c 0b 33 cc be 8e 15 a7 3e
       0.08364962 0.027384162 -0.39882693 0.32633632
000060 d6 60 32 3e 71 ae 8f be 37 96 d7 3d 68 1b 0b 3c
       0.17419752 -0.28062776 0.10526698 0.008490421
000070 a7 89 e3 bd 07 aa 9a 3e 22 a5 55 3d 52 66 05 bd
       -0.111102395 0.30207846 0.052159436 -0.032568283
000080 8b 5c 79 3d ae 56 5f be a1 48 01 bb 3c ad 45 3e
       0.06087927 -0.2181041 -0.0019727128 0.19304365
000090 7c 04 6a be a3 76 68 be 8f d6 0a be 57 dc 9e 3e
       -0.22853273 -0.22701506 -0.1355841 0.3102748
0000a0 06 b0 75 be b0 f3 bf bc c8 94 59 3d a7 f0 bf 3e
       -0.23992929 -0.023431629 0.053120404 0.3748829
0000b0 ce 71 48 be 13 d9 7e 3d c0 7c d8 bc 3f ac c2 bd
       -0.19574663 0.062218737 -0.026426673 -0.095055096
0000c0 86 9f 5c 3d 82 74 04 3e a9 b4 b1 3d 03 eb c3 bd
       0.05386307 0.12935069 0.08677036 -0.09566309
0000d0 30 97 45 be 1f 95 c6 bd 36 07 7f be 36 e3 4e 3c
       -0.19295955 -0.09696411 -0.24905095 0.0126274135
0000e0 72 aa d3 be 45 bb 7d be 88 18 a9 bd 2c 06 50 be
       -0.41340977 -0.24778469 -0.08256632 -0.20314854
0000f0 b0 e5 62 be cd 9d 5a 3c 32 40 c2 3c 5d c9 54 be
       -0.22157931 0.013343287 0.023712251 -0.20779939
000100 75 ba c8 be e5 5b 6a bd 8e 22 3e be 8b 9c 3e 3e
       -0.39204755 -0.057216544 -0.18567869 0.18614404
000110 71 e6 29 be 2b c5 3f 3e 6a f1 cd bd 4a fb 2e be
       -0.16591813 0.18727557 -0.10055812 -0.17088047
000120 d3 73 e9 3c 14 aa 0b be 2a ae 72 be 88 37 0e 3e
       0.028497612 -0.13639098 -0.23699251 0.13888371
000130 fc 49 c1 3d 7f 82 a2 3e 5f 12 83 be 01 f6 81 bd
       0.094379395 0.31740186 -0.25599954 -0.0634575
000140 ec 56 a6 be 54 05 79 3d 61 54 c9 3d 68 ac 74 be
       -0.3248819 0.060796097 0.09830547 -0.23893893
000150 f9 01 3f 3e 93 26 5c be 99 c8 94 bd 39 3d 8b 3d
       0.18653096 -0.2149909 -0.072648235 0.06798787
000160 52 1c 83 bc 2a 08 13 bd f2 ac 55 bd b8 3d ad bd
       -0.016004715 -0.035896458 -0.052166887 -0.084590375
000170 28 32 8a be 79 da 14 be 66 92 c6 3e 70 84 5d be
       -0.2699139 -0.14536466 0.38783568 -0.21632552
000180 65 5f e5 3d 2e 48 1a 3b f3 d3 61 be 73 63 35 be
       0.11199836 0.0023541558 -0.22053508 -0.17713718
000190 50 17 3f be 28 a9 91 3e e1 e5 a1 be 0b 4f 17 3c
       -0.18661237 0.28449368 -0.31620696 0.009235154
0001a0 ec f9 3b 3e 67 e3 ab bd 8d bc 33 3e c4 73 66 be
       0.18357056 -0.08392983 0.17552395 -0.22505099
0001b0 c4 45 9c 3c 10 a4 67 3d 8f 26 1e bd 5e 9e 26 be
       0.019076236 0.056552947 -0.03861099 -0.1627135
0001c0 95 7a 79 3d 0f 5b 0d 3e 19 b0 8e be 70 0c 06 3d
       0.06090792 0.13804267 -0.27868727 0.032726705
0001d0 c7 e6 8e 3d b4 13 be be 03 5a 51 bd ae f7 55 bc
       0.06977611 -0.37124407 -0.051111232 -0.01305954
0001e0 cc ee aa be ff 57 14 be 60 c6 f5 bd 40 01 f3 bd
       -0.33385313 -0.14486693 -0.12000728 -0.11865473
0001f0 b7 30 75 3d ac 85 21 be d9 62 52 3e 56 ce d7 bb
       0.05986091 -0.15773648 0.2054552 -0.0065858765

net.2.weight f4 [128, 128]
000000 eb d4 b1 3d 07 df 1f 3d 99 10 1f 3e fb 1a 22 be
       0.08683189 0.039031055 0.15533675 -0.15830605
000010 fd 18 a1 3e ec 02 9c bc 05 b9 b3 be 63 7d 9b 3e
       0.31464377 -0.019044362 -0.35102096 0.303691
000020 39 bc 95 bd 00 3a 85 bf d1 1d 32 bd 26 b9 11 3e
       -0.07311291 -1.0408325 -0.043485466 0.14230785
000030 77 0d 90 bf 42 5b 84 bd 49 7a 7c be ec 37 14 bf
       -1.1254109 -0.064627185 -0.24656023 -0.5789783
000040 6c 7a 1a 3d e4 06 0c be 37 12 bf 3e 38 a0 a3 bf
       0.037714407 -0.13674504 0.37318584 -1.278327
000050 f7 92 28 be d6 fd d0 3d ee ba db be 28 d2 bb 3d
       -0.16462313 0.10204665 -0.42916054 0.091709435
000060 02 0d 98 bc ec f0 4a be 31 56 f8 bf b2 d7 24 be
       -0.01856089 -0.19818467 -1.9401304 -0.16097906
000070 60 b1 73 3e a4 54 ce 3e 9d 8b 84 bc 7c aa 41 bf
       0.23798132 0.4029895 -0.016179854 -0.75650764
000080 05 e3 a9 3d 8c 98 bd bf ef ce 57 3d 29 1e 93 bd
       0.08295254 -1.4812179 0.05268758 -0.07183487
000090 9e 4a 76 be 96 62 ff be 98 e1 2b be 48 aa 8b 3e
       -0.24051902 -0.49879903 -0.16785276 0.27278352
0000a0 27 47 5c bd 69 32 41 3e 67 de 85 3d 47 6c 96 3f
       -0.053778794 0.18866886 0.065365605 1.1751794
0000b0 cc 9f 74 be 62 a2 15 3d 46 c5 56 3e a3 da db be
       -0.23889083 0.036531813 0.20973691 -0.42940244
0000c0 2d 8b c8 3d 19 5c e7 3e bc 8b 8e bd 3a 8b 0a 3e
       0.09792171 0.45187452 -0.06960246 0.13529673
0000d0 d2 fe 7d 3d 7c 5e 07 be 9e f4 40 3d 28 e9 1b 3e
       0.062010594 -0.13219637 0.047108285 0.15225661
0000e0 1b d2 43 bf 86 4a 5e bd 42 c7 d3 bc 03 e5 ff be
       -0.7649247 -0.05427029 -0.02585185 -0.4997941
0000f0 88 6d 55 bd 7a 17 ab 3d e5 b9 31 3e 2f c7 68 bf
       -0.05210641 0.08354087 0.1735607 -0.9092893
000100 4c 4f c6 3d ff 85 c8 3e fc d6 11 bd 5c 38 83 3d
       0.096830934 0.3916473 -0.035605416 0.06407234
000110 7c cb 1e bf ba 8e 1d bf cd 2e af 3e 4c 82 84 bd
       -0.6202924 -0.6154591 0.34215394 -0.06470165
000120 b3 04 c9 3c 0c 41 a9 bd 36 02 5a 3d 83 23 06 3f
       0.024538374 -0.0826436 0.053224765 0.52397937
000130 49 21 71 3e 54 26 86 bf 24 5d 93 bd f1 d2 97 3e
       0.23547854 -1.0480447 -0.071954995 0.29653123
000140 2d db 88 3d b0 e0 30 3e fd 14 65 3e 52 dd ad bd
       0.066824295 0.17273211 0.22371288 -0.08489479
000150 8c 31 86 3c f7 f1 29 3e e9 66 d6 bd 43 d7 0f be
       0.016381048 0.16596209 -0.10468847 -0.1404696
000160 d0 87 26 3e f1 f9 f8 bd 75 fb 39 be 84 e4 49 bd
       0.16262746 -0.121570475 -0.1816233 -0.049290195
000170 b0 06 80 3c e6 c6 cc be 64 09 05 be 41 6a 0a c0
       0.015628189 -0.39995497 -0.12991863 -2.1627352
000180 5a d9 21 3e a5 ae 62 3d 19 6f 06 bd 83 7f 8d be
       0.1580557 0.055342335 -0.032820795 -0.27636346
000190 70 8f 18 3c a2 8b 0d 3d d0 6d 72 3b c8 4a 77 3e
       0.009311542 0.034556992 0.0036991723 0.2414962
0001a0 8f 21 c9 3d f4 bb d1 bd e6 dd 4a 3e 53 a8 ea be
       0.09820854 -0.10240927 0.1981121 -0.45831546
0001b0 ef ac 79 3b 40 03 49 bd 9a 61 50 bc a2 c7 7d bd
       0.0038097461 -0.049075365 -0.0127185825 -0.061957963
0001c0 23 32 9b be 7d b2 c6 3e 10 3b b8 3e bd af 99 3d
       -0.3031169 0.3880805 0.3598256 0.075042225
0001d0 b3 77 af 3d 6b 39 09 bc e4 75 c7 3e d2 9a 9f bf
       0.08567753 -0.008375506 0.3895713 -1.2469122
0001e0 58 7e 2f 3e a7 62 ce be c5 a9 84 bd 31 12 44 bd
       0.1713804 -0.4030964 -0.064776935 -0.04786891
0001f0 de 2b 72 be d9 27 ad be db 1b 56 3e e9 0c f7 3e
       -0.23649547 -0.33819464 0.20909064 0.48252037
000200 f6 46 19 3d f8 62 43 be 98 fe 6f be 25 8b f6 bd
       0.03742119 -0.19080722 -0.23436964 -0.120382585
000210 49 1f 6b 3e 2d c8 2b bd 34 d4 82 3d 0c 89 a4 3c
       0.22961153 -0.04193895 0.06388131 0.02008488
000220 51 e3 81 3b c9 61 ef be 8a b0 ef bf 07 d7 5e 3e
       0.003963866 -0.46754292 -1.872575 0.21761714
000230 f6 1c 0d 3e 17 8e a9 3d c8 8f a4 bc f4 0a e1 3e
       0.13780579 0.082790546 -0.020088091 0.4395367
000240 d8 45 eb 3c 3a ab 06 be a5 51 d2 bd b1 e0 a6 3e
       0.028719828 -0.13151255 -0.10269479 0.325933
000250 df 33 24 bd 2b 2d b7 be 9e 9c 9d be a1 3d e3 bf
       -0.04008853 -0.35776648 -0.30783552 -1.7753183
000260 77 99 01 bf 45 f6 b1 3e d0 f1 34 bf 12 9e 60 bf
       -0.50624794 0.347582 -0.70681477 -0.87741196
000270 1e 6c 0e be a3 94 01 3e a4 14 b2 3d 2a b2 d3 be
       -0.13908431 0.12654357 0.08695343 -0.41346866
000280 0d 19 43 3e ce 4f 21 bd e4 83 63 3e 52 1e 02 3c
       0.19052525 -0.03938275 0.22218281 0.007941799
000290 90 f1 b8 3d 27 cc a8 bc 00 d9 51 be ba 95 de 3d
       0.090304494 -0.02060516 -0.20492935 0.10868402
0002a0 a2 6d 79 3d 7b f9 37 3e 0e b7 87 bd d6 78 d5 3e
       0.06089557 0.17966263 -0.06626712 0.41693753
0002b0 c1 7d ee 3c 56 8a b7 3d 41 dd af 3e 86 b0 73 be
       0.029112699 0.08961932 0.3434849 -0.23797807
0002c0 a9 0c ec bd 59 2b 5b 3e bd 3c d2 3c 44 b9 bd bc
       -0.11525852 0.21403255 0.025663728 -0.02315963
0002d0 d0 fd 6a 3c d5 98 d7 3d 91 f0 8f bd 69 c8 e3 be
       0.01434274 0.10527197 -0.07028306 -0.44488838
0002e0 be b1 08 3e 5e 9d ba bd 64 5b d9 bc 81 9f 65 3e
       0.13349053 -0.09112047 -0.026532836 0.22424127
0002f0 2d e2 aa 3d 03 c7 83 3d 46 e9 70 be c6 b7 70 bf
       0.08343921 0.06434443 -0.23526487 -0.94030416
000300 e5 de c0 bc bb 66 40 3d 9c f1 b5 3d a1 9f 14 be
       -0.023543784 0.04697297 0.08883974 -0.14514019
000310 9e b9 10 3d 68 33 8b 3e d3 b2 bc bd 2c 09 74 3e
       0.03533327 0.27187657 -0.092137955 0.23831624
000320 17 5f 3b 3e cb c8 1d 3d 36 41 de 3c f6 d0 ed 3d
       0.18297993 0.03852157 0.027130704 0.11612122
000330 03 2b 74 3d 8a 53 1a c0 98 2c af bc 3c 91 37 3c
       0.05961133 -2.4113488 -0.021383569 0.01120406
000340 e2 75 34 bd 69 bc f2 3c 42 9c ff 39 a8 a4 9f 3c
       -0.044057734 0.029630857 0.0004875381 0.019487694
000350 5a 96 b3 be 38 0e d0 be 60 94 0c 3e a2 7d cb bd
       -0.35075647 -0.40635848 0.13728476 -0.09936072
000360 5b c2 3c bd 8d 38 f7 3d d6 9b 38 3e d1 7f 9f be
       -0.04608379 0.12071333 0.18028197 -0.31152204
000370 be 71 30 3d 23 11 4c 3f ed 0a 24 c0 aa 8f 97 bf
       0.043077223 0.7971365 -2.5631669 -1.1840718
000380 66 57 5c be e9 3f 8a 3e 85 6d 92 3d 62 92 f4 be
       -0.21517715 0.27001885 0.071497954 -0.4776793
000390 66 b4 3e bd 54 e3 b1 be ae ba 1f 3d c9 6f 18 be
       -0.04655876 -0.3474375 0.03899639 -0.14886393
0003a0 4a bd 77 3c cb 00 ae 3e 72 51 1f be 27 83 76 be
       0.015120814 0.3398498 -0.15558413 -0.24073468
0003b0 b3 f2 fc bd 6b 7e 07 bf 0a 67 fb bd 39 5e 0d bf
       -0.12350979 -0.52927274 -0.122755125 -0.552219
0003c0 49 3d 59 bd 82 7c a3 bd 93 43 1b 3d 28 6f 65 3c
       -0.05303696 -0.07982732 0.03790624 0.0140035525
0003d0 55 87 db bf ca 5e e2 bd c7 52 16 bf f7 a2 a3 3d
       -1.7150675 -0.11053236 -0.5872006 0.079900675
0003e0 77 9e c1 3d cf c5 84 bf 38 ee 74 bc 3f 7f 43 be
       0.09454053 -1.0372866 -0.014949374 -0.1909151
0003f0 27 9e 2c be b2 07 91 3e 50 67 39 be 3d 70 e1 3d
       -0.16857205 0.28326184 -0.18105817 0.11007736

net.2.bias f4 [128]
000000 2f dd 69 3e 63 7c 6f 3d f4 c8 af 3d 16 3c 1d be
       0.22838281 0.058468234 0.08583251 -0.15354952
000010 76 eb 81 bb 85 96 45 be 4d 1f 3c 3d c0 5f ec 3d
       -0.0039648367 -0.192957 0.04592829 0.115417
000020 a3 91 b1 bd 19 a9 ab bd b6 0d bf 3d 29 04 33 3c
       -0.08670356 -0.08381862 0.09328787 0.010926285
000030 8c 44 36 bd 02 11 90 bd 67 27 2a 3c 9f aa ee 39
       -0.044498965 -0.07034494 0.010385371 0.0004552202
000040 86 ac 5e 3d 76 ff e5 3d 25 cc f0 3d 14 a8 89 bd
       0.05436375 0.11230366 0.117576875 -0.067215115
000050 ed dd c7 3e 12 69 18 3d 59 13 5f bd a3 10 88 3e
       0.39036503 0.037209578 -0.05446181 0.26575193
000060 1a a2 fb 3a d8 51 a7 3c 47 1a b1 bc 16 b5 18 be
       0.001919809 0.020424768 -0.021618975 -0.14912829
000070 b7 6e 75 3e a8 3e 0c be c5 0d 93 bd b3 97 dd bd
       0.23968016 -0.13695776 -0.07180361 -0.1081995
000080 af f3 79 3d 41 a0 12 be cb f5 d3 bc 8c a7 b5 bd
       0.06102341 -0.14318945 -0.02587404 -0.08869848
000090 9f ae 2b be 32 02 3c bd 4e 59 00 3d 44 e5 ab 3c
       -0.16765831 -0.04590053 0.031335168 0.020983346
0000a0 35 1a 91 bd 46 43 9d bd 00 fc f9 bd ab 13 91 bd
       -0.07085077 -0.07678847 -0.12206268 -0.070838295
0000b0 25 44 ad bc ad 2d 22 bc 30 ec 0b be 9d 5c 83 3e
       -0.021150658 -0.009898585 -0.13664317 0.25656596
0000c0 fa 50 92 bd de ca 6b 3d 22 74 5e bd bb a2 cc bd
       -0.07144351 0.057566516 -0.05430997 -0.09991976
0000d0 35 ef c0 bd 97 76 b6 bc c4 51 38 bc 3f 10 17 3d
       -0.09420625 -0.022273345 -0.011249963 0.036880728
0000e0 7a 51 2d bc ac 46 b9 bd 72 b0 27 3c 45 25 b7 bc
       -0.010578508 -0.09046683 0.010234939 -0.022356639
0000f0 38 0b 9a 3e fb d5 48 bd 7a eb 22 bd 7b bf 74 bc
       0.30086684 -0.049032193 -0.03977535 -0.014938231
000100 ed d4 b6 bc d6 29 49 bd bd 00 90 3e b0 66 a3 3d
       -0.022318328 -0.049112163 0.28125563 0.079785705
000110 64 4b 0c bd 39 66 0d 3e a7 1d b8 bd 1a 8b 06 3c
       -0.034251586 0.13808526 -0.08990031 0.008211875
000120 f7 a3 e7 bc dd e8 5a 3c 0d c8 89 3d 23 06 6c 3e
       -0.028276427 0.013361183 0.0672761 0.23049216
000130 1b eb c6 3d e8 03 d2 bd f5 ba d0 bd a9 c3 e1 bd
       0.097128116 -0.10254651 -0.10191909 -0.11023647
000140 7c b5 ef bd e7 21 b9 bc 7d 75 a6 bc 64 de 47 3c
       -0.11704537 -0.022599174 -0.020319695 0.012199018
000150 6e c2 e5 3b af 4d b7 bc 6f 9d d9 bd 71 e3 e3 3b
       0.007011703 -0.02237591 -0.10625731 0.0069546034
000160 9d 2f 9f bd c6 00 61 3e c3 a8 52 3e 5d 91 41 3d
       -0.077727534 0.21972951 0.2057219 0.04725777
000170 e6 3b 04 3e 62 49 c2 3c ad a8 61 3c f8 af b0 3c
       0.12913474 0.023716632 0.013773126 0.021568283
000180 19 c4 86 bc 05 da bf bc df 18 99 bc 69 d2 9e 3d
       -0.016450929 -0.02341939 -0.018688617 0.07754976
000190 be c0 e2 bd a5 23 ab 3d df 9e 0c 3b 3b e3 12 3e
       -0.11071919 0.08356408 0.0021457 0.14344494
0001a0 b9 b1 d8 bb 35 3c 00 3e 38 1e 80 bd 06 d9 c8 bd
       -0.006612983 0.12522967 -0.06255764 -0.09807019
0001b0 25 e1 29 3c 02 78 61 be 8c 08 74 bd 9c 11 22 bc
       0.01036862 -0.22018436 -0.059578463 -0.009891894
0001c0 3c 01 ee bc d3 c0 25 3e a5 f1 2f bd 4a f9 54 bd
       -0.029053323 0.16186838 -0.04295506 -0.051995553
0001d0 0a 56 8f 3c 25 c7 08 bd 77 c6 80 bd 9a e7 08 3c
       0.017497081 -0.033393044 -0.06287854 0.008355999
0001e0 47 1e a8 bd f8 24 4d bd 32 9c f7 bb b5 de d9 3c
       -0.082089 -0.050084084 -0.0075564617 0.026595453
0001f0 fa 3f 0c be 65 ed 13 bd f1 37 23 3d 29 bd a6 bd
       -0.1369628 -0.03611507 0.03984827 -0.08141548

net.4.weight f4 [2, 128]
000000 07 93 2e 3f 8a e1 a1 3f c6 ec 6d 3f c7 0f a1 bf
       0.68193096 1.2646954 0.9293941 -1.258294
000010 14 48 1d be 32 a0 24 bf a1 76 41 3f 14 cb af be
       -0.15359527 -0.6430694 0.7557164 -0.34334624
000020 8e 90 3e 3d 25 76 29 bd 0d 31 f2 bf 0c c2 08 bf
       0.046524577 -0.041372437 -1.8921219 -0.5342109
000030 8d 7a 22 b9 59 bd 81 3d 0b 27 33 bc ea 19 92 bd
       -0.00015495178 0.06334943 -0.010934602 -0.07133849
000040 54 80 c6 3f 82 ac 15 bf de 8b 40 bf 58 37 27 3d
       1.5507913 -0.5846635 -0.7521342 0.040824264
000050 55 17 7e 3e 06 a5 67 be ad 0d ce 3f cd 7c 9e 3d
       0.24813588 -0.22621545 1.6097924 0.077386476
000060 85 1e 67 bf 65 f7 04 c0 0f 1d dc be f4 b3 15 3d
       -0.90280944 -2.0775998 -0.4299092 0.03654857
000070 7d 56 45 3f 97 d5 52 be 75 d2 23 bc f8 16 0c 3f
       0.77085096 -0.2058929 -0.009998907 0.5472255
000080 99 1e 2d 3e da 20 25 3f 65 d2 e0 3f 9f 0e 15 bf
       0.16906203 0.6450325 1.7564207 -0.58225435
000090 6b 59 93 bf 72 15 7e bc 75 42 83 3f b1 f0 a1 bd
       -1.1511663 -0.015508043 1.0254656 -0.07907236
0000a0 9c 24 39 3c 85 dd 44 3c 36 11 7b 3c 6c 42 ae bc
       0.011300232 0.012015705 0.015323928 -0.021271907
0000b0 bd 6b b3 3d 89 50 84 3d a0 cf 86 3e e8 01 19 3d
       0.08760784 0.06460673 0.2633028 0.037355334
0000c0 5e bc 1a bd ef b5 b4 be 85 13 07 3d f0 84 f5 3c
       -0.037777297 -0.35295054 0.0329776 0.029970616
0000d0 90 c5 22 bd f8 b2 a2 3b 97 56 74 3d a7 58 c4 3c
       -0.03973919 0.0049651824 0.05965289 0.023968054
0000e0 fe e0 22 bf de cc 49 3d 44 fd 7e 3c b0 57 f8 3a
       -0.6362456 0.049267642 0.015563313 0.0018947031
0000f0 0a 20 6a 3e b8 4f 76 bd f4 c3 78 bd c7 aa 9f bd
       0.22863784 -0.06013462 -0.06073375 -0.07796245
000100 75 23 91 bd 64 9f cc bc a3 d4 81 bf 91 06 65 bf
       -0.07086841 -0.024978347 -1.0143017 -0.89463145
000110 c6 b4 3a bd e7 91 3b 3f da 11 f3 3d d3 d4 ff bc
       -0.045582555 0.73269504 0.11868639 -0.031229412
000120 89 c8 ce bc bd 76 a2 3a fc 16 8e bf 18 4c 7c 3e
       -0.025242107 0.0012395006 -1.1100764 0.24638402
000130 0e 87 bf 3f 14 1e 63 bc b5 6d 74 bc 92 25 f5 3c
       1.496309 -0.013862152 -0.014918734 0.029925141
000140 87 8d 60 bd 03 25 34 3f 35 69 25 bf 78 05 37 3d
       -0.05482247 0.70368975 -0.6461366 0.04468295
000150 df 54 d7 bf 2c b1 0a 3d 81 17 c8 3d 8c b9 97 bc
       -1.6822776 0.03386037 0.09770108 -0.018521093
000160 77 40 a9 3d 3b 40 1a bf ec b3 92 bf 64 b0 eb 3d
       0.08264249 -0.6025426 -1.1461158 0.11508253
000170 b9 42 b6 3f ba 8e 42 3f c8 7c 0c 3e 32 64 30 3d
       1.4239112 0.75999033 0.13719475 0.043064304
000180 90 dc 1b be c3 ad 31 bc 35 a3 ae 3f 81 d8 67 be
       -0.15220857 -0.010844651 1.3643557 -0.22641183
000190 ff f3 81 be 3a f9 3c bc f1 55 1a 3f 62 cf f2 3d
       -0.25381467 -0.01153403 0.60287386 0.118559614
0001a0 8b 7d d9 3c ab 74 7a 3f ea 30 89 bd af 8c e4 3e
       0.026549121 0.9783427 -0.06698783 0.44638583
0001b0 b6 64 6f 3f fb c1 8f bf 2f 47 69 3f b5 93 02 be
       0.9351305 -1.1231073 0.9112424 -0.12751658
0001c0 57 6f 95 bc 83 76 3a 3d 5c 8a 15 bc 1b 8f 06 3d
       -0.018241568 0.045523178 -0.009127226 0.03285132
0001d0 d1 21 89 be 82 28 1c 3d 8d 3e 18 bd 9c a1 60 bc
       -0.26783612 0.03812457 -0.037169028 -0.013710406
0001e0 d1 f8 9c bd aa bb f8 bc 3f cd a9 3b 22 d2 33 bc
       -0.076646455 -0.030362923 0.005181938 -0.010975393
0001f0 14 30 71 3f 0d b3 8e bd 4e 59 63 bd 50 73 06 3c
       0.94213986 -0.06967745 -0.05550509 0.008206204
000200 8e c0 c7 3e 32 46 96 3f 91 a9 b0 3f dd 5d 1e bf
       0.39014095 1.1740172 1.3801748 -0.61861974
000210 08 c0 21 bd d9 1d 63 bc c2 9c 9b 3f 8c 82 a0 bf
       -0.039489776 -0.013862097 1.2157214 -1.253984
000220 3c dd e5 bc c0 60 61 3c 2e b9 42 bf b3 12 3c bf
       -0.028059594 0.013755977 -0.7606381 -0.7346603
000230 7e 82 92 bd 0d 66 80 bb d5 fe 13 bd 56 e7 04 bc
       -0.07153796 -0.0039184154 -0.0361317 -0.008111795
000240 b9 48 47 be 11 05 2e bd 45 6c 6d be ed a0 44 3a
       -0.19461335 -0.0424853 -0.23185833 0.00075007865
000250 cd 6f 2e 3e 28 f6 c3 bf 6d 7e c3 3f bb 31 f4 3d
       0.17034836 -1.5309496 1.5272957 0.11923548
000260 48 41 6a bf 74 7b 20 3f 0b 86 13 bf a9 d8 d2 bc
       -0.9150586 0.62688375 -0.5762641 -0.025738077
000270 76 25 8a be 73 52 d7 3d 90 0e cb bc bf 0e ba 3e
       -0.26981705 0.10513773 -0.024787217 0.36339375
000280 f1 c2 49 bf d8 df 48 be 6b 85 c3 3f 0a 14 68 3e
       -0.7881308 -0.1961664 1.5275091 0.22663894
000290 aa ff 01 bf 86 73 47 3d c5 1c 61 3e ba 9f 78 3d
       -0.5078074 0.048694156 0.21983631 0.060699202
0002a0 29 ee fe bb 2a 0a b1 3c 87 d4 53 bc d3 01 a0 3d
       -0.0077798557 0.021611292 -0.012929088 0.07812848
0002b0 ef 8b 83 3c 97 df d5 bd fd 81 bf bf 77 59 20 3e
       0.016057936 -0.10443037 -1.4961544 0.15659128
0002c0 7e 1c a8 bd 80 37 4d be 05 3f c4 3c 5c aa a0 3c
       -0.082085595 -0.20040703 0.023955831 0.019612484
0002d0 50 9f 59 bd b2 6e 11 3d e7 c7 0d bc 40 8f b9 3c
       -0.053130448 0.035505958 -0.008653617 0.022651315
0002e0 66 9c 0b be bc 3a 01 3d 74 1a 84 bc ec 67 59 b9
       -0.1363388 0.031550154 -0.016125895 -0.00020733447
0002f0 e9 72 28 3e 36 64 13 3d 50 2e 23 3d 47 a3 ea bd
       0.16450085 0.03598424 0.03983909 -0.11456924
000300 cf b1 3d 3d 19 a5 ad 3c 63 3b 8c bf 98 9f 0e 3f
       0.04631215 0.021196889 -1.0955623 0.5571227
000310 7b 7f 55 3c 69 d2 1d 3d 30 44 82 3f a8 63 ae 3c
       0.013030882 0.03853074 1.0177059 0.021287754
000320 71 15 1d 3d 28 b6 16 bd d8 f4 04 bf 38 cf 41 3e
       0.038350526 -0.03679481 -0.519361 0.18926704
000330 45 b2 b0 3f a1 85 cc bb c8 da 4a 3c ff 97 8e 3d
       1.3804404 -0.0062415157 0.012381263 0.06962585
000340 74 c9 68 bd cf fc 3a 3f ab 78 db bf ce 87 63 bc
       -0.056832746 0.73042005 -1.71462 -0.013887359
000350 5b 65 f8 be b6 4f ae bc ea 67 28 bc e2 96 7c bc
       -0.48514828 -0.021278244 -0.010278681 -0.015416833
000360 c6 47 5e bd e4 fb a8 bf 80 ab 47 bf 29 6f 16 3e
       -0.054267667 -1.3201871 -0.77996063 0.14690842
000370 bb b4 43 3f bd a2 6b 3f 9b e6 61 bf b0 32 f6 ba
       0.7644765 0.92045194 -0.882425 -0.0018783417
000380 69 02 de bf 06 ac 18 ba 48 10 89 3f 3e 3c 41 be
       -1.7344486 -0.00058239733 1.0708094 -0.18870637
000390 22 23 be 3f 7c 41 6c 3f 50 f5 8c 3f cd 7f 8d 3e
       1.4854472 0.9228742 1.1012363 0.27636567
0003a0 63 e6 27 bb 00 d6 22 3f 2c fe b1 3e 8e de 84 3e
       -0.00256195 0.6360779 0.3476423 0.25951046
0003b0 70 96 f8 be 03 c4 91 be d6 7b 09 3d cd 8b c5 bd
       -0.48552275 -0.28469858 0.033565365 -0.096458055
0003c0 aa cc 5b bc d4 90 a9 3d f0 4a bb bc 47 78 2d bc
       -0.013415495 0.08279577 -0.022862881 -0.010587758
0003d0 5a d8 04 bf 00 be 4f 3b 9f e8 5c bd 9b d3 03 bb
       -0.51892626 0.0031698942 -0.053932782 -0.002011514
0003e0 68 d3 66 3c a8 0b 55 3d 0b 79 b3 3c df 4e 28 be
       0.014088489 0.05201307 0.021908304 -0.16436337
0003f0 0a bf 27 3f fa 37 bf be 56 1e 3c bd 2c d8 bc bc
       0.6552588 -0.37347394 -0.045927368 -0.023052298

net.4.bias f4 [2]
000000 0a 76 55 3d 20 34 4d 3d
       0.052114524 0.05009854
