checkpoints/geometry_ep300.pth (torch, 75369 bytes, 6 tensors)

net.0.weight f4 [128, 9]
0	0xbe926e5d	-0.28599826
1	0x3ea558fa	0.32294446
2	0xbe95f4b3	-0.29288253
3	0xbe7e1d15	-0.24815781
4	0x3d8cde3e	0.06878327
5	0xbe80bfd6	-0.2514636
6	0xbe258311	-0.16163279
7	0x3d74bfb8	0.05975315
8	0xbdea2f8d	-0.11434851
9	0xbfc71828	-1.5554247
10	0xbebc827e	-0.36818308
11	0x3f1b73cf	0.60723585
12	0x3ea90124	0.33008683
13	0x3e0d1abe	0.13779733
14	0xbe8807b6	-0.26568383
15	0x3eaea914	0.3411337
16	0xbb107754	-0.0022043781
17	0x3e102fdb	0.14080755
18	0xc0286a50	-2.6314888
19	0xbd8d04d3	-0.06885686
20	0x3e99a876	0.30011338
21	0x3ccb481e	0.024814662
22	0xbd6e2b32	-0.058146663
23	0xc046bf12	-3.105412
24	0xbe5cc3ca	-0.21559063
25	0x3d7bd111	0.061478678
26	0x3d7b1397	0.06129798
27	0xbfcbeb4a	-1.593118
28	0x3e25ad35	0.16179354
29	0x3c9efb36	0.019406896
30	0x3e3dbaf1	0.18528344
31	0xbd6d3825	-0.05791487
32	0xbe82dd25	-0.25559345
33	0x3f0935f3	0.53597945
34	0x3c6ebf8e	0.014572037
35	0x3c47989a	0.012182379
36	0x40011e21	2.017464
37	0xbf2236b8	-0.63364744
38	0x3e4ead5b	0.20183317
39	0x3dfa046b	0.12207874
40	0xbe80400c	-0.25048864
41	0x40a2d39e	5.088332
42	0x3eae2f8d	0.34020653
43	0x3dac1870	0.084030986
44	0xbd52f0a9	-0.051499043
45	0xbea516a7	-0.32243845
46	0xbd8551fc	-0.06509778
47	0x3d3c70a8	0.046005875
48	0x3def8000	0.11694336
49	0xbb194780	-0.0023388565
50	0xbd3adc40	-0.045620203
51	0xbe881324	-0.26577103
52	0xbd9c8134	-0.07641831
53	0xbd83bb10	-0.06432164
54	0x3f7d6251	0.98978144
55	0xbe269a55	-0.1626981
56	0xbea085b8	-0.3135202
57	0xbdb1cc79	-0.08681578
58	0xbdcb4a0c	-0.09926233
59	0x3f4aee38	0.7926974
60	0x3f3e5991	0.7435542
61	0x3e15291e	0.14566466
62	0xbdad21c6	-0.084537074
63	0xc0060b25	-2.0944302
64	0xbea347b7	-0.31890652
65	0x3e9c8001	0.3056641
66	0xb9d6feba	-0.00041007047
67	0x3e8f3913	0.27973232
68	0xc07c9dbb	-3.947127
69	0xbf026ca5	-0.5094703
70	0x3dd16933	0.10225143
71	0x3de6a0e9	0.1126116
72	0x3eaeb1b5	0.34119955
73	0x3ee0b6e8	0.43889546
74	0xbf3cdb19	-0.73771816
75	0xbe087acd	-0.13328095
76	0xbe718dad	-0.23589201
77	0xc0217d0e	-2.5232577
78	0xbe43c49f	-0.19117974
79	0xbed9f0ae	-0.42566437
80	0xbf4947f8	-0.7862544
81	0xbfede4af	-1.8585414
82	0xbe522720	-0.20522738
83	0x3f1ecf1f	0.6203479
84	0x3e8a346f	0.2699313
85	0xbab2477c	-0.0013601626
86	0xc072bf7a	-3.7929368
87	0x3ee02d1c	0.43784416
88	0x3dc0c082	0.09411718
89	0xbdb99afc	-0.09062764
90	0xbfef976f	-1.8718089
91	0xbf31dfba	-0.69482005
92	0xbe544573	-0.20729618
93	0xbe0d5671	-0.13802506
94	0xbe974290	-0.2954297
95	0xc0227a84	-2.5387278
96	0x3f6c3e84	0.9228289
97	0x3d5ce3c6	0.05392816
98	0x3b07cc1e	0.0020721029
99	0x400c5bd9	2.193106
100	0xbd607f8f	-0.05480915
101	0xbf36a67e	-0.71347797
102	0xbe9e4490	-0.30911684
103	0x3d082a34	0.033243373
104	0x402d66d8	2.709402
105	0xbec41d09	-0.38303402
106	0x3ecf0330	0.4043212
107	0x3cf0bc19	0.029386567
108	0xbdbc706e	-0.09201132
109	0x3e851c12	0.25997978
110	0x3c9fb4aa	0.019495327
111	0x3d6b5c6e	0.057461195
112	0xbe46bd84	-0.19408232
113	0x3d3bfa08	0.045892745
114	0xbf3702a0	-0.7148838
115	0x3eb22a10	0.34797716
116	0x3eb1143b	0.34585747
117	0xbe63c50c	-0.22243136
118	0xbe2eac7a	-0.17057982
119	0x3e706b49	0.23478426
120	0x3d2750ea	0.04084865
121	0xbe1863de	-0.14881846
122	0xbe69ebcf	-0.2284386
123	0xbe1708ac	-0.14749402
124	0xbe9055f5	-0.2819058
125	0xbcbe8bc0	-0.023259997
126	0x3ee5238b	0.4475368
127	0x3ee9a70d	0.45635262
128	0xbf02d91e	-0.51112545
129	0xbf4fa0e7	-0.8110489
130	0x3e082b45	0.13297756
131	0xc09e7f5a	-4.953046
132	0x3e0ee84b	0.139558
133	0x3c9353fb	0.017984381
134	0xbee56d1e	-0.44809812
135	0xbf879b0b	-1.059419
136	0x3dacc377	0.084357195
137	0x3e4fe976	0.20303902
138	0x3eac35fd	0.3363494
139	0xbd5df10d	-0.054184962
140	0xc069ff0e	-3.6561923
141	0x3ce0b6ad	0.027430857
142	0x3e97f04a	0.29675514
143	0xbf682318	-0.9067855
144	0x3fd747d2	1.6818793
145	0xbeafcbf5	-0.34335294
146	0x3dfc54d0	0.12320864
147	0xbd667634	-0.05626507
148	0xbd6d4b3e	-0.057933085
149	0x406274c4	3.5383768
150	0x3ef9090d	0.48639718
151	0x3c04b12a	0.00809888
152	0xbdacde96	-0.084408924
153	0x3f8223d7	1.0167187
154	0x3e8adb69	0.27120522
155	0xbdca407e	-0.09875582
156	0x3dba3f4e	0.09094106
157	0x3da59686	0.08085351
158	0xbf00c3fa	-0.50299037
159	0xbed59d49	-0.41721562
160	0xbedfd22e	-0.43715042
161	0xbdaaa212	-0.08331694
162	0x3e8530c4	0.26013768
163	0xbd885337	-0.06656497
164	0xbe94daa7	-0.29073068
165	0xba7c5213	-0.0009625267
166	0x3ea2390c	0.31684148
167	0xbff2c2be	-1.8965681
168	0xbf486b5a	-0.78288805
169	0xbe95baed	-0.29244176
170	0x3ea83111	0.32849935
171	0xbebe2454	-0.3713709
172	0x3cac6556	0.021044414
173	0xbf00f127	-0.5036797
174	0x3ddb97c0	0.107223034
175	0xbf027e98	-0.50974417
176	0xbf97b9bb	-1.1853555
177	0xbf203ded	-0.6259449
178	0x3e465706	0.19369134
179	0xbd75e484	-0.060032383
180	0x3e068dfc	0.131401
181	0x3e8e75b4	0.27824175
182	0x3d0ee970	0.034890592
183	0xbf8dd027	-1.1079148
184	0x3df254d0	0.11832583
185	0xbf69bae2	-0.91300786
186	0xbe6dde06	-0.23229226
187	0xbe9c812c	-0.305673
188	0xbf1ae2b4	-0.6050217
189	0xbf7d7f4a	-0.9902235
190	0xbf046219	-0.51712185
191	0xbe58471c	-0.21120876
192	0xbf6d2b87	-0.9264454
193	0x3e137c60	0.14402914
194	0xbe9f85a1	-0.31156638
195	0xbd3a6f29	-0.045516167
196	0xbd53169f	-0.051535245
197	0x3efdae5f	0.49547097
198	0xbfb433c6	-1.40783
199	0x3d3c77bb	0.04601262
200	0xbd1d29cd	-0.038369942
201	0xbeccab0e	-0.39974254
202	0x3d8f71e8	0.07004148
203	0xc0017a85	-2.023103
204	0xbe321b4d	-0.17393227
205	0x3eab96a0	0.33513355
206	0xbf35115f	-0.7072963
207	0xbfbbc67e	-1.466995
208	0xbf32ce93	-0.6984646
209	0x3f38e84b	0.7222945
210	0xbde77f33	-0.11303558
211	0xbdea4a25	-0.11439923
212	0xc03ec601	-2.9808352
213	0x3eaed509	0.34146908
214	0xc0802d46	-4.0055265
215	0xbe7250e9	-0.23663677
216	0xbcb2cb3f	-0.02182543
217	0xbee04d87	-0.4380915
218	0x3ef66d09	0.48130062
219	0xbed596ea	-0.417167
220	0xbe8164e3	-0.25272283
221	0x3e90a753	0.28252658
222	0x3ef4689a	0.47736055
223	0x3bd83871	0.006598525
224	0x3d1ad948	0.03780487
225	0xbf77031a	-0.9648911
226	0x3eced5f0	0.40397596
227	0x3d9d5724	0.076826364
228	0x3e790f24	0.24322182
229	0x3d135d82	0.035977848
230	0xc09b7389	-4.8578534
231	0xbe7baeb8	-0.24578369
232	0x3d132c37	0.03593084
233	0x3e9fddcd	0.31223908
234	0xbff0ff7e	-1.882797
235	0x3cf95d98	0.030440137
236	0x3ef1baf1	0.47212937
237	0xbce4e1fe	-0.027939793
238	0x3d21f97c	0.039544567
239	0xc0482519	-3.1272643
240	0xbecace09	-0.39610317
241	0xc08804ad	-4.250571
242	0xbeba7c58	-0.36422992
243	0x3fa877ef	1.3161601
244	0x3f2ed618	0.6829543
245	0xbe38d888	-0.1805135
246	0xbec342f6	-0.38137025
247	0x3c999506	0.018747818
248	0x3e6eae71	0.23308732
249	0xbf00689d	-0.5015963
250	0xbca369d9	-0.019947933
251	0xbdc1dc33	-0.09465828
252	0x3e676276	0.22596154
253	0x3ebe0f55	0.37121072
254	0xbe94a70b	-0.29033694
255	0xbe4cbcc4	-0.19993883

net.0.bias f4 [128]
0	0xbe95df65	-0.29272
1	0xbe0a8e7b	-0.13530914
2	0x3c410fa1	0.011783511
3	0xbebd13f0	-0.36929274
4	0x3e99b4f9	0.30020884
5	0xbc660f60	-0.014041752
6	0xbe023008	-0.12713635
7	0x3e1ba262	0.15198663
8	0x3e80ab7a	0.25130826
9	0xbe9a931f	-0.3019037
10	0x3d417acb	0.047236245
11	0x3e66bc7d	0.2253284
12	0xbee044ef	-0.43802592
13	0xbdc31fe7	-0.09527569
14	0xbe66d1b3	-0.22540931
15	0xbe88d7d0	-0.26727152
16	0x3df34790	0.11878884
17	0x3eb68bd1	0.35653546
18	0x3de8e889	0.113724776
19	0xbeb84b55	-0.35994974
20	0x3db71345	0.08939222
21	0x3cf90daa	0.030402023
22	0xbece8d0d	-0.40341988
23	0x3ea3f88e	0.3202557
24	0x3e17c3dd	0.1482081
25	0xbe943bd3	-0.28951892
26	0x3e102609	0.1407701
27	0x3c485d99	0.012229347
28	0xbe2469f6	-0.16056046
29	0x3eab00a6	0.33398932
30	0x3d40f8bb	0.047112208
31	0xbde1ba88	-0.11021906
32	0x3d72fe79	0.059324715
33	0xbe8237fd	-0.2543334
34	0xbce17557	-0.027521772
35	0x3df95be0	0.12175727
36	0xbe752ffa	-0.23944083
37	0xbe5c09b0	-0.2148807
38	0xbe24f65d	-0.16109605
39	0x3ea7bc3a	0.32760793
40	0xbe75b006	-0.23992929
41	0x3cb59a2e	0.022168245
42	0x3ca20cf6	0.01978157
43	0x3ec90625	0.392625
44	0xbe80cde7	-0.2515709
45	0x3d05deec	0.032683298
46	0xbd15a01d	-0.03652965
47	0xbdc966a3	-0.098340295
48	0xbb96afa1	-0.0045985733
49	0x3dcef1cb	0.10104712
50	0x3db1b4a9	0.08677036
51	0xbde9c1d8	-0.11413926
52	0xbe459730	-0.19295955
53	0xbdd1af6d	-0.10238538
54	0xbe7f0736	-0.24905095
55	0x3d5f5be1	0.054530982
56	0xbecc5603	-0.39909372
57	0xbe97c5ee	-0.29643196
58	0xbe1796a5	-0.1480356
59	0xbe593663	-0.21212153
60	0xbe62e5b0	-0.22157931
61	0xbd2f12ba	-0.04274247
62	0x3c0dd839	0.0086575085
63	0xbe4fce3c	-0.20293516
64	0xbee5a73d	-0.44854155
65	0xbd3c920f	-0.04603773
66	0xbe976479	-0.29568842
67	0x3e376032	0.1790779
68	0xbe4c2e29	-0.19939484
69	0x3e36fc15	0.17869599
70	0xbe001c70	-0.12510848
71	0xbe358ea8	-0.177302
72	0x3d39b4f3	0.045338582
73	0xbe1331a9	-0.14374413
74	0xbe72ae2a	-0.23699251
75	0x3dfdd9dd	0.1239507
76	0x3d9ab3ed	0.07553849
77	0x3eb2337e	0.3480491
78	0xbe83125f	-0.25599954
79	0xbd2d7371	-0.04234642
80	0xbebe27d0	-0.3713975
81	0x3c962f78	0.018333182
82	0x3d57d383	0.052691948
83	0xbe8ae80d	-0.27130166
84	0x3e259aa0	0.16172266
85	0xbe5cfc29	-0.21580566
86	0xbd21ab59	-0.03947005
87	0x3d05eb6e	0.032695226
88	0xbd587f79	-0.052855942
89	0xbce4f620	-0.027949393
90	0xbe1865a2	-0.1488252
91	0xbe216bd1	-0.15763785
92	0xbe8a3228	-0.2699139
93	0xbdf2eb07	-0.11861234
94	0x3eb58b35	0.3545777
95	0xbe7df941	-0.24802114
96	0x3dd099fd	0.10185621
97	0x3d13e737	0.036109176
98	0xbe61d3f3	-0.22053508
99	0xbe5f0daa	-0.21782556
100	0xbe3f1750	-0.18661237
101	0x3e8d6da6	0.27622718
102	0xbeb372b8	-0.3504846
103	0x3cd985bd	0.02655303
104	0x3e252f76	0.16131386
105	0xbd7ce30a	-0.06173996
106	0x3dd25d75	0.10271732
107	0xbe86af17	-0.26305458
108	0x3cf9ce83	0.03049398
109	0x3d4de62d	0.05026834
110	0xbd5b96d8	-0.053610653
111	0xbe40ce80	-0.18828773
112	0x3c7aff80	0.015319705
113	0x3e164497	0.14674602
114	0xbe96dd96	-0.29465932
115	0x3d060c70	0.032726705
116	0xbafa4702	-0.0019094648
117	0xbec3f212	-0.38270622
118	0xbc255bbe	-0.010092674
119	0xbd57292d	-0.052529503
120	0xbebe214c	-0.37134778
121	0xbdee62a5	-0.11639909
122	0xbdf5c660	-0.12000728
123	0xbdf73ba7	-0.12071925
124	0x3d9695ee	0.073528156
125	0xbe881667	-0.26579592
126	0x3e5914d2	0.21199349
127	0xbd381946	-0.044945978

net.2.weight f4 [128, 128]
0	0x3d3590fb	0.044327717
1	0x3d7f944d	0.06239729
2	0x3e72ca7f	0.23710059
3	0xbcb3cff7	-0.021949751
4	0x3e515640	0.20443058
5	0xbc9c02ec	-0.019044362
6	0xbe77c11a	-0.24194756
7	0x3ed16c9b	0.40903172
8	0xbd5e753b	-0.05431102
9	0xbfb4ecb6	-1.4134738
10	0xbdb4611b	-0.08807584
11	0x3e66a717	0.22524677
12	0xbfb3403b	-1.4003977
13	0xbd845b42	-0.064627185
14	0xbe811150	-0.2520852
15	0xbecff125	-0.40613666
16	0x3da791a2	0.08182074
17	0xbe3bd6f1	-0.18343712
18	0x3ee45c3d	0.44601622
19	0xbfa3a038	-1.278327
20	0xbeac7358	-0.3368175
21	0x3e9ce16d	0.30640736
22	0xbe6ad6e1	-0.22933532
23	0x3c404036	0.011734059
24	0x3cfcd76d	0.030864442
25	0xbe200f8c	-0.1563093
26	0xc00ffb9b	-2.2497318
27	0xbf131dca	-0.5746733
28	0x3e37ca3b	0.17948239
29	0x3ee44db1	0.44590524
30	0x3d94d78f	0.07267677
31	0xbf4fc9cc	-0.8116729
32	0x3d4a4d10	0.0493899
33	0xbfbd7811	-1.4802266
34	0x3e23108e	0.15924284
35	0xbe12d89d	-0.14340444
36	0x3d3d4dd4	0.0462168
37	0xbec122a5	-0.37721744
38	0xbe4f5c3f	-0.20250033
39	0x3e90d149	0.28284672
40	0xbd5c4727	-0.053778794
41	0x3e043b14	0.12913162
42	0x3dbbba48	0.0916639
43	0x3f5e6e1f	0.8688678
44	0xbe4f674c	-0.20254248
45	0xbddff7c3	-0.10935929
46	0x3eeaba43	0.4584523
47	0xbf7049c7	-0.93862575
48	0x3d9524dc	0.07282421
49	0x3f011fc7	0.50439113
50	0xbd8e8bbc	-0.06960246
51	0x3cde0723	0.027103012
52	0x3d7dfed2	0.062010594
53	0xbe3e55fa	-0.18587485
54	0x3d40f49e	0.047108285
55	0x3d63ad91	0.055585448
56	0xbf4eea87	-0.8082661
57	0xbcfb8501	-0.03070307
58	0x3d9e123e	0.07718323
59	0xbecb2965	-0.3968002
60	0xbd556d88	-0.05210641
61	0x3da5f9da	0.08104296
62	0x3e2a9d26	0.1666151
63	0xbf771319	-0.96513516
64	0xbd91f7c1	-0.071273334
65	0x3ea19df0	0.3156581
66	0xbd37d45f	-0.044880267
67	0x3ca2240f	0.019792585
68	0xbf55e682	-0.8355485
69	0xbf472cac	-0.7780254
70	0x3e19c36a	0.15015951
71	0xbd30ef19	-0.04319677
72	0xbcad3479	-0.021143185
73	0xbc81fc37	-0.015867336
74	0x3d5a0236	0.053224765
75	0x3ed6789d	0.41888896
76	0x3e7700af	0.24121355
77	0xbfcc8182	-1.5977023
78	0xbd935d24	-0.071954995
79	0x3d7b7d65	0.061398882
80	0x3d88db2d	0.066824295
81	0x3e2e749c	0.1703667
82	0x3e99a13d	0.30005828
83	0xbdaddd52	-0.08489479
84	0x3dc6ef35	0.09713594
85	0x3e0cda66	0.13755187
86	0xbe1ed9e1	-0.15512802
87	0xbe5bd263	-0.21466975
88	0x3df0adc1	0.11751891
89	0xbe5b1905	-0.21396263
90	0xbe1f59a2	-0.15561536
91	0x3d923034	0.071381
92	0x3c8006b0	0.015628189
93	0xbf69f57d	-0.9139021
94	0xbe79e670	-0.24404311
95	0xc00ce598	-2.2015133
96	0x3e3ce033	0.184449
97	0x3e42a829	0.1900946
98	0xbd066f19	-0.032820795
99	0xbd9c217e	-0.07623576
100	0x3c188f70	0.009311542
101	0xbe6a420f	-0.22876762
102	0x3b726dd0	0.0036991723
103	0x3e977068	0.29577947
104	0x3dba4c9f	0.090966456
105	0xbe07c4b5	-0.13258632
106	0x3ea1bd16	0.31589574
107	0xbf1714e4	-0.5901625
108	0x3c043a41	0.008070529
109	0x3d25143f	0.04030251
110	0x3d2d516f	0.04231399
111	0x3c8dae08	0.017294899
112	0xbe8799a3	-0.26484403
113	0x3e4995d7	0.19686066
114	0x3e1c9611	0.15291621
115	0x3d99afbd	0.075042225
116	0x3e2ccfb8	0.16876113
117	0xbc5f334d	-0.013623071
118	0x3e85aac6	0.26106852
119	0xbf714046	-0.942387
120	0x3b9c395c	0.00476758
121	0xbf04880f	-0.5177011
122	0xbd84a9c5	-0.064776935
123	0x3d352613	0.044225764
124	0xbe431bff	-0.19053648
125	0xbe2d7f15	-0.16943009
126	0x3e3d8c46	0.18510541
127	0x3f1085aa	0.56453955
128	0x3d1946f6	0.03742119
129	0xbe26a178	-0.16272533
130	0xbf22b023	-0.63550013
131	0xbe2560cc	-0.16150206
132	0x3e31e1de	0.17371318
133	0xbd2bc82d	-0.04193895
134	0x3e377485	0.17915542
135	0xbcb9bddf	-0.022673545
136	0x3ca834b4	0.020532943
137	0xbeeac548	-0.4585364
138	0xbff55e57	-1.9169415
139	0x3e8b713e	0.27234834
140	0x3e7391b5	0.23786052
141	0x3da98e17	0.082790546
142	0xbe61b07e	-0.22039983
143	0x3efd8fd7	0.49523804
144	0x3d4fa7bb	0.05069707
145	0xbd4dcced	-0.05024426
146	0x39c57d7f	0.0003766827
147	0x3ea6e0b1	0.325933
148	0xbd2433df	-0.04008853
149	0xbec2adb8	-0.38023162
150	0xbf02cb41	-0.5109139
151	0xc059426e	-3.3946795
152	0xbf24e927	-0.6441826
153	0x3eb477c0	0.35247612
154	0xbf26fad6	-0.65226495
155	0xbfb1baaa	-1.388509
156	0xbe0e6c1e	-0.13908431
157	0x3e623a5b	0.22092573
158	0x3e0d095c	0.13773102
159	0xbe52c46b	-0.2058274
160	0x3e3e86a8	0.18606055
161	0xbe6722f3	-0.22571926
162	0x3e5e00d3	0.21680002
163	0x3e844f8b	0.25841936
164	0x3b54662d	0.0032409534
165	0x3da5b90e	0.08091937
166	0xbf376b43	-0.71648043
167	0x3e7ef33a	0.24897471
168	0x3d796da2	0.06089557
169	0x3e49adb3	0.19695167
170	0xbdb1831d	-0.08667586
171	0x3ed578d6	0.41693753
172	0x3c655dcf	0.0139994165
173	0x3da450fb	0.08023258
174	0x3ea1cce1	0.31601623
175	0xbf7d2dc4	-0.9889796
176	0xbdec0ca9	-0.11525852
177	0x3e04d950	0.12973523
178	0x3cd23cbd	0.025663728
179	0xbda569e6	-0.08076839
180	0x3c6afdd0	0.01434274
181	0x3dd9b217	0.10629671
182	0xbd8ff091	-0.07028306
183	0xbf055102	-0.52076733
184	0x3e45e79a	0.1932663
185	0xbe0554e5	-0.13020666
186	0x3da00eac	0.078152984
187	0x3e88149d	0.26578227
188	0x3daae22d	0.08343921
189	0x3d83c703	0.06434443
190	0xbe278dec	-0.16362733
191	0xbf9d3775	-1.2282549
192	0x3d4438aa	0.0479056
193	0x3dce100f	0.10061657
194	0x3dcd0fd3	0.10012784
195	0xbf3faf11	-0.74876505
196	0xbd3f6197	-0.04672393
197	0x3ead2ae1	0.33821777
198	0xbc8a1b99	-0.016858863
199	0x3e810348	0.25197816
200	0x3e784fab	0.24249141
201	0x3d76e914	0.060280874
202	0x3cde4136	0.027130704
203	0x3e072319	0.13196982
204	0xbc3f617f	-0.01168096
205	0xc054ecfa	-3.326964
206	0xbcaf2c98	-0.021383569
207	0x3df44852	0.119278565
208	0xbd3475e2	-0.044057734
209	0x3d43278d	0.04764514
210	0x3aca1c5e	0.0015419831
211	0x3c9fa4a8	0.019487694
212	0xbeb3965a	-0.35075647
213	0xbf1c37fb	-0.6102292
214	0x3e1bab40	0.15202045
215	0xbdad078d	-0.08448706
216	0xbe09147f	-0.13386725
217	0xbdd62953	-0.10457101
218	0x3e2a24ea	0.16615644
219	0xbeaf417b	-0.34229645
220	0x3d3071be	0.043077223
221	0x3f0428a7	0.5162453
222	0xc03a89ae	-2.9146533
223	0xbf99e202	-1.2022097
224	0xbe0ca711	-0.13735606
225	0x3e8bacb5	0.27280203
226	0x3d926d85	0.071497954
227	0xbec7cf2f	-0.39025256
228	0xbd3eb466	-0.04655876
229	0xbf2fa3c9	-0.6860929
230	0x3d1fbaae	0.03899639
231	0xbe1f53e9	-0.15559353
232	0xbea6f85c	-0.32611358
233	0x3ecaee7a	0.39635068
234	0xbe9f3826	-0.31097525
235	0xbee8df6d	-0.4548296
236	0xbdcad6d8	-0.099042594
237	0xbf70f106	-0.9411777
238	0xbe69368c	-0.22774714
239	0xbed9ec4d	-0.42563096
240	0x3c4b1dec	0.012397271
241	0xbf7591d6	-0.95925653
242	0x3ddfe909	0.1093312
243	0x3c656f28	0.0140035525
244	0xc0017fdb	-2.0234287
245	0xbc62810e	-0.013824714
246	0xbe8a20f2	-0.2697826
247	0x3da3a2f7	0.079900675
248	0x3e4338ea	0.1906468
249	0xbfbad944	-1.4597554
250	0xbc74ee38	-0.014949374
251	0xbe6c0605	-0.23049171
252	0xbe50e74e	-0.20400736
253	0x3e8a33d2	0.2699266
254	0xbf0c6c2f	-0.54852575
255	0x3c8b39b6	0.016995292

net.2.bias f4 [128]
0	0x3e91b28e	0.2845654
1	0x3e0f07d4	0.1396783
2	0x3e2450ee	0.16046497
3	0xbe22fa0d	-0.159157
4	0x3d958d53	0.07302346
5	0xbe23b57a	-0.15987197
6	0x3e0c54fc	0.13704294
7	0x3e116295	0.14197762
8	0xbe10dffb	-0.14147942
9	0xbdaba919	-0.08381862
10	0xbc0aceae	-0.008472128
11	0x3b9e754e	0.004835761
12	0xbd36448c	-0.044498965
13	0xbd901102	-0.07034494
14	0x3c2a2767	0.010385371
15	0x39eeaa9f	0.0004552202
16	0x3df9ed79	0.122034974
17	0x3de769e7	0.11299496
18	0x3e3f3634	0.1867302
19	0xbd89a814	-0.067215115
20	0x3f00bc84	0.5028765
21	0x3e00061a	0.12502328
22	0xbcd6e416	-0.026231807
23	0x3e8586c4	0.2607938
24	0x3de9e2f3	0.1142024
25	0x3d04ce84	0.03242351
26	0x3ce6e5a4	0.028185673
27	0xbe18b516	-0.14912829
28	0x3eab3e8d	0.3344616
29	0xbe0c3ea8	-0.13695776
30	0xbd930dc5	-0.07180361
31	0xbdf46b5f	-0.11934542
32	0xbc0a81b1	-0.008453772
33	0xbe12a041	-0.14318945
34	0xbafb5670	-0.0019175541
35	0xbdd55462	-0.10416485
36	0xbe4c15c9	-0.19930185
37	0xbd3c0232	-0.04590053
38	0xbda3001f	-0.079590075
39	0x3cabe544	0.020983346
40	0xbd911a35	-0.07085077
41	0xbd9d4346	-0.07678847
42	0xbdf9fc00	-0.12206268
43	0xbd9113ab	-0.070838295
44	0xbcad4425	-0.021150658
45	0xbc222dad	-0.009898585
46	0xbe00b9c5	-0.12570865
47	0x3e9506f8	0.2910688
48	0xbdd33f52	-0.10314812
49	0x3e05709e	0.13031241
50	0xbd5e7422	-0.05430997
51	0xbdcca2bb	-0.09991976
52	0xbdc0ef35	-0.09420625
53	0xbcb67697	-0.022273345
54	0xbd2f9914	-0.042870596
55	0x3c9d80a5	0.019226382
56	0xbd817211	-0.063205846
57	0xbdb946ac	-0.09046683
58	0x3c27b072	0.010234939
59	0xbcb72545	-0.022356639
60	0x3eb0b0c7	0.3450987
61	0xbda1d410	-0.07901776
62	0xbbfbbc91	-0.007682391
63	0xbe1aa49b	-0.15101855
64	0xbcb6d4ed	-0.022318328
65	0xbda58c27	-0.080833726
66	0x3ec93976	0.39301652
67	0x3cead64c	0.028666638
68	0xbd0c4b64	-0.034251586
69	0x3e69d6e0	0.22835875
70	0xbe192b9d	-0.14958043
71	0x3c068b1a	0.008211875
72	0xbce7a3f7	-0.028276427
73	0x3c5ae8dd	0.013361183
74	0x3db76900	0.08955574
75	0x3e92d115	0.28675142
76	0x3de981f2	0.11401738
77	0xbdd203e8	-0.10254651
78	0xbdd0baf5	-0.10191909
79	0xbde1c3a9	-0.11023647
80	0xbdefb57c	-0.11704537
81	0xbd1178a5	-0.035515446
82	0xbdaab54f	-0.08335363
83	0x3c47de64	0.012199018
84	0x3d8cb2dc	0.06870052
85	0xbcb74daf	-0.02237591
86	0xbdd99d6f	-0.10625731
87	0x3be3e371	0.0069546034
88	0xbd9f2f9d	-0.077727534
89	0x3e79e011	0.24401881
90	0x3eaf7f0c	0.34276617
91	0x3e1e066f	0.15432142
92	0x3deabe7c	0.11462113
93	0xbc66a13c	-0.014076527
94	0x3dd764c5	0.10517267
95	0xbcfbd3db	-0.030740669
96	0xbd770f1a	-0.060317136
97	0xbcbfda05	-0.02341939
98	0x3bcc2f13	0.0062311976
99	0x3d6af5ba	0.05736325
100	0xbe4a730b	-0.19770448
101	0x3de2e9d8	0.110797584
102	0xbcb18c2e	-0.021673288
103	0x3e3d39e9	0.18479122
104	0xbd1d0a9b	-0.038340192
105	0x3d63d375	0.055621583
106	0xbd801e38	-0.06255764
107	0xbe8cb955	-0.27485147
108	0xbda65bf1	-0.08123005
109	0xbe666e69	-0.22503056
110	0xbd74088c	-0.059578463
111	0xbdc330ad	-0.095307685
112	0xbcee013c	-0.029053323
113	0x3e2ba165	0.16760786
114	0xbd947a49	-0.072498865
115	0xbd8a542c	-0.06754336
116	0xbd9b421a	-0.07580967
117	0xbd08c725	-0.033393044
118	0xbd80c677	-0.06287854
119	0x3c08e79a	0.008355999
120	0xbda81e47	-0.082089
121	0xbd4d24f8	-0.050084084
122	0xbbf79c32	-0.0075564617
123	0xbd94d7d2	-0.07267727
124	0xbe4bc1b0	-0.19898105
125	0xbd42f031	-0.047592346
126	0x3d2337f1	0.03984827
127	0xbda6bd29	-0.08141548

net.4.weight f4 [2, 128]
0	0x3f45a6e9	0.7720781
1	0x3fd62d0c	1.6732497
2	0x3fa8666c	1.3156257
3	0xbf820c2b	-1.0159963
4	0xbe53ba4b	-0.20676534
5	0xbf51e931	-0.81996447
6	0x3f6e6aef	0.9313192
7	0xbec14b8b	-0.37752947
8	0x3ec4c116	0.38428563
9	0xbd297625	-0.041372437
10	0xc00c1b05	-2.1891491
11	0xbf6dfaaf	-0.9296064
12	0xb9227a8d	-0.00015495178
13	0x3d81bd59	0.06334943
14	0xbc33270b	-0.010934602
15	0xbd9219ea	-0.07133849
16	0x3fcb0377	1.5860432
17	0xbf460caf	-0.77363104
18	0xbf5c2979	-0.8600078
19	0x3d273758	0.040824264
20	0x3e340cba	0.1758298
21	0xbeebc450	-0.46048212
22	0x3ff70724	1.9299054
23	0x3d8b82e4	0.06812075
24	0xbf8cba67	-1.0994385
25	0xc02d9db4	-2.7127504
26	0xbf3a5a57	-0.727941
27	0x3d15b3f4	0.03654857
28	0x3f9a02cc	1.2032104
29	0xbe52d597	-0.2058929
30	0xbc23d275	-0.009998907
31	0x3f3cb75e	0.73717296
32	0x3f5a849c	0.85358596
33	0x3f2520da	0.6450325
34	0x4009d068	2.153345
35	0xbf33ab0f	-0.7018289
36	0xbf5c3ecd	-0.86033326
37	0xbc7e1572	-0.015508043
38	0x3f72b1e5	0.94802696
39	0xbda1f0b1	-0.07907236
40	0x3c39249c	0.011300232
41	0x3c44dd85	0.012015705
42	0x3c7b1136	0.015323928
43	0xbcae426c	-0.021271907
44	0x3db36bbd	0.08760784
45	0x3d845089	0.06460673
46	0xbf7d83be	-0.9902915
47	0x3e397e3a	0.18114558
48	0xbd1abc5e	-0.037777297
49	0xbeb18227	-0.3466961
50	0x3d071385	0.0329776
51	0x3cf584f0	0.029970616
52	0xbd22c590	-0.03973919
53	0x3ba2b2f8	0.0049651824
54	0x3d745697	0.05965289
55	0x3c0c1ef0	0.008552298
56	0xbf5d572f	-0.86461157
57	0x3d49ccde	0.049267642
58	0x3c7efd44	0.015563313
59	0x3af857b0	0.0018947031
60	0x3e970af9	0.2950056
61	0xbd29e3f9	-0.041477177
62	0xbd3e636f	-0.046481546
63	0xbc95c247	-0.018281115
64	0xbd912375	-0.07086841
65	0xbccc9f64	-0.024978347
66	0xbf82190e	-1.0163896
67	0xbfbc80d0	-1.472681
68	0xbd3ab4c6	-0.045582555
69	0x3f93fbc9	1.1561214
70	0x3e3f454b	0.18678777
71	0xbcffd4d3	-0.031229412
72	0xbccec889	-0.025242107
73	0x3aa276bd	0.0012395006
74	0xbfb1029f	-1.3828925
75	0x3e9f3144	0.31092274
76	0x3fe83021	1.8139688
77	0xbc631e14	-0.013862152
78	0xbc746db5	-0.014918734
79	0x3cf52592	0.029925141
80	0xbd608d87	-0.05482247
81	0x3f7071c7	0.9392361
82	0x3ec650b0	0.38733435
83	0x3d370578	0.04468295
84	0xbfde0ca8	-1.7347612
85	0x3d0ab12c	0.03386037
86	0x3dc81781	0.09770108
87	0xbc97b98c	-0.018521093
88	0x3da94077	0.08264249
89	0xbf49eb96	-0.788751
90	0xbf957b3c	-1.1678233
91	0x3d9232a1	0.07138563
92	0x3fa7cf53	1.3110145
93	0x3f40a84d	0.75256807
94	0x3dad3496	0.084572956
95	0x3ce7278d	0.028217101
96	0x3d9706a9	0.07374317
97	0xbc31adc3	-0.010844651
98	0x3fe089e5	1.7542082
99	0xbe5ff661	-0.2187133
100	0xbebda583	-0.37040338
101	0xba9ec4c0	-0.001211308
102	0x3eecfd98	0.46287227
103	0x3e98876a	0.29790813
104	0xbb95be9d	-0.004569842
105	0x3f8e9daf	1.1141871
106	0xbd8930ea	-0.06698783
107	0x3f53aad1	0.8268252
108	0x3f5a3673	0.8523933
109	0xbf605093	-0.87622947
110	0x3f69472f	0.9112424
111	0xbdea93bc	-0.11453959
112	0xbc956f57	-0.018241568
113	0x3ca20ec0	0.019782424
114	0x3c76bf74	0.015060294
115	0x3c92b087	0.01790644
116	0xbe6e6e60	-0.23284292
117	0x3d1c2882	0.03812457
118	0xbd183e8d	-0.037169028
119	0xbc60a19c	-0.013710406
120	0xbd9cf8d1	-0.076646455
121	0xbcf8bbaa	-0.030362923
122	0x3ba9cd3f	0.005181938
123	0x3d801116	0.06253259
124	0x3f7cee56	0.9880117
125	0xbcc8714e	-0.02446809
126	0xbd63594e	-0.05550509
127	0x3c067350	0.008206204
128	0x3ec2aed7	0.38024017
129	0x3fe32961	1.7747003
130	0x3fd0a3a7	1.6299943
131	0xbf09060f	-0.5352487
132	0xbdf364a9	-0.11884434
133	0x3e02bd63	0.12767558
134	0x3f88f8e8	1.070096
135	0xbfab8880	-1.3401031
136	0xbedb6963	-0.4285384
137	0x3c6160c0	0.013755977
138	0xbf66d198	-0.90163565
139	0xbf5d11ed	-0.8635548
140	0xbd92827e	-0.07153796
141	0xbb80660d	-0.0039184154
142	0xbd13fed5	-0.0361317
143	0xbc04e756	-0.008111795
144	0xbebead54	-0.37241614
145	0x3d8ecc2b	0.06972536
146	0xbf09ce4b	-0.53830403
147	0x3a44a0ed	0.00075007865
148	0x3e668345	0.22511013
149	0xbfc869c2	-1.5657275
150	0x3fd72c74	1.6810441
151	0x3e2fd05e	0.1716933
152	0xbf64474e	-0.891713
153	0x3e6779ae	0.22605011
154	0xbed749ea	-0.4204858
155	0xbcd2d8a9	-0.025738077
156	0xbef74da1	-0.48301414
157	0x3dd75273	0.10513773
158	0xbccb0e90	-0.024787217
159	0x3ef5b30d	0.47988167
160	0xbf8dc17a	-1.1074669
161	0xbe48dfd8	-0.1961664
162	0x3fcc6f6e	1.5971506
163	0x3e954e33	0.29161224
164	0xbed2dd89	-0.41184643
165	0x3d477386	0.048694156
166	0x3e93df1b	0.28881153
167	0x3d789fba	0.060699202
168	0xbbfeee29	-0.0077798557
169	0x3cb10a2a	0.021611292
170	0xbc53d487	-0.012929088
171	0x3da001d3	0.07812848
172	0x3c838bef	0.016057936
173	0xbdd5df97	-0.10443037
174	0xbf9aaed0	-1.2084599
175	0x3e8860e6	0.26636428
176	0xbd6a6227	-0.05722251
177	0xbe5508bf	-0.20804118
178	0x3cc43f05	0.023955831
179	0x3ca0aa5c	0.019612484
180	0xbd599f50	-0.053130448
181	0x3d116eb2	0.035505958
182	0x3cbcaf07	0.023032678
183	0xbbe094ce	-0.0068536764
184	0xbf178e42	-0.59201443
185	0x3d013abc	0.031550154
186	0xbc841a74	-0.016125895
187	0xb95967ec	-0.00020733447
188	0x3cc39a52	0.023877297
189	0x3d7a89d7	0.06116661
190	0x3c1053d6	0.008809051
191	0xbd9631dc	-0.07333729
192	0x3d3db1cf	0.04631215
193	0xbc296f37	-0.010341457
194	0xbf9873be	-1.1910322
195	0x3f70da65	0.94083244
196	0x3c557f7b	0.013030882
197	0x3e42e71a	0.19033471
198	0x3f858488	1.043107
199	0x3cae63a8	0.021287754
200	0x3d1d1571	0.038350526
201	0xbd16b628	-0.03679481
202	0xbf975d53	-1.1825355
203	0x3e8688f0	0.2627635
204	0x3fcb17be	1.586662
205	0xbbcc85a1	-0.0062415157
206	0x3c4adac8	0.012381263
207	0x3d8e97ff	0.06962585
208	0xbd68c974	-0.056832746
209	0x3f6a9b73	0.91643447
210	0xbff699d4	-1.9265695
211	0xbc6387ce	-0.013887359
212	0xbe4f92a6	-0.20270786
213	0xbcae4fb6	-0.021278244
214	0xbc2867ea	-0.010278681
215	0xbc7c96e2	-0.015416833
216	0xbd5e47c6	-0.054267667
217	0xbfa2d21c	-1.272037
218	0xbf65244b	-0.89508504
219	0x3ddfb7b9	0.10923714
220	0x3f46b094	0.77613187
221	0x3f34c3b9	0.7061115
222	0xbf8f7bef	-1.1209697
223	0xbcee9260	-0.029122531
224	0xc00451df	-2.067497
225	0xba18ac06	-0.00058239733
226	0x3faf7bb7	1.370963
227	0xbdf91a56	-0.12163226
228	0x3fc68a53	1.5510963
229	0x3f67c4aa	0.9053446
230	0x3f95e36e	1.1710031
231	0x3f4c228e	0.79740226
232	0xbb27e663	-0.00256195
233	0x3f25dae5	0.6478713
234	0x3eb1fe2c	0.3476423
235	0xbe155ebc	-0.1458692
236	0xbee3b007	-0.44470236
237	0xbe77bda5	-0.24193437
238	0x3d097bd6	0.033565365
239	0xbd72bc79	-0.059261773
240	0xbc5bccaa	-0.013415495
241	0x3cfcfcff	0.030882357
242	0xbcbb4af0	-0.022862881
243	0xbcae5785	-0.021281967
244	0xbed0cfee	-0.40783638
245	0x3b4fbe00	0.0031698942
246	0xbd5ce89f	-0.053932782
247	0xbb03d39b	-0.002011514
248	0x3c66d368	0.014088489
249	0x3d550ba8	0.05201307
250	0x3cb3790b	0.021908304
251	0xbd85c391	-0.06531442
252	0x3f4fcc50	0.8117113
253	0xbf0463bd	-0.5171469
254	0xbd3c1e56	-0.045927368
255	0xbcbcd82c	-0.023052298

net.4.bias f4 [2]
0	0x3de58077	0.11206143
1	0x3d41c2be	0.04730486
